…
I0722 18:37:35.154996  3638 net.cpp:294] The NetState phase (0) differed from the phase (1) specified by a rule in layer data
I0722 18:37:35.155038  3638 net.cpp:294] The NetState phase (0) differed from the phase (1) specified by a rule in layer accuracy
I0722 18:37:35.155290  3638 net.cpp:51] Initializing net from parameters: 
name: "bone-SSDH"
state {
  phase: TRAIN
  level: 0
  stage: ""
}
layer {
  name: "data"
  type: "Data"
  top: "data"
  top: "label"
  include {
    phase: TRAIN
  }
  transform_param {
    mirror: false
    crop_size: 227
    mean_value: 92.6427
  }
  data_param {
    source: "data/bone/bone_train_position_leveldb"
    batch_size: 32
  }
}
layer {
  name: "conv1"
  type: "Convolution"
  bottom: "data"
  top: "conv1"
  param {
    lr_mult: 1
    decay_mult: 1
  }
  param {
    lr_mult: 2
    decay_mult: 0
  }
  convolution_param {
    num_output: 96
    kernel_size: 11
    stride: 4
    weight_filler {
      type: "gaussian"
      std: 0.01
    }
    bias_filler {
      type: "constant"
      value: 0
    }
  }
}
layer {
  name: "relu1"
  type: "ReLU"
  bottom: "conv1"
  top: "conv1"
}
layer {
  name: "pool1"
  type: "Pooling"
  bottom: "conv1"
  top: "pool1"
  pooling_param {
    pool: MAX
    kernel_size: 3
    stride: 2
  }
}
layer {
  name: "norm1"
  type: "LRN"
  bottom: "pool1"
  top: "norm1"
  lrn_param {
    local_size: 5
    alpha: 0.0001
    beta: 0.75
  }
}
layer {
  name: "conv2"
  type: "Convolution"
  bottom: "norm1"
  top: "conv2"
  param {
    lr_mult: 1
    decay_mult: 1
  }
  param {
    lr_mult: 2
    decay_mult: 0
  }
  convolution_param {
    num_output: 256
    pad: 2
    kernel_size: 5
    group: 2
    weight_filler {
      type: "gaussian"
      std: 0.01
    }
    bias_filler {
      type: "constant"
      value: 1
    }
  }
}
layer {
  name: "relu2"
  type: "ReLU"
  bottom: "conv2"
  top: "conv2"
}
layer {
  name: "pool2"
  type: "Pooling"
  bottom: "conv2"
  top: "pool2"
  pooling_param {
    pool: MAX
    kernel_size: 3
    stride: 2
  }
}
layer {
  name: "norm2"
  type: "LRN"
  bottom: "pool2"
  top: "norm2"
  lrn_param {
    local_size: 5
    alpha: 0.0001
    beta: 0.75
  }
}
layer {
  name: "conv3"
  type: "Convolution"
  bottom: "norm2"
  top: "conv3"
  param {
    lr_mult: 1
    decay_mult: 1
  }
  param {
    lr_mult: 2
    decay_mult: 0
  }
  convolution_param {
    num_output: 384
    pad: 1
    kernel_size: 3
    weight_filler {
      type: "gaussian"
      std: 0.01
    }
    bias_filler {
      type: "constant"
      value: 0
    }
  }
}
layer {
  name: "relu3"
  type: "ReLU"
  bottom: "conv3"
  top: "conv3"
}
layer {
  name: "conv4"
  type: "Convolution"
  bottom: "conv3"
  top: "conv4"
  param {
    lr_mult: 1
    decay_mult: 1
  }
  param {
    lr_mult: 2
    decay_mult: 0
  }
  convolution_param {
    num_output: 384
    pad: 1
    kernel_size: 3
    group: 2
    weight_filler {
      type: "gaussian"
      std: 0.01
    }
    bias_filler {
      type: "constant"
      value: 1
    }
  }
}
layer {
  name: "relu4"
  type: "ReLU"
  bottom: "conv4"
  top: "conv4"
}
layer {
  name: "conv5"
  type: "Convolution"
  bottom: "conv4"
  top: "conv5"
  param {
    lr_mult: 1
    decay_mult: 1
  }
  param {
    lr_mult: 2
    decay_mult: 0
  }
  convolution_param {
    num_output: 256
    pad: 1
    kernel_size: 3
    group: 2
    weight_filler {
      type: "gaussian"
      std: 0.01
    }
    bias_filler {
      type: "constant"
      value: 1
    }
  }
}
layer {
  name: "relu5"
  type: "ReLU"
  bottom: "conv5"
  top: "conv5"
}
layer {
  name: "pool5"
  type: "Pooling"
  bottom: "conv5"
  top: "pool5"
  pooling_param {
    pool: MAX
    kernel_size: 3
    stride: 2
  }
}
layer {
  name: "fc6"
  type: "InnerProduct"
  bottom: "pool5"
  top: "fc6"
  param {
    lr_mult: 1
    decay_mult: 1
  }
  param {
    lr_mult: 2
    decay_mult: 0
  }
  inner_product_param {
    num_output: 4096
    weight_filler {
      type: "gaussian"
      std: 0.005
    }
    bias_filler {
      type: "constant"
      value: 1
    }
  }
}
layer {
  name: "relu6"
  type: "ReLU"
  bottom: "fc6"
  top: "fc6"
}
layer {
  name: "drop6"
  type: "Dropout"
  bottom: "fc6"
  top: "fc6"
  dropout_param {
    dropout_ratio: 0.5
  }
}
layer {
  name: "fc7"
  type: "InnerProduct"
  bottom: "fc6"
  top: "fc7"
  param {
    lr_mult: 1
    decay_mult: 1
  }
  param {
    lr_mult: 2
    decay_mult: 0
  }
  inner_product_param {
    num_output: 4096
    weight_filler {
      type: "gaussian"
      std: 0.005
    }
    bias_filler {
      type: "constant"
      value: 1
    }
  }
}
layer {
  name: "relu7"
  type: "ReLU"
  bottom: "fc7"
  top: "fc7"
}
layer {
  name: "drop7"
  type: "Dropout"
  bottom: "fc7"
  top: "fc7"
  dropout_param {
    dropout_ratio: 0.5
  }
}
layer {
  name: "latent"
  type: "InnerProduct"
  bottom: "fc7"
  top: "latent"
  param {
    lr_mult: 1
    decay_mult: 1
  }
  param {
    lr_mult: 2
    decay_mult: 0
  }
  inner_product_param {
    num_output: 48
    weight_filler {
      type: "gaussian"
      std: 0.01
    }
    bias_filler {
      type: "constant"
      value: 0
    }
  }
}
layer {
  name: "latent_sigmoid"
  type: "Sigmoid"
  bottom: "latent"
  top: "latent_sigmoid"
}
layer {
  name: "loss_1"
  type: "K1_EuclideanLoss"
  bottom: "latent_sigmoid"
  bottom: "latent_sigmoid"
  top: "loss: forcing-binary"
  loss_weight: 1
  propagate_down: true
  propagate_down: false
}
layer {
  name: "latent_sigmoid_reshape"
  type: "Reshape"
  bottom: "latent_sigmoid"
  top: "latent_sigmoid_reshape"
  reshape_param {
    shape {
      dim: 0
      dim: 1
      dim: 1
      dim: -1
    }
  }
}
layer {
  name: "latent_sigmoid_avg"
  type: "Pooling"
  bottom: "latent_sigmoid_reshape"
  top: "latent_sigmoid_avg"
  pooling_param {
    pool: AVE
    kernel_h: 1
    kernel_w: 48
  }
}
layer {
  name: "loss_2"
  type: "K2_EuclideanLoss"
  bottom: "latent_sigmoid_avg"
  bottom: "latent_sigmoid_avg"
  top: "loss: 50%-fire-rate"
  loss_weight: 1
  propagate_down: true
  propagate_down: false
}
layer {
  name: "fc9"
  type: "InnerProduct"
  bottom: "latent_sigmoid"
  top: "fc9"
  param {
    lr_mult: 10
    decay_mult: 1
  }
  param {
    lr_mult: 20
    decay_mult: 0
  }
  inner_product_param {
    num_output: 5
    weight_filler {
      type: "gaussian"
      std: 0.2
    }
    bias_filler {
      type: "constant"
      value: 0
    }
  }
}
layer {
  name: "loss"
  type: "SoftmaxWithLoss"
  bottom: "fc9"
  bottom: "label"
  top: "loss: classfication-error"
  loss_weight: 1
}
I0722 18:37:35.155541  3638 layer_factory.hpp:77] Creating layer data
I0722 18:37:35.242365  3638 db_leveldb.cpp:18] Opened leveldb data/bone/bone_train_position_leveldb
I0722 18:37:35.245887  3638 net.cpp:84] Creating Layer data
I0722 18:37:35.245931  3638 net.cpp:380] data -> data
I0722 18:37:35.245988  3638 net.cpp:380] data -> label
I0722 18:37:35.248399  3638 data_layer.cpp:45] output data size: 32,3,227,227
I0722 18:37:35.298617  3638 net.cpp:122] Setting up data
I0722 18:37:35.298784  3638 net.cpp:129] Top shape: 32 3 227 227 (4946784)
I0722 18:37:35.298831  3638 net.cpp:129] Top shape: 32 (32)
I0722 18:37:35.298840  3638 net.cpp:137] Memory required for data: 19787264
I0722 18:37:35.298861  3638 layer_factory.hpp:77] Creating layer conv1
I0722 18:37:35.298905  3638 net.cpp:84] Creating Layer conv1
I0722 18:37:35.298916  3638 net.cpp:406] conv1 <- data
I0722 18:37:35.298944  3638 net.cpp:380] conv1 -> conv1
I0722 18:37:35.561085  3638 net.cpp:122] Setting up conv1
I0722 18:37:35.561134  3638 net.cpp:129] Top shape: 32 96 55 55 (9292800)
I0722 18:37:35.561161  3638 net.cpp:137] Memory required for data: 56958464
I0722 18:37:35.561180  3638 layer_factory.hpp:77] Creating layer relu1
I0722 18:37:35.561209  3638 net.cpp:84] Creating Layer relu1
I0722 18:37:35.561214  3638 net.cpp:406] relu1 <- conv1
I0722 18:37:35.561235  3638 net.cpp:367] relu1 -> conv1 (in-place)
I0722 18:37:35.561977  3638 net.cpp:122] Setting up relu1
I0722 18:37:35.561992  3638 net.cpp:129] Top shape: 32 96 55 55 (9292800)
I0722 18:37:35.562007  3638 net.cpp:137] Memory required for data: 94129664
I0722 18:37:35.562011  3638 layer_factory.hpp:77] Creating layer pool1
I0722 18:37:35.562022  3638 net.cpp:84] Creating Layer pool1
I0722 18:37:35.562026  3638 net.cpp:406] pool1 <- conv1
I0722 18:37:35.562036  3638 net.cpp:380] pool1 -> pool1
I0722 18:37:35.562101  3638 net.cpp:122] Setting up pool1
I0722 18:37:35.562124  3638 net.cpp:129] Top shape: 32 96 27 27 (2239488)
I0722 18:37:35.562127  3638 net.cpp:137] Memory required for data: 103087616
I0722 18:37:35.562130  3638 layer_factory.hpp:77] Creating layer norm1
I0722 18:37:35.562142  3638 net.cpp:84] Creating Layer norm1
I0722 18:37:35.562146  3638 net.cpp:406] norm1 <- pool1
I0722 18:37:35.562151  3638 net.cpp:380] norm1 -> norm1
I0722 18:37:35.562363  3638 net.cpp:122] Setting up norm1
I0722 18:37:35.562376  3638 net.cpp:129] Top shape: 32 96 27 27 (2239488)
I0722 18:37:35.562379  3638 net.cpp:137] Memory required for data: 112045568
I0722 18:37:35.562383  3638 layer_factory.hpp:77] Creating layer conv2
I0722 18:37:35.562397  3638 net.cpp:84] Creating Layer conv2
I0722 18:37:35.562400  3638 net.cpp:406] conv2 <- norm1
I0722 18:37:35.562407  3638 net.cpp:380] conv2 -> conv2
I0722 18:37:35.575681  3638 net.cpp:122] Setting up conv2
I0722 18:37:35.575732  3638 net.cpp:129] Top shape: 32 256 27 27 (5971968)
I0722 18:37:35.575737  3638 net.cpp:137] Memory required for data: 135933440
I0722 18:37:35.575752  3638 layer_factory.hpp:77] Creating layer relu2
I0722 18:37:35.575765  3638 net.cpp:84] Creating Layer relu2
I0722 18:37:35.575770  3638 net.cpp:406] relu2 <- conv2
I0722 18:37:35.575778  3638 net.cpp:367] relu2 -> conv2 (in-place)
I0722 18:37:35.576530  3638 net.cpp:122] Setting up relu2
I0722 18:37:35.576557  3638 net.cpp:129] Top shape: 32 256 27 27 (5971968)
I0722 18:37:35.576561  3638 net.cpp:137] Memory required for data: 159821312
I0722 18:37:35.576565  3638 layer_factory.hpp:77] Creating layer pool2
I0722 18:37:35.576575  3638 net.cpp:84] Creating Layer pool2
I0722 18:37:35.576577  3638 net.cpp:406] pool2 <- conv2
I0722 18:37:35.576586  3638 net.cpp:380] pool2 -> pool2
I0722 18:37:35.576632  3638 net.cpp:122] Setting up pool2
I0722 18:37:35.576642  3638 net.cpp:129] Top shape: 32 256 13 13 (1384448)
I0722 18:37:35.576644  3638 net.cpp:137] Memory required for data: 165359104
I0722 18:37:35.576647  3638 layer_factory.hpp:77] Creating layer norm2
I0722 18:37:35.576658  3638 net.cpp:84] Creating Layer norm2
I0722 18:37:35.576660  3638 net.cpp:406] norm2 <- pool2
I0722 18:37:35.576666  3638 net.cpp:380] norm2 -> norm2
I0722 18:37:35.576881  3638 net.cpp:122] Setting up norm2
I0722 18:37:35.576895  3638 net.cpp:129] Top shape: 32 256 13 13 (1384448)
I0722 18:37:35.576898  3638 net.cpp:137] Memory required for data: 170896896
I0722 18:37:35.576902  3638 layer_factory.hpp:77] Creating layer conv3
I0722 18:37:35.576918  3638 net.cpp:84] Creating Layer conv3
I0722 18:37:35.576922  3638 net.cpp:406] conv3 <- norm2
I0722 18:37:35.576928  3638 net.cpp:380] conv3 -> conv3
I0722 18:37:35.605311  3638 net.cpp:122] Setting up conv3
I0722 18:37:35.605351  3638 net.cpp:129] Top shape: 32 384 13 13 (2076672)
I0722 18:37:35.605356  3638 net.cpp:137] Memory required for data: 179203584
I0722 18:37:35.605372  3638 layer_factory.hpp:77] Creating layer relu3
I0722 18:37:35.605386  3638 net.cpp:84] Creating Layer relu3
I0722 18:37:35.605391  3638 net.cpp:406] relu3 <- conv3
I0722 18:37:35.605398  3638 net.cpp:367] relu3 -> conv3 (in-place)
I0722 18:37:35.605597  3638 net.cpp:122] Setting up relu3
I0722 18:37:35.605609  3638 net.cpp:129] Top shape: 32 384 13 13 (2076672)
I0722 18:37:35.605633  3638 net.cpp:137] Memory required for data: 187510272
I0722 18:37:35.605638  3638 layer_factory.hpp:77] Creating layer conv4
I0722 18:37:35.605653  3638 net.cpp:84] Creating Layer conv4
I0722 18:37:35.605656  3638 net.cpp:406] conv4 <- conv3
I0722 18:37:35.605664  3638 net.cpp:380] conv4 -> conv4
I0722 18:37:35.628950  3638 net.cpp:122] Setting up conv4
I0722 18:37:35.629003  3638 net.cpp:129] Top shape: 32 384 13 13 (2076672)
I0722 18:37:35.629007  3638 net.cpp:137] Memory required for data: 195816960
I0722 18:37:35.629019  3638 layer_factory.hpp:77] Creating layer relu4
I0722 18:37:35.629032  3638 net.cpp:84] Creating Layer relu4
I0722 18:37:35.629039  3638 net.cpp:406] relu4 <- conv4
I0722 18:37:35.629046  3638 net.cpp:367] relu4 -> conv4 (in-place)
I0722 18:37:35.629814  3638 net.cpp:122] Setting up relu4
I0722 18:37:35.629840  3638 net.cpp:129] Top shape: 32 384 13 13 (2076672)
I0722 18:37:35.629844  3638 net.cpp:137] Memory required for data: 204123648
I0722 18:37:35.629848  3638 layer_factory.hpp:77] Creating layer conv5
I0722 18:37:35.629863  3638 net.cpp:84] Creating Layer conv5
I0722 18:37:35.629868  3638 net.cpp:406] conv5 <- conv4
I0722 18:37:35.629875  3638 net.cpp:380] conv5 -> conv5
I0722 18:37:35.646631  3638 net.cpp:122] Setting up conv5
I0722 18:37:35.646680  3638 net.cpp:129] Top shape: 32 256 13 13 (1384448)
I0722 18:37:35.646685  3638 net.cpp:137] Memory required for data: 209661440
I0722 18:37:35.646701  3638 layer_factory.hpp:77] Creating layer relu5
I0722 18:37:35.646714  3638 net.cpp:84] Creating Layer relu5
I0722 18:37:35.646718  3638 net.cpp:406] relu5 <- conv5
I0722 18:37:35.646728  3638 net.cpp:367] relu5 -> conv5 (in-place)
I0722 18:37:35.647482  3638 net.cpp:122] Setting up relu5
I0722 18:37:35.647497  3638 net.cpp:129] Top shape: 32 256 13 13 (1384448)
I0722 18:37:35.647512  3638 net.cpp:137] Memory required for data: 215199232
I0722 18:37:35.647516  3638 layer_factory.hpp:77] Creating layer pool5
I0722 18:37:35.647524  3638 net.cpp:84] Creating Layer pool5
I0722 18:37:35.647529  3638 net.cpp:406] pool5 <- conv5
I0722 18:37:35.647536  3638 net.cpp:380] pool5 -> pool5
I0722 18:37:35.647606  3638 net.cpp:122] Setting up pool5
I0722 18:37:35.647631  3638 net.cpp:129] Top shape: 32 256 6 6 (294912)
I0722 18:37:35.647635  3638 net.cpp:137] Memory required for data: 216378880
I0722 18:37:35.647639  3638 layer_factory.hpp:77] Creating layer fc6
I0722 18:37:35.647657  3638 net.cpp:84] Creating Layer fc6
I0722 18:37:35.647661  3638 net.cpp:406] fc6 <- pool5
I0722 18:37:35.647668  3638 net.cpp:380] fc6 -> fc6
I0722 18:37:36.685153  3638 net.cpp:122] Setting up fc6
I0722 18:37:36.685214  3638 net.cpp:129] Top shape: 32 4096 (131072)
I0722 18:37:36.685240  3638 net.cpp:137] Memory required for data: 216903168
I0722 18:37:36.685273  3638 layer_factory.hpp:77] Creating layer relu6
I0722 18:37:36.685302  3638 net.cpp:84] Creating Layer relu6
I0722 18:37:36.685320  3638 net.cpp:406] relu6 <- fc6
I0722 18:37:36.685334  3638 net.cpp:367] relu6 -> fc6 (in-place)
I0722 18:37:36.686014  3638 net.cpp:122] Setting up relu6
I0722 18:37:36.686028  3638 net.cpp:129] Top shape: 32 4096 (131072)
I0722 18:37:36.686043  3638 net.cpp:137] Memory required for data: 217427456
I0722 18:37:36.686046  3638 layer_factory.hpp:77] Creating layer drop6
I0722 18:37:36.686058  3638 net.cpp:84] Creating Layer drop6
I0722 18:37:36.686061  3638 net.cpp:406] drop6 <- fc6
I0722 18:37:36.686066  3638 net.cpp:367] drop6 -> fc6 (in-place)
I0722 18:37:36.686141  3638 net.cpp:122] Setting up drop6
I0722 18:37:36.686158  3638 net.cpp:129] Top shape: 32 4096 (131072)
I0722 18:37:36.686161  3638 net.cpp:137] Memory required for data: 217951744
I0722 18:37:36.686164  3638 layer_factory.hpp:77] Creating layer fc7
I0722 18:37:36.686175  3638 net.cpp:84] Creating Layer fc7
I0722 18:37:36.686178  3638 net.cpp:406] fc7 <- fc6
I0722 18:37:36.686185  3638 net.cpp:380] fc7 -> fc7
I0722 18:37:37.137372  3638 net.cpp:122] Setting up fc7
I0722 18:37:37.137413  3638 net.cpp:129] Top shape: 32 4096 (131072)
I0722 18:37:37.137444  3638 net.cpp:137] Memory required for data: 218476032
I0722 18:37:37.137455  3638 layer_factory.hpp:77] Creating layer relu7
I0722 18:37:37.137480  3638 net.cpp:84] Creating Layer relu7
I0722 18:37:37.137487  3638 net.cpp:406] relu7 <- fc7
I0722 18:37:37.137497  3638 net.cpp:367] relu7 -> fc7 (in-place)
I0722 18:37:37.138525  3638 net.cpp:122] Setting up relu7
I0722 18:37:37.138540  3638 net.cpp:129] Top shape: 32 4096 (131072)
I0722 18:37:37.138543  3638 net.cpp:137] Memory required for data: 219000320
I0722 18:37:37.138546  3638 layer_factory.hpp:77] Creating layer drop7
I0722 18:37:37.138557  3638 net.cpp:84] Creating Layer drop7
I0722 18:37:37.138561  3638 net.cpp:406] drop7 <- fc7
I0722 18:37:37.138564  3638 net.cpp:367] drop7 -> fc7 (in-place)
I0722 18:37:37.138624  3638 net.cpp:122] Setting up drop7
I0722 18:37:37.138630  3638 net.cpp:129] Top shape: 32 4096 (131072)
I0722 18:37:37.138633  3638 net.cpp:137] Memory required for data: 219524608
I0722 18:37:37.138636  3638 layer_factory.hpp:77] Creating layer latent
I0722 18:37:37.138646  3638 net.cpp:84] Creating Layer latent
I0722 18:37:37.138649  3638 net.cpp:406] latent <- fc7
I0722 18:37:37.138655  3638 net.cpp:380] latent -> latent
I0722 18:37:37.144641  3638 net.cpp:122] Setting up latent
I0722 18:37:37.144659  3638 net.cpp:129] Top shape: 32 48 (1536)
I0722 18:37:37.144662  3638 net.cpp:137] Memory required for data: 219530752
I0722 18:37:37.144668  3638 layer_factory.hpp:77] Creating layer latent_sigmoid
I0722 18:37:37.144677  3638 net.cpp:84] Creating Layer latent_sigmoid
I0722 18:37:37.144680  3638 net.cpp:406] latent_sigmoid <- latent
I0722 18:37:37.144685  3638 net.cpp:380] latent_sigmoid -> latent_sigmoid
I0722 18:37:37.144917  3638 net.cpp:122] Setting up latent_sigmoid
I0722 18:37:37.144928  3638 net.cpp:129] Top shape: 32 48 (1536)
I0722 18:37:37.144932  3638 net.cpp:137] Memory required for data: 219536896
I0722 18:37:37.144935  3638 layer_factory.hpp:77] Creating layer latent_sigmoid_latent_sigmoid_0_split
I0722 18:37:37.144944  3638 net.cpp:84] Creating Layer latent_sigmoid_latent_sigmoid_0_split
I0722 18:37:37.144948  3638 net.cpp:406] latent_sigmoid_latent_sigmoid_0_split <- latent_sigmoid
I0722 18:37:37.144956  3638 net.cpp:380] latent_sigmoid_latent_sigmoid_0_split -> latent_sigmoid_latent_sigmoid_0_split_0
I0722 18:37:37.144973  3638 net.cpp:380] latent_sigmoid_latent_sigmoid_0_split -> latent_sigmoid_latent_sigmoid_0_split_1
I0722 18:37:37.144979  3638 net.cpp:380] latent_sigmoid_latent_sigmoid_0_split -> latent_sigmoid_latent_sigmoid_0_split_2
I0722 18:37:37.144984  3638 net.cpp:380] latent_sigmoid_latent_sigmoid_0_split -> latent_sigmoid_latent_sigmoid_0_split_3
I0722 18:37:37.145061  3638 net.cpp:122] Setting up latent_sigmoid_latent_sigmoid_0_split
I0722 18:37:37.145073  3638 net.cpp:129] Top shape: 32 48 (1536)
I0722 18:37:37.145077  3638 net.cpp:129] Top shape: 32 48 (1536)
I0722 18:37:37.145081  3638 net.cpp:129] Top shape: 32 48 (1536)
I0722 18:37:37.145084  3638 net.cpp:129] Top shape: 32 48 (1536)
I0722 18:37:37.145087  3638 net.cpp:137] Memory required for data: 219561472
I0722 18:37:37.145090  3638 layer_factory.hpp:77] Creating layer loss_1
I0722 18:37:37.145099  3638 net.cpp:84] Creating Layer loss_1
I0722 18:37:37.145102  3638 net.cpp:406] loss_1 <- latent_sigmoid_latent_sigmoid_0_split_0
I0722 18:37:37.145107  3638 net.cpp:406] loss_1 <- latent_sigmoid_latent_sigmoid_0_split_1
I0722 18:37:37.145113  3638 net.cpp:380] loss_1 -> loss: forcing-binary
I0722 18:37:37.145190  3638 net.cpp:122] Setting up loss_1
I0722 18:37:37.145198  3638 net.cpp:129] Top shape: (1)
I0722 18:37:37.145202  3638 net.cpp:132]     with loss weight 1
I0722 18:37:37.145261  3638 net.cpp:137] Memory required for data: 219561476
I0722 18:37:37.145265  3638 layer_factory.hpp:77] Creating layer latent_sigmoid_reshape
I0722 18:37:37.145277  3638 net.cpp:84] Creating Layer latent_sigmoid_reshape
I0722 18:37:37.145280  3638 net.cpp:406] latent_sigmoid_reshape <- latent_sigmoid_latent_sigmoid_0_split_2
I0722 18:37:37.145285  3638 net.cpp:380] latent_sigmoid_reshape -> latent_sigmoid_reshape
I0722 18:37:37.145344  3638 net.cpp:122] Setting up latent_sigmoid_reshape
I0722 18:37:37.145355  3638 net.cpp:129] Top shape: 32 1 1 48 (1536)
I0722 18:37:37.145359  3638 net.cpp:137] Memory required for data: 219567620
I0722 18:37:37.145361  3638 layer_factory.hpp:77] Creating layer latent_sigmoid_avg
I0722 18:37:37.145370  3638 net.cpp:84] Creating Layer latent_sigmoid_avg
I0722 18:37:37.145375  3638 net.cpp:406] latent_sigmoid_avg <- latent_sigmoid_reshape
I0722 18:37:37.145380  3638 net.cpp:380] latent_sigmoid_avg -> latent_sigmoid_avg
I0722 18:37:37.146167  3638 net.cpp:122] Setting up latent_sigmoid_avg
I0722 18:37:37.146180  3638 net.cpp:129] Top shape: 32 1 1 1 (32)
I0722 18:37:37.146195  3638 net.cpp:137] Memory required for data: 219567748
I0722 18:37:37.146199  3638 layer_factory.hpp:77] Creating layer latent_sigmoid_avg_latent_sigmoid_avg_0_split
I0722 18:37:37.146206  3638 net.cpp:84] Creating Layer latent_sigmoid_avg_latent_sigmoid_avg_0_split
I0722 18:37:37.146210  3638 net.cpp:406] latent_sigmoid_avg_latent_sigmoid_avg_0_split <- latent_sigmoid_avg
I0722 18:37:37.146215  3638 net.cpp:380] latent_sigmoid_avg_latent_sigmoid_avg_0_split -> latent_sigmoid_avg_latent_sigmoid_avg_0_split_0
I0722 18:37:37.146221  3638 net.cpp:380] latent_sigmoid_avg_latent_sigmoid_avg_0_split -> latent_sigmoid_avg_latent_sigmoid_avg_0_split_1
I0722 18:37:37.146296  3638 net.cpp:122] Setting up latent_sigmoid_avg_latent_sigmoid_avg_0_split
I0722 18:37:37.146302  3638 net.cpp:129] Top shape: 32 1 1 1 (32)
I0722 18:37:37.146306  3638 net.cpp:129] Top shape: 32 1 1 1 (32)
I0722 18:37:37.146309  3638 net.cpp:137] Memory required for data: 219568004
I0722 18:37:37.146312  3638 layer_factory.hpp:77] Creating layer loss_2
I0722 18:37:37.146322  3638 net.cpp:84] Creating Layer loss_2
I0722 18:37:37.146324  3638 net.cpp:406] loss_2 <- latent_sigmoid_avg_latent_sigmoid_avg_0_split_0
I0722 18:37:37.146328  3638 net.cpp:406] loss_2 <- latent_sigmoid_avg_latent_sigmoid_avg_0_split_1
I0722 18:37:37.146334  3638 net.cpp:380] loss_2 -> loss: 50%-fire-rate
I0722 18:37:37.146371  3638 net.cpp:122] Setting up loss_2
I0722 18:37:37.146389  3638 net.cpp:129] Top shape: (1)
I0722 18:37:37.146392  3638 net.cpp:132]     with loss weight 1
I0722 18:37:37.146399  3638 net.cpp:137] Memory required for data: 219568008
I0722 18:37:37.146405  3638 layer_factory.hpp:77] Creating layer fc9
I0722 18:37:37.146416  3638 net.cpp:84] Creating Layer fc9
I0722 18:37:37.146420  3638 net.cpp:406] fc9 <- latent_sigmoid_latent_sigmoid_0_split_3
I0722 18:37:37.146426  3638 net.cpp:380] fc9 -> fc9
I0722 18:37:37.146656  3638 net.cpp:122] Setting up fc9
I0722 18:37:37.146667  3638 net.cpp:129] Top shape: 32 5 (160)
I0722 18:37:37.146670  3638 net.cpp:137] Memory required for data: 219568648
I0722 18:37:37.146685  3638 layer_factory.hpp:77] Creating layer loss
I0722 18:37:37.146698  3638 net.cpp:84] Creating Layer loss
I0722 18:37:37.146701  3638 net.cpp:406] loss <- fc9
I0722 18:37:37.146706  3638 net.cpp:406] loss <- label
I0722 18:37:37.146711  3638 net.cpp:380] loss -> loss: classfication-error
I0722 18:37:37.146723  3638 layer_factory.hpp:77] Creating layer loss
…
I0722 18:37:37.785816  3638 solver.cpp:190] Creating test net (#0) specified by net file: examples/bone-finetune/train_val_bone.prototxt
I0722 18:37:37.785884  3638 net.cpp:294] The NetState phase (1) differed from the phase (0) specified by a rule in layer data
I0722 18:37:37.786120  3638 net.cpp:51] Initializing net from parameters: 
name: "bone-SSDH"
state {
  phase: TEST
}
layer {
  name: "data"
  type: "Data"
  top: "data"
  top: "label"
  include {
    phase: TEST
  }
  transform_param {
    mirror: false
    crop_size: 227
    mean_value: 92.6427
  }
  data_param {
    source: "data/bone/bone_val_position_leveldb"
    batch_size: 50
  }
}
layer {
  name: "conv1"
  type: "Convolution"
  bottom: "data"
  top: "conv1"
  param {
    lr_mult: 1
    decay_mult: 1
  }
  param {
    lr_mult: 2
    decay_mult: 0
  }
  convolution_param {
    num_output: 96
    kernel_size: 11
    stride: 4
    weight_filler {
      type: "gaussian"
      std: 0.01
    }
    bias_filler {
      type: "constant"
      value: 0
    }
  }
}
layer {
  name: "relu1"
  type: "ReLU"
  bottom: "conv1"
  top: "conv1"
}
layer {
  name: "pool1"
  type: "Pooling"
  bottom: "conv1"
  top: "pool1"
  pooling_param {
    pool: MAX
    kernel_size: 3
    stride: 2
  }
}
layer {
  name: "norm1"
  type: "LRN"
  bottom: "pool1"
  top: "norm1"
  lrn_param {
    local_size: 5
    alpha: 0.0001
    beta: 0.75
  }
}
layer {
  name: "conv2"
  type: "Convolution"
  bottom: "norm1"
  top: "conv2"
  param {
    lr_mult: 1
    decay_mult: 1
  }
  param {
    lr_mult: 2
    decay_mult: 0
  }
  convolution_param {
    num_output: 256
    pad: 2
    kernel_size: 5
    group: 2
    weight_filler {
      type: "gaussian"
      std: 0.01
    }
    bias_filler {
      type: "constant"
      value: 1
    }
  }
}
layer {
  name: "relu2"
  type: "ReLU"
  bottom: "conv2"
  top: "conv2"
}
layer {
  name: "pool2"
  type: "Pooling"
  bottom: "conv2"
  top: "pool2"
  pooling_param {
    pool: MAX
    kernel_size: 3
    stride: 2
  }
}
layer {
  name: "norm2"
  type: "LRN"
  bottom: "pool2"
  top: "norm2"
  lrn_param {
    local_size: 5
    alpha: 0.0001
    beta: 0.75
  }
}
layer {
  name: "conv3"
  type: "Convolution"
  bottom: "norm2"
  top: "conv3"
  param {
    lr_mult: 1
    decay_mult: 1
  }
  param {
    lr_mult: 2
    decay_mult: 0
  }
  convolution_param {
    num_output: 384
    pad: 1
    kernel_size: 3
    weight_filler {
      type: "gaussian"
      std: 0.01
    }
    bias_filler {
      type: "constant"
      value: 0
    }
  }
}
layer {
  name: "relu3"
  type: "ReLU"
  bottom: "conv3"
  top: "conv3"
}
layer {
  name: "conv4"
  type: "Convolution"
  bottom: "conv3"
  top: "conv4"
  param {
    lr_mult: 1
    decay_mult: 1
  }
  param {
    lr_mult: 2
    decay_mult: 0
  }
  convolution_param {
    num_output: 384
    pad: 1
    kernel_size: 3
    group: 2
    weight_filler {
      type: "gaussian"
      std: 0.01
    }
    bias_filler {
      type: "constant"
      value: 1
    }
  }
}
layer {
  name: "relu4"
  type: "ReLU"
  bottom: "conv4"
  top: "conv4"
}
layer {
  name: "conv5"
  type: "Convolution"
  bottom: "conv4"
  top: "conv5"
  param {
    lr_mult: 1
    decay_mult: 1
  }
  param {
    lr_mult: 2
    decay_mult: 0
  }
  convolution_param {
    num_output: 256
    pad: 1
    kernel_size: 3
    group: 2
    weight_filler {
      type: "gaussian"
      std: 0.01
    }
    bias_filler {
      type: "constant"
      value: 1
    }
  }
}
layer {
  name: "relu5"
  type: "ReLU"
  bottom: "conv5"
  top: "conv5"
}
layer {
  name: "pool5"
  type: "Pooling"
  bottom: "conv5"
  top: "pool5"
  pooling_param {
    pool: MAX
    kernel_size: 3
    stride: 2
  }
}
layer {
  name: "fc6"
  type: "InnerProduct"
  bottom: "pool5"
  top: "fc6"
  param {
    lr_mult: 1
    decay_mult: 1
  }
  param {
    lr_mult: 2
    decay_mult: 0
  }
  inner_product_param {
    num_output: 4096
    weight_filler {
      type: "gaussian"
      std: 0.005
    }
    bias_filler {
      type: "constant"
      value: 1
    }
  }
}
layer {
  name: "relu6"
  type: "ReLU"
  bottom: "fc6"
  top: "fc6"
}
layer {
  name: "drop6"
  type: "Dropout"
  bottom: "fc6"
  top: "fc6"
  dropout_param {
    dropout_ratio: 0.5
  }
}
layer {
  name: "fc7"
  type: "InnerProduct"
  bottom: "fc6"
  top: "fc7"
  param {
    lr_mult: 1
    decay_mult: 1
  }
  param {
    lr_mult: 2
    decay_mult: 0
  }
  inner_product_param {
    num_output: 4096
    weight_filler {
      type: "gaussian"
      std: 0.005
    }
    bias_filler {
      type: "constant"
      value: 1
    }
  }
}
layer {
  name: "relu7"
  type: "ReLU"
  bottom: "fc7"
  top: "fc7"
}
layer {
  name: "drop7"
  type: "Dropout"
  bottom: "fc7"
  top: "fc7"
  dropout_param {
    dropout_ratio: 0.5
  }
}
layer {
  name: "latent"
  type: "InnerProduct"
  bottom: "fc7"
  top: "latent"
  param {
    lr_mult: 1
    decay_mult: 1
  }
  param {
    lr_mult: 2
    decay_mult: 0
  }
  inner_product_param {
    num_output: 48
    weight_filler {
      type: "gaussian"
      std: 0.01
    }
    bias_filler {
      type: "constant"
      value: 0
    }
  }
}
layer {
  name: "latent_sigmoid"
  type: "Sigmoid"
  bottom: "latent"
  top: "latent_sigmoid"
}
layer {
  name: "loss_1"
  type: "K1_EuclideanLoss"
  bottom: "latent_sigmoid"
  bottom: "latent_sigmoid"
  top: "loss: forcing-binary"
  loss_weight: 1
  propagate_down: true
  propagate_down: false
}
layer {
  name: "latent_sigmoid_reshape"
  type: "Reshape"
  bottom: "latent_sigmoid"
  top: "latent_sigmoid_reshape"
  reshape_param {
    shape {
      dim: 0
      dim: 1
      dim: 1
      dim: -1
    }
  }
}
layer {
  name: "latent_sigmoid_avg"
  type: "Pooling"
  bottom: "latent_sigmoid_reshape"
  top: "latent_sigmoid_avg"
  pooling_param {
    pool: AVE
    kernel_h: 1
    kernel_w: 48
  }
}
layer {
  name: "loss_2"
  type: "K2_EuclideanLoss"
  bottom: "latent_sigmoid_avg"
  bottom: "latent_sigmoid_avg"
  top: "loss: 50%-fire-rate"
  loss_weight: 1
  propagate_down: true
  propagate_down: false
}
layer {
  name: "fc9"
  type: "InnerProduct"
  bottom: "latent_sigmoid"
  top: "fc9"
  param {
    lr_mult: 10
    decay_mult: 1
  }
  param {
    lr_mult: 20
    decay_mult: 0
  }
  inner_product_param {
    num_output: 5
    weight_filler {
      type: "gaussian"
      std: 0.2
    }
    bias_filler {
      type: "constant"
      value: 0
    }
  }
}
layer {
  name: "accuracy"
  type: "Accuracy"
  bottom: "fc9"
  bottom: "label"
  top: "accuracy"
  include {
    phase: TEST
  }
}
layer {
  name: "loss"
  type: "SoftmaxWithLoss"
  bottom: "fc9"
  bottom: "label"
  top: "loss: classfication-error"
  loss_weight: 1
}
I0722 18:37:37.786293  3638 layer_factory.hpp:77] Creating layer data
I0722 18:37:37.850347  3638 db_leveldb.cpp:18] Opened leveldb data/bone/bone_val_position_leveldb
I0722 18:37:37.851315  3638 net.cpp:84] Creating Layer data
I0722 18:37:37.851342  3638 net.cpp:380] data -> data
I0722 18:37:37.851366  3638 net.cpp:380] data -> label
I0722 18:37:37.852063  3638 data_layer.cpp:45] output data size: 50,3,227,227
I0722 18:37:37.935242  3638 net.cpp:122] Setting up data
I0722 18:37:37.935288  3638 net.cpp:129] Top shape: 50 3 227 227 (7729350)
I0722 18:37:37.935297  3638 net.cpp:129] Top shape: 50 (50)
I0722 18:37:37.935300  3638 net.cpp:137] Memory required for data: 30917600
I0722 18:37:37.935308  3638 layer_factory.hpp:77] Creating layer label_data_1_split
I0722 18:37:37.935328  3638 net.cpp:84] Creating Layer label_data_1_split
I0722 18:37:37.935334  3638 net.cpp:406] label_data_1_split <- label
I0722 18:37:37.935343  3638 net.cpp:380] label_data_1_split -> label_data_1_split_0
I0722 18:37:37.935355  3638 net.cpp:380] label_data_1_split -> label_data_1_split_1
I0722 18:37:37.935525  3638 net.cpp:122] Setting up label_data_1_split
I0722 18:37:37.935537  3638 net.cpp:129] Top shape: 50 (50)
I0722 18:37:37.935542  3638 net.cpp:129] Top shape: 50 (50)
I0722 18:37:37.935546  3638 net.cpp:137] Memory required for data: 30918000
I0722 18:37:37.935550  3638 layer_factory.hpp:77] Creating layer conv1
I0722 18:37:37.935567  3638 net.cpp:84] Creating Layer conv1
I0722 18:37:37.935571  3638 net.cpp:406] conv1 <- data
I0722 18:37:37.935578  3638 net.cpp:380] conv1 -> conv1
I0722 18:37:37.942067  3638 net.cpp:122] Setting up conv1
I0722 18:37:37.942091  3638 net.cpp:129] Top shape: 50 96 55 55 (14520000)
I0722 18:37:37.942096  3638 net.cpp:137] Memory required for data: 88998000
I0722 18:37:37.942109  3638 layer_factory.hpp:77] Creating layer relu1
I0722 18:37:37.942119  3638 net.cpp:84] Creating Layer relu1
I0722 18:37:37.942123  3638 net.cpp:406] relu1 <- conv1
I0722 18:37:37.942129  3638 net.cpp:367] relu1 -> conv1 (in-place)
I0722 18:37:37.943003  3638 net.cpp:122] Setting up relu1
I0722 18:37:37.943019  3638 net.cpp:129] Top shape: 50 96 55 55 (14520000)
I0722 18:37:37.943023  3638 net.cpp:137] Memory required for data: 147078000
I0722 18:37:37.943028  3638 layer_factory.hpp:77] Creating layer pool1
I0722 18:37:37.943038  3638 net.cpp:84] Creating Layer pool1
I0722 18:37:37.943068  3638 net.cpp:406] pool1 <- conv1
I0722 18:37:37.943075  3638 net.cpp:380] pool1 -> pool1
I0722 18:37:37.943133  3638 net.cpp:122] Setting up pool1
I0722 18:37:37.943158  3638 net.cpp:129] Top shape: 50 96 27 27 (3499200)
I0722 18:37:37.943161  3638 net.cpp:137] Memory required for data: 161074800
I0722 18:37:37.943166  3638 layer_factory.hpp:77] Creating layer norm1
I0722 18:37:37.943173  3638 net.cpp:84] Creating Layer norm1
I0722 18:37:37.943177  3638 net.cpp:406] norm1 <- pool1
I0722 18:37:37.943183  3638 net.cpp:380] norm1 -> norm1
I0722 18:37:37.943439  3638 net.cpp:122] Setting up norm1
I0722 18:37:37.943454  3638 net.cpp:129] Top shape: 50 96 27 27 (3499200)
I0722 18:37:37.943459  3638 net.cpp:137] Memory required for data: 175071600
I0722 18:37:37.943462  3638 layer_factory.hpp:77] Creating layer conv2
I0722 18:37:37.943475  3638 net.cpp:84] Creating Layer conv2
I0722 18:37:37.943478  3638 net.cpp:406] conv2 <- norm1
I0722 18:37:37.943486  3638 net.cpp:380] conv2 -> conv2
I0722 18:37:37.960232  3638 net.cpp:122] Setting up conv2
I0722 18:37:37.960265  3638 net.cpp:129] Top shape: 50 256 27 27 (9331200)
I0722 18:37:37.960271  3638 net.cpp:137] Memory required for data: 212396400
I0722 18:37:37.960289  3638 layer_factory.hpp:77] Creating layer relu2
I0722 18:37:37.960304  3638 net.cpp:84] Creating Layer relu2
I0722 18:37:37.960310  3638 net.cpp:406] relu2 <- conv2
I0722 18:37:37.960319  3638 net.cpp:367] relu2 -> conv2 (in-place)
I0722 18:37:37.960635  3638 net.cpp:122] Setting up relu2
I0722 18:37:37.960652  3638 net.cpp:129] Top shape: 50 256 27 27 (9331200)
I0722 18:37:37.960657  3638 net.cpp:137] Memory required for data: 249721200
I0722 18:37:37.960662  3638 layer_factory.hpp:77] Creating layer pool2
I0722 18:37:37.960675  3638 net.cpp:84] Creating Layer pool2
I0722 18:37:37.960680  3638 net.cpp:406] pool2 <- conv2
I0722 18:37:37.960688  3638 net.cpp:380] pool2 -> pool2
I0722 18:37:37.960757  3638 net.cpp:122] Setting up pool2
I0722 18:37:37.960767  3638 net.cpp:129] Top shape: 50 256 13 13 (2163200)
I0722 18:37:37.960772  3638 net.cpp:137] Memory required for data: 258374000
I0722 18:37:37.960777  3638 layer_factory.hpp:77] Creating layer norm2
I0722 18:37:37.960786  3638 net.cpp:84] Creating Layer norm2
I0722 18:37:37.960791  3638 net.cpp:406] norm2 <- pool2
I0722 18:37:37.960798  3638 net.cpp:380] norm2 -> norm2
I0722 18:37:37.961841  3638 net.cpp:122] Setting up norm2
I0722 18:37:37.961859  3638 net.cpp:129] Top shape: 50 256 13 13 (2163200)
I0722 18:37:37.961863  3638 net.cpp:137] Memory required for data: 267026800
I0722 18:37:37.961868  3638 layer_factory.hpp:77] Creating layer conv3
I0722 18:37:37.961881  3638 net.cpp:84] Creating Layer conv3
I0722 18:37:37.961886  3638 net.cpp:406] conv3 <- norm2
I0722 18:37:37.961894  3638 net.cpp:380] conv3 -> conv3
I0722 18:37:37.994905  3638 net.cpp:122] Setting up conv3
I0722 18:37:37.994935  3638 net.cpp:129] Top shape: 50 384 13 13 (3244800)
I0722 18:37:37.994940  3638 net.cpp:137] Memory required for data: 280006000
I0722 18:37:37.994956  3638 layer_factory.hpp:77] Creating layer relu3
I0722 18:37:37.994969  3638 net.cpp:84] Creating Layer relu3
I0722 18:37:37.994974  3638 net.cpp:406] relu3 <- conv3
I0722 18:37:37.994982  3638 net.cpp:367] relu3 -> conv3 (in-place)
I0722 18:37:37.995204  3638 net.cpp:122] Setting up relu3
I0722 18:37:37.995218  3638 net.cpp:129] Top shape: 50 384 13 13 (3244800)
I0722 18:37:37.995223  3638 net.cpp:137] Memory required for data: 292985200
I0722 18:37:37.995226  3638 layer_factory.hpp:77] Creating layer conv4
I0722 18:37:37.995239  3638 net.cpp:84] Creating Layer conv4
I0722 18:37:37.995244  3638 net.cpp:406] conv4 <- conv3
I0722 18:37:37.995250  3638 net.cpp:380] conv4 -> conv4
I0722 18:37:38.022907  3638 net.cpp:122] Setting up conv4
I0722 18:37:38.022934  3638 net.cpp:129] Top shape: 50 384 13 13 (3244800)
I0722 18:37:38.022939  3638 net.cpp:137] Memory required for data: 305964400
I0722 18:37:38.022949  3638 layer_factory.hpp:77] Creating layer relu4
I0722 18:37:38.022961  3638 net.cpp:84] Creating Layer relu4
I0722 18:37:38.022994  3638 net.cpp:406] relu4 <- conv4
I0722 18:37:38.023001  3638 net.cpp:367] relu4 -> conv4 (in-place)
I0722 18:37:38.023232  3638 net.cpp:122] Setting up relu4
I0722 18:37:38.023245  3638 net.cpp:129] Top shape: 50 384 13 13 (3244800)
I0722 18:37:38.023249  3638 net.cpp:137] Memory required for data: 318943600
I0722 18:37:38.023253  3638 layer_factory.hpp:77] Creating layer conv5
I0722 18:37:38.023267  3638 net.cpp:84] Creating Layer conv5
I0722 18:37:38.023270  3638 net.cpp:406] conv5 <- conv4
I0722 18:37:38.023278  3638 net.cpp:380] conv5 -> conv5
I0722 18:37:38.042872  3638 net.cpp:122] Setting up conv5
I0722 18:37:38.042897  3638 net.cpp:129] Top shape: 50 256 13 13 (2163200)
I0722 18:37:38.042901  3638 net.cpp:137] Memory required for data: 327596400
I0722 18:37:38.042917  3638 layer_factory.hpp:77] Creating layer relu5
I0722 18:37:38.042927  3638 net.cpp:84] Creating Layer relu5
I0722 18:37:38.042932  3638 net.cpp:406] relu5 <- conv5
I0722 18:37:38.042938  3638 net.cpp:367] relu5 -> conv5 (in-place)
I0722 18:37:38.043745  3638 net.cpp:122] Setting up relu5
I0722 18:37:38.043761  3638 net.cpp:129] Top shape: 50 256 13 13 (2163200)
I0722 18:37:38.043766  3638 net.cpp:137] Memory required for data: 336249200
I0722 18:37:38.043769  3638 layer_factory.hpp:77] Creating layer pool5
I0722 18:37:38.043781  3638 net.cpp:84] Creating Layer pool5
I0722 18:37:38.043786  3638 net.cpp:406] pool5 <- conv5
I0722 18:37:38.043793  3638 net.cpp:380] pool5 -> pool5
I0722 18:37:38.043853  3638 net.cpp:122] Setting up pool5
I0722 18:37:38.043860  3638 net.cpp:129] Top shape: 50 256 6 6 (460800)
I0722 18:37:38.043864  3638 net.cpp:137] Memory required for data: 338092400
I0722 18:37:38.043869  3638 layer_factory.hpp:77] Creating layer fc6
I0722 18:37:38.043877  3638 net.cpp:84] Creating Layer fc6
I0722 18:37:38.043881  3638 net.cpp:406] fc6 <- pool5
I0722 18:37:38.043895  3638 net.cpp:380] fc6 -> fc6
I0722 18:37:39.042793  3638 net.cpp:122] Setting up fc6
I0722 18:37:39.042831  3638 net.cpp:129] Top shape: 50 4096 (204800)
I0722 18:37:39.042835  3638 net.cpp:137] Memory required for data: 338911600
I0722 18:37:39.042848  3638 layer_factory.hpp:77] Creating layer relu6
I0722 18:37:39.042865  3638 net.cpp:84] Creating Layer relu6
I0722 18:37:39.042871  3638 net.cpp:406] relu6 <- fc6
I0722 18:37:39.042879  3638 net.cpp:367] relu6 -> fc6 (in-place)
I0722 18:37:39.043303  3638 net.cpp:122] Setting up relu6
I0722 18:37:39.043314  3638 net.cpp:129] Top shape: 50 4096 (204800)
I0722 18:37:39.043329  3638 net.cpp:137] Memory required for data: 339730800
I0722 18:37:39.043334  3638 layer_factory.hpp:77] Creating layer drop6
I0722 18:37:39.043344  3638 net.cpp:84] Creating Layer drop6
I0722 18:37:39.043347  3638 net.cpp:406] drop6 <- fc6
I0722 18:37:39.043354  3638 net.cpp:367] drop6 -> fc6 (in-place)
I0722 18:37:39.043397  3638 net.cpp:122] Setting up drop6
I0722 18:37:39.043403  3638 net.cpp:129] Top shape: 50 4096 (204800)
I0722 18:37:39.043406  3638 net.cpp:137] Memory required for data: 340550000
I0722 18:37:39.043409  3638 layer_factory.hpp:77] Creating layer fc7
I0722 18:37:39.043419  3638 net.cpp:84] Creating Layer fc7
I0722 18:37:39.043422  3638 net.cpp:406] fc7 <- fc6
I0722 18:37:39.043429  3638 net.cpp:380] fc7 -> fc7
I0722 18:37:39.487121  3638 net.cpp:122] Setting up fc7
I0722 18:37:39.487157  3638 net.cpp:129] Top shape: 50 4096 (204800)
I0722 18:37:39.487161  3638 net.cpp:137] Memory required for data: 341369200
I0722 18:37:39.487171  3638 layer_factory.hpp:77] Creating layer relu7
I0722 18:37:39.487185  3638 net.cpp:84] Creating Layer relu7
I0722 18:37:39.487190  3638 net.cpp:406] relu7 <- fc7
I0722 18:37:39.487210  3638 net.cpp:367] relu7 -> fc7 (in-place)
I0722 18:37:39.488144  3638 net.cpp:122] Setting up relu7
I0722 18:37:39.488158  3638 net.cpp:129] Top shape: 50 4096 (204800)
I0722 18:37:39.488173  3638 net.cpp:137] Memory required for data: 342188400
I0722 18:37:39.488176  3638 layer_factory.hpp:77] Creating layer drop7
I0722 18:37:39.488188  3638 net.cpp:84] Creating Layer drop7
I0722 18:37:39.488191  3638 net.cpp:406] drop7 <- fc7
I0722 18:37:39.488232  3638 net.cpp:367] drop7 -> fc7 (in-place)
I0722 18:37:39.488273  3638 net.cpp:122] Setting up drop7
I0722 18:37:39.488279  3638 net.cpp:129] Top shape: 50 4096 (204800)
I0722 18:37:39.488282  3638 net.cpp:137] Memory required for data: 343007600
I0722 18:37:39.488286  3638 layer_factory.hpp:77] Creating layer latent
I0722 18:37:39.488307  3638 net.cpp:84] Creating Layer latent
I0722 18:37:39.488312  3638 net.cpp:406] latent <- fc7
I0722 18:37:39.488319  3638 net.cpp:380] latent -> latent
I0722 18:37:39.494005  3638 net.cpp:122] Setting up latent
I0722 18:37:39.494019  3638 net.cpp:129] Top shape: 50 48 (2400)
I0722 18:37:39.494024  3638 net.cpp:137] Memory required for data: 343017200
I0722 18:37:39.494029  3638 layer_factory.hpp:77] Creating layer latent_sigmoid
I0722 18:37:39.494036  3638 net.cpp:84] Creating Layer latent_sigmoid
I0722 18:37:39.494040  3638 net.cpp:406] latent_sigmoid <- latent
I0722 18:37:39.494045  3638 net.cpp:380] latent_sigmoid -> latent_sigmoid
I0722 18:37:39.494292  3638 net.cpp:122] Setting up latent_sigmoid
I0722 18:37:39.494309  3638 net.cpp:129] Top shape: 50 48 (2400)
I0722 18:37:39.494313  3638 net.cpp:137] Memory required for data: 343026800
I0722 18:37:39.494316  3638 layer_factory.hpp:77] Creating layer latent_sigmoid_latent_sigmoid_0_split
I0722 18:37:39.494324  3638 net.cpp:84] Creating Layer latent_sigmoid_latent_sigmoid_0_split
I0722 18:37:39.494328  3638 net.cpp:406] latent_sigmoid_latent_sigmoid_0_split <- latent_sigmoid
I0722 18:37:39.494334  3638 net.cpp:380] latent_sigmoid_latent_sigmoid_0_split -> latent_sigmoid_latent_sigmoid_0_split_0
I0722 18:37:39.494341  3638 net.cpp:380] latent_sigmoid_latent_sigmoid_0_split -> latent_sigmoid_latent_sigmoid_0_split_1
I0722 18:37:39.494349  3638 net.cpp:380] latent_sigmoid_latent_sigmoid_0_split -> latent_sigmoid_latent_sigmoid_0_split_2
I0722 18:37:39.494354  3638 net.cpp:380] latent_sigmoid_latent_sigmoid_0_split -> latent_sigmoid_latent_sigmoid_0_split_3
I0722 18:37:39.494426  3638 net.cpp:122] Setting up latent_sigmoid_latent_sigmoid_0_split
I0722 18:37:39.494433  3638 net.cpp:129] Top shape: 50 48 (2400)
I0722 18:37:39.494438  3638 net.cpp:129] Top shape: 50 48 (2400)
I0722 18:37:39.494441  3638 net.cpp:129] Top shape: 50 48 (2400)
I0722 18:37:39.494446  3638 net.cpp:129] Top shape: 50 48 (2400)
I0722 18:37:39.494447  3638 net.cpp:137] Memory required for data: 343065200
I0722 18:37:39.494451  3638 layer_factory.hpp:77] Creating layer loss_1
I0722 18:37:39.494459  3638 net.cpp:84] Creating Layer loss_1
I0722 18:37:39.494462  3638 net.cpp:406] loss_1 <- latent_sigmoid_latent_sigmoid_0_split_0
I0722 18:37:39.494467  3638 net.cpp:406] loss_1 <- latent_sigmoid_latent_sigmoid_0_split_1
I0722 18:37:39.494472  3638 net.cpp:380] loss_1 -> loss: forcing-binary
I0722 18:37:39.494525  3638 net.cpp:122] Setting up loss_1
I0722 18:37:39.494534  3638 net.cpp:129] Top shape: (1)
I0722 18:37:39.494537  3638 net.cpp:132]     with loss weight 1
I0722 18:37:39.494552  3638 net.cpp:137] Memory required for data: 343065204
I0722 18:37:39.494556  3638 layer_factory.hpp:77] Creating layer latent_sigmoid_reshape
I0722 18:37:39.494565  3638 net.cpp:84] Creating Layer latent_sigmoid_reshape
I0722 18:37:39.494570  3638 net.cpp:406] latent_sigmoid_reshape <- latent_sigmoid_latent_sigmoid_0_split_2
I0722 18:37:39.494576  3638 net.cpp:380] latent_sigmoid_reshape -> latent_sigmoid_reshape
I0722 18:37:39.494607  3638 net.cpp:122] Setting up latent_sigmoid_reshape
I0722 18:37:39.494617  3638 net.cpp:129] Top shape: 50 1 1 48 (2400)
I0722 18:37:39.494621  3638 net.cpp:137] Memory required for data: 343074804
I0722 18:37:39.494623  3638 layer_factory.hpp:77] Creating layer latent_sigmoid_avg
I0722 18:37:39.494633  3638 net.cpp:84] Creating Layer latent_sigmoid_avg
I0722 18:37:39.494637  3638 net.cpp:406] latent_sigmoid_avg <- latent_sigmoid_reshape
I0722 18:37:39.494643  3638 net.cpp:380] latent_sigmoid_avg -> latent_sigmoid_avg
I0722 18:37:39.495431  3638 net.cpp:122] Setting up latent_sigmoid_avg
I0722 18:37:39.495457  3638 net.cpp:129] Top shape: 50 1 1 1 (50)
I0722 18:37:39.495472  3638 net.cpp:137] Memory required for data: 343075004
I0722 18:37:39.495476  3638 layer_factory.hpp:77] Creating layer latent_sigmoid_avg_latent_sigmoid_avg_0_split
I0722 18:37:39.495483  3638 net.cpp:84] Creating Layer latent_sigmoid_avg_latent_sigmoid_avg_0_split
I0722 18:37:39.495487  3638 net.cpp:406] latent_sigmoid_avg_latent_sigmoid_avg_0_split <- latent_sigmoid_avg
I0722 18:37:39.495494  3638 net.cpp:380] latent_sigmoid_avg_latent_sigmoid_avg_0_split -> latent_sigmoid_avg_latent_sigmoid_avg_0_split_0
I0722 18:37:39.495501  3638 net.cpp:380] latent_sigmoid_avg_latent_sigmoid_avg_0_split -> latent_sigmoid_avg_latent_sigmoid_avg_0_split_1
I0722 18:37:39.495566  3638 net.cpp:122] Setting up latent_sigmoid_avg_latent_sigmoid_avg_0_split
I0722 18:37:39.495584  3638 net.cpp:129] Top shape: 50 1 1 1 (50)
I0722 18:37:39.495587  3638 net.cpp:129] Top shape: 50 1 1 1 (50)
I0722 18:37:39.495590  3638 net.cpp:137] Memory required for data: 343075404
I0722 18:37:39.495594  3638 layer_factory.hpp:77] Creating layer loss_2
I0722 18:37:39.495600  3638 net.cpp:84] Creating Layer loss_2
I0722 18:37:39.495604  3638 net.cpp:406] loss_2 <- latent_sigmoid_avg_latent_sigmoid_avg_0_split_0
I0722 18:37:39.495607  3638 net.cpp:406] loss_2 <- latent_sigmoid_avg_latent_sigmoid_avg_0_split_1
I0722 18:37:39.495612  3638 net.cpp:380] loss_2 -> loss: 50%-fire-rate
I0722 18:37:39.495652  3638 net.cpp:122] Setting up loss_2
I0722 18:37:39.495673  3638 net.cpp:129] Top shape: (1)
I0722 18:37:39.495687  3638 net.cpp:132]     with loss weight 1
I0722 18:37:39.495693  3638 net.cpp:137] Memory required for data: 343075408
I0722 18:37:39.495697  3638 layer_factory.hpp:77] Creating layer fc9
I0722 18:37:39.495704  3638 net.cpp:84] Creating Layer fc9
I0722 18:37:39.495708  3638 net.cpp:406] fc9 <- latent_sigmoid_latent_sigmoid_0_split_3
I0722 18:37:39.495714  3638 net.cpp:380] fc9 -> fc9
I0722 18:37:39.495899  3638 net.cpp:122] Setting up fc9
I0722 18:37:39.495911  3638 net.cpp:129] Top shape: 50 5 (250)
I0722 18:37:39.495915  3638 net.cpp:137] Memory required for data: 343076408
I0722 18:37:39.495928  3638 layer_factory.hpp:77] Creating layer fc9_fc9_0_split
I0722 18:37:39.495941  3638 net.cpp:84] Creating Layer fc9_fc9_0_split
I0722 18:37:39.495945  3638 net.cpp:406] fc9_fc9_0_split <- fc9
I0722 18:37:39.495950  3638 net.cpp:380] fc9_fc9_0_split -> fc9_fc9_0_split_0
I0722 18:37:39.495957  3638 net.cpp:380] fc9_fc9_0_split -> fc9_fc9_0_split_1
I0722 18:37:39.496001  3638 net.cpp:122] Setting up fc9_fc9_0_split
I0722 18:37:39.496008  3638 net.cpp:129] Top shape: 50 5 (250)
I0722 18:37:39.496012  3638 net.cpp:129] Top shape: 50 5 (250)
I0722 18:37:39.496016  3638 net.cpp:137] Memory required for data: 343078408
I0722 18:37:39.496018  3638 layer_factory.hpp:77] Creating layer accuracy
I0722 18:37:39.496031  3638 net.cpp:84] Creating Layer accuracy
I0722 18:37:39.496034  3638 net.cpp:406] accuracy <- fc9_fc9_0_split_0
I0722 18:37:39.496039  3638 net.cpp:406] accuracy <- label_data_1_split_0
I0722 18:37:39.496044  3638 net.cpp:380] accuracy -> accuracy
…
