…
I0813 15:18:55.924260 40068 net.cpp:294] The NetState phase (0) differed from the phase (1) specified by a rule in layer data
I0813 15:18:55.924296 40068 net.cpp:294] The NetState phase (0) differed from the phase (1) specified by a rule in layer accuracy
I0813 15:18:55.924525 40068 net.cpp:51] Initializing net from parameters: 
name: "bone-SSDH"
state {
  phase: TRAIN
  level: 0
  stage: ""
}
layer {
  name: "data"
  type: "Data"
  top: "data"
  top: "label"
  include {
    phase: TRAIN
  }
  transform_param {
    crop_size: 227
    mean_value: 92.6427
  }
  data_param {
    source: "data/bone/bone_train_position_leveldb"
    batch_size: 32
  }
}
layer {
  name: "conv1"
  type: "Convolution"
  bottom: "data"
  top: "conv1"
  param {
    lr_mult: 1
    decay_mult: 1
  }
  param {
    lr_mult: 2
    decay_mult: 0
  }
  convolution_param {
    num_output: 96
    kernel_size: 11
    stride: 4
    weight_filler {
      type: "gaussian"
      std: 0.01
    }
    bias_filler {
      type: "constant"
      value: 0
    }
  }
}
layer {
  name: "relu1"
  type: "ReLU"
  bottom: "conv1"
  top: "conv1"
}
layer {
  name: "pool1"
  type: "Pooling"
  bottom: "conv1"
  top: "pool1"
  pooling_param {
    pool: MAX
    kernel_size: 3
    stride: 2
  }
}
layer {
  name: "norm1"
  type: "LRN"
  bottom: "pool1"
  top: "norm1"
  lrn_param {
    local_size: 5
    alpha: 0.0001
    beta: 0.75
  }
}
layer {
  name: "conv2"
  type: "Convolution"
  bottom: "norm1"
  top: "conv2"
  param {
    lr_mult: 1
    decay_mult: 1
  }
  param {
    lr_mult: 2
    decay_mult: 0
  }
  convolution_param {
    num_output: 256
    pad: 2
    kernel_size: 5
    group: 2
    weight_filler {
      type: "gaussian"
      std: 0.01
    }
    bias_filler {
      type: "constant"
      value: 1
    }
  }
}
layer {
  name: "relu2"
  type: "ReLU"
  bottom: "conv2"
  top: "conv2"
}
layer {
  name: "pool2"
  type: "Pooling"
  bottom: "conv2"
  top: "pool2"
  pooling_param {
    pool: MAX
    kernel_size: 3
    stride: 2
  }
}
layer {
  name: "norm2"
  type: "LRN"
  bottom: "pool2"
  top: "norm2"
  lrn_param {
    local_size: 5
    alpha: 0.0001
    beta: 0.75
  }
}
layer {
  name: "conv3"
  type: "Convolution"
  bottom: "norm2"
  top: "conv3"
  param {
    lr_mult: 1
    decay_mult: 1
  }
  param {
    lr_mult: 2
    decay_mult: 0
  }
  convolution_param {
    num_output: 384
    pad: 1
    kernel_size: 3
    weight_filler {
      type: "gaussian"
      std: 0.01
    }
    bias_filler {
      type: "constant"
      value: 0
    }
  }
}
layer {
  name: "relu3"
  type: "ReLU"
  bottom: "conv3"
  top: "conv3"
}
layer {
  name: "conv4"
  type: "Convolution"
  bottom: "conv3"
  top: "conv4"
  param {
    lr_mult: 1
    decay_mult: 1
  }
  param {
    lr_mult: 2
    decay_mult: 0
  }
  convolution_param {
    num_output: 384
    pad: 1
    kernel_size: 3
    group: 2
    weight_filler {
      type: "gaussian"
      std: 0.01
    }
    bias_filler {
      type: "constant"
      value: 1
    }
  }
}
layer {
  name: "relu4"
  type: "ReLU"
  bottom: "conv4"
  top: "conv4"
}
layer {
  name: "conv5"
  type: "Convolution"
  bottom: "conv4"
  top: "conv5"
  param {
    lr_mult: 1
    decay_mult: 1
  }
  param {
    lr_mult: 2
    decay_mult: 0
  }
  convolution_param {
    num_output: 256
    pad: 1
    kernel_size: 3
    group: 2
    weight_filler {
      type: "gaussian"
      std: 0.01
    }
    bias_filler {
      type: "constant"
      value: 1
    }
  }
}
layer {
  name: "relu5"
  type: "ReLU"
  bottom: "conv5"
  top: "conv5"
}
layer {
  name: "pool5"
  type: "Pooling"
  bottom: "conv5"
  top: "pool5"
  pooling_param {
    pool: MAX
    kernel_size: 3
    stride: 2
  }
}
layer {
  name: "fc6"
  type: "InnerProduct"
  bottom: "pool5"
  top: "fc6"
  param {
    lr_mult: 1
    decay_mult: 1
  }
  param {
    lr_mult: 2
    decay_mult: 0
  }
  inner_product_param {
    num_output: 4096
    weight_filler {
      type: "gaussian"
      std: 0.005
    }
    bias_filler {
      type: "constant"
      value: 1
    }
  }
}
layer {
  name: "relu6"
  type: "ReLU"
  bottom: "fc6"
  top: "fc6"
}
layer {
  name: "drop6"
  type: "Dropout"
  bottom: "fc6"
  top: "fc6"
  dropout_param {
    dropout_ratio: 0.5
  }
}
layer {
  name: "fc7"
  type: "InnerProduct"
  bottom: "fc6"
  top: "fc7"
  param {
    lr_mult: 1
    decay_mult: 1
  }
  param {
    lr_mult: 2
    decay_mult: 0
  }
  inner_product_param {
    num_output: 4096
    weight_filler {
      type: "gaussian"
      std: 0.005
    }
    bias_filler {
      type: "constant"
      value: 1
    }
  }
}
layer {
  name: "relu7"
  type: "ReLU"
  bottom: "fc7"
  top: "fc7"
}
layer {
  name: "drop7"
  type: "Dropout"
  bottom: "fc7"
  top: "fc7"
  dropout_param {
    dropout_ratio: 0.5
  }
}
layer {
  name: "latent"
  type: "InnerProduct"
  bottom: "fc7"
  top: "latent"
  param {
    lr_mult: 1
    decay_mult: 1
  }
  param {
    lr_mult: 2
    decay_mult: 0
  }
  inner_product_param {
    num_output: 48
    weight_filler {
      type: "gaussian"
      std: 0.01
    }
    bias_filler {
      type: "constant"
      value: 0
    }
  }
}
layer {
  name: "latent_sigmoid"
  type: "Sigmoid"
  bottom: "latent"
  top: "latent_sigmoid"
}
layer {
  name: "loss_1"
  type: "K1_EuclideanLoss"
  bottom: "latent_sigmoid"
  bottom: "latent_sigmoid"
  top: "loss: forcing-binary"
  loss_weight: 1
  propagate_down: true
  propagate_down: false
}
layer {
  name: "latent_sigmoid_reshape"
  type: "Reshape"
  bottom: "latent_sigmoid"
  top: "latent_sigmoid_reshape"
  reshape_param {
    shape {
      dim: 0
      dim: 1
      dim: 1
      dim: -1
    }
  }
}
layer {
  name: "latent_sigmoid_avg"
  type: "Pooling"
  bottom: "latent_sigmoid_reshape"
  top: "latent_sigmoid_avg"
  pooling_param {
    pool: AVE
    kernel_h: 1
    kernel_w: 48
  }
}
layer {
  name: "loss_2"
  type: "K2_EuclideanLoss"
  bottom: "latent_sigmoid_avg"
  bottom: "latent_sigmoid_avg"
  top: "loss: 50%-fire-rate"
  loss_weight: 1
  propagate_down: true
  propagate_down: false
}
layer {
  name: "fc9"
  type: "InnerProduct"
  bottom: "latent_sigmoid"
  top: "fc9"
  param {
    lr_mult: 10
    decay_mult: 1
  }
  param {
    lr_mult: 20
    decay_mult: 0
  }
  inner_product_param {
    num_output: 5
    weight_filler {
      type: "gaussian"
      std: 0.2
    }
    bias_filler {
      type: "constant"
      value: 0
    }
  }
}
layer {
  name: "loss"
  type: "SoftmaxWithLoss"
  bottom: "fc9"
  bottom: "label"
  top: "loss: classfication-error"
  loss_weight: 1
}
I0813 15:18:55.924763 40068 layer_factory.hpp:77] Creating layer data
I0813 15:18:55.987794 40068 db_leveldb.cpp:18] Opened leveldb data/bone/bone_train_position_leveldb
I0813 15:18:55.991547 40068 net.cpp:84] Creating Layer data
I0813 15:18:55.991585 40068 net.cpp:380] data -> data
I0813 15:18:55.991637 40068 net.cpp:380] data -> label
I0813 15:18:55.994225 40068 data_layer.cpp:45] output data size: 32,3,227,227
I0813 15:18:56.054149 40068 net.cpp:122] Setting up data
I0813 15:18:56.054297 40068 net.cpp:129] Top shape: 32 3 227 227 (4946784)
I0813 15:18:56.054348 40068 net.cpp:129] Top shape: 32 (32)
I0813 15:18:56.054358 40068 net.cpp:137] Memory required for data: 19787264
I0813 15:18:56.054379 40068 layer_factory.hpp:77] Creating layer conv1
I0813 15:18:56.054435 40068 net.cpp:84] Creating Layer conv1
I0813 15:18:56.054451 40068 net.cpp:406] conv1 <- data
I0813 15:18:56.054478 40068 net.cpp:380] conv1 -> conv1
I0813 15:18:56.351416 40068 net.cpp:122] Setting up conv1
I0813 15:18:56.351461 40068 net.cpp:129] Top shape: 32 96 55 55 (9292800)
I0813 15:18:56.351493 40068 net.cpp:137] Memory required for data: 56958464
I0813 15:18:56.351518 40068 layer_factory.hpp:77] Creating layer relu1
I0813 15:18:56.351539 40068 net.cpp:84] Creating Layer relu1
I0813 15:18:56.351546 40068 net.cpp:406] relu1 <- conv1
I0813 15:18:56.351557 40068 net.cpp:367] relu1 -> conv1 (in-place)
I0813 15:18:56.352404 40068 net.cpp:122] Setting up relu1
I0813 15:18:56.352423 40068 net.cpp:129] Top shape: 32 96 55 55 (9292800)
I0813 15:18:56.352428 40068 net.cpp:137] Memory required for data: 94129664
I0813 15:18:56.352432 40068 layer_factory.hpp:77] Creating layer pool1
I0813 15:18:56.352448 40068 net.cpp:84] Creating Layer pool1
I0813 15:18:56.352452 40068 net.cpp:406] pool1 <- conv1
I0813 15:18:56.352459 40068 net.cpp:380] pool1 -> pool1
I0813 15:18:56.352530 40068 net.cpp:122] Setting up pool1
I0813 15:18:56.352550 40068 net.cpp:129] Top shape: 32 96 27 27 (2239488)
I0813 15:18:56.352553 40068 net.cpp:137] Memory required for data: 103087616
I0813 15:18:56.352557 40068 layer_factory.hpp:77] Creating layer norm1
I0813 15:18:56.352573 40068 net.cpp:84] Creating Layer norm1
I0813 15:18:56.352579 40068 net.cpp:406] norm1 <- pool1
I0813 15:18:56.352586 40068 net.cpp:380] norm1 -> norm1
I0813 15:18:56.352843 40068 net.cpp:122] Setting up norm1
I0813 15:18:56.352856 40068 net.cpp:129] Top shape: 32 96 27 27 (2239488)
I0813 15:18:56.352860 40068 net.cpp:137] Memory required for data: 112045568
I0813 15:18:56.352864 40068 layer_factory.hpp:77] Creating layer conv2
I0813 15:18:56.352887 40068 net.cpp:84] Creating Layer conv2
I0813 15:18:56.352892 40068 net.cpp:406] conv2 <- norm1
I0813 15:18:56.352900 40068 net.cpp:380] conv2 -> conv2
I0813 15:18:56.368026 40068 net.cpp:122] Setting up conv2
I0813 15:18:56.368047 40068 net.cpp:129] Top shape: 32 256 27 27 (5971968)
I0813 15:18:56.368052 40068 net.cpp:137] Memory required for data: 135933440
I0813 15:18:56.368063 40068 layer_factory.hpp:77] Creating layer relu2
I0813 15:18:56.368072 40068 net.cpp:84] Creating Layer relu2
I0813 15:18:56.368077 40068 net.cpp:406] relu2 <- conv2
I0813 15:18:56.368083 40068 net.cpp:367] relu2 -> conv2 (in-place)
I0813 15:18:56.368917 40068 net.cpp:122] Setting up relu2
I0813 15:18:56.368937 40068 net.cpp:129] Top shape: 32 256 27 27 (5971968)
I0813 15:18:56.368940 40068 net.cpp:137] Memory required for data: 159821312
I0813 15:18:56.368945 40068 layer_factory.hpp:77] Creating layer pool2
I0813 15:18:56.368955 40068 net.cpp:84] Creating Layer pool2
I0813 15:18:56.368960 40068 net.cpp:406] pool2 <- conv2
I0813 15:18:56.368966 40068 net.cpp:380] pool2 -> pool2
I0813 15:18:56.369019 40068 net.cpp:122] Setting up pool2
I0813 15:18:56.369027 40068 net.cpp:129] Top shape: 32 256 13 13 (1384448)
I0813 15:18:56.369031 40068 net.cpp:137] Memory required for data: 165359104
I0813 15:18:56.369035 40068 layer_factory.hpp:77] Creating layer norm2
I0813 15:18:56.369045 40068 net.cpp:84] Creating Layer norm2
I0813 15:18:56.369050 40068 net.cpp:406] norm2 <- pool2
I0813 15:18:56.369055 40068 net.cpp:380] norm2 -> norm2
I0813 15:18:56.369324 40068 net.cpp:122] Setting up norm2
I0813 15:18:56.369341 40068 net.cpp:129] Top shape: 32 256 13 13 (1384448)
I0813 15:18:56.369345 40068 net.cpp:137] Memory required for data: 170896896
I0813 15:18:56.369349 40068 layer_factory.hpp:77] Creating layer conv3
I0813 15:18:56.369365 40068 net.cpp:84] Creating Layer conv3
I0813 15:18:56.369369 40068 net.cpp:406] conv3 <- norm2
I0813 15:18:56.369376 40068 net.cpp:380] conv3 -> conv3
I0813 15:18:56.401823 40068 net.cpp:122] Setting up conv3
I0813 15:18:56.401842 40068 net.cpp:129] Top shape: 32 384 13 13 (2076672)
I0813 15:18:56.401847 40068 net.cpp:137] Memory required for data: 179203584
I0813 15:18:56.401859 40068 layer_factory.hpp:77] Creating layer relu3
I0813 15:18:56.401866 40068 net.cpp:84] Creating Layer relu3
I0813 15:18:56.401870 40068 net.cpp:406] relu3 <- conv3
I0813 15:18:56.401880 40068 net.cpp:367] relu3 -> conv3 (in-place)
I0813 15:18:56.402101 40068 net.cpp:122] Setting up relu3
I0813 15:18:56.402115 40068 net.cpp:129] Top shape: 32 384 13 13 (2076672)
I0813 15:18:56.402135 40068 net.cpp:137] Memory required for data: 187510272
I0813 15:18:56.402140 40068 layer_factory.hpp:77] Creating layer conv4
I0813 15:18:56.402151 40068 net.cpp:84] Creating Layer conv4
I0813 15:18:56.402155 40068 net.cpp:406] conv4 <- conv3
I0813 15:18:56.402164 40068 net.cpp:380] conv4 -> conv4
I0813 15:18:56.429062 40068 net.cpp:122] Setting up conv4
I0813 15:18:56.429083 40068 net.cpp:129] Top shape: 32 384 13 13 (2076672)
I0813 15:18:56.429087 40068 net.cpp:137] Memory required for data: 195816960
I0813 15:18:56.429096 40068 layer_factory.hpp:77] Creating layer relu4
I0813 15:18:56.429105 40068 net.cpp:84] Creating Layer relu4
I0813 15:18:56.429108 40068 net.cpp:406] relu4 <- conv4
I0813 15:18:56.429117 40068 net.cpp:367] relu4 -> conv4 (in-place)
I0813 15:18:56.429972 40068 net.cpp:122] Setting up relu4
I0813 15:18:56.429991 40068 net.cpp:129] Top shape: 32 384 13 13 (2076672)
I0813 15:18:56.429994 40068 net.cpp:137] Memory required for data: 204123648
I0813 15:18:56.429998 40068 layer_factory.hpp:77] Creating layer conv5
I0813 15:18:56.430013 40068 net.cpp:84] Creating Layer conv5
I0813 15:18:56.430018 40068 net.cpp:406] conv5 <- conv4
I0813 15:18:56.430030 40068 net.cpp:380] conv5 -> conv5
I0813 15:18:56.449589 40068 net.cpp:122] Setting up conv5
I0813 15:18:56.449611 40068 net.cpp:129] Top shape: 32 256 13 13 (1384448)
I0813 15:18:56.449616 40068 net.cpp:137] Memory required for data: 209661440
I0813 15:18:56.449628 40068 layer_factory.hpp:77] Creating layer relu5
I0813 15:18:56.449636 40068 net.cpp:84] Creating Layer relu5
I0813 15:18:56.449640 40068 net.cpp:406] relu5 <- conv5
I0813 15:18:56.449648 40068 net.cpp:367] relu5 -> conv5 (in-place)
I0813 15:18:56.450480 40068 net.cpp:122] Setting up relu5
I0813 15:18:56.450500 40068 net.cpp:129] Top shape: 32 256 13 13 (1384448)
I0813 15:18:56.450503 40068 net.cpp:137] Memory required for data: 215199232
I0813 15:18:56.450507 40068 layer_factory.hpp:77] Creating layer pool5
I0813 15:18:56.450516 40068 net.cpp:84] Creating Layer pool5
I0813 15:18:56.450520 40068 net.cpp:406] pool5 <- conv5
I0813 15:18:56.450528 40068 net.cpp:380] pool5 -> pool5
I0813 15:18:56.450585 40068 net.cpp:122] Setting up pool5
I0813 15:18:56.450592 40068 net.cpp:129] Top shape: 32 256 6 6 (294912)
I0813 15:18:56.450597 40068 net.cpp:137] Memory required for data: 216378880
I0813 15:18:56.450600 40068 layer_factory.hpp:77] Creating layer fc6
I0813 15:18:56.450619 40068 net.cpp:84] Creating Layer fc6
I0813 15:18:56.450624 40068 net.cpp:406] fc6 <- pool5
I0813 15:18:56.450630 40068 net.cpp:380] fc6 -> fc6
I0813 15:18:57.482758 40068 net.cpp:122] Setting up fc6
I0813 15:18:57.482831 40068 net.cpp:129] Top shape: 32 4096 (131072)
I0813 15:18:57.482841 40068 net.cpp:137] Memory required for data: 216903168
I0813 15:18:57.482861 40068 layer_factory.hpp:77] Creating layer relu6
I0813 15:18:57.482899 40068 net.cpp:84] Creating Layer relu6
I0813 15:18:57.482911 40068 net.cpp:406] relu6 <- fc6
I0813 15:18:57.482930 40068 net.cpp:367] relu6 -> fc6 (in-place)
I0813 15:18:57.483616 40068 net.cpp:122] Setting up relu6
I0813 15:18:57.483628 40068 net.cpp:129] Top shape: 32 4096 (131072)
I0813 15:18:57.483644 40068 net.cpp:137] Memory required for data: 217427456
I0813 15:18:57.483647 40068 layer_factory.hpp:77] Creating layer drop6
I0813 15:18:57.483662 40068 net.cpp:84] Creating Layer drop6
I0813 15:18:57.483666 40068 net.cpp:406] drop6 <- fc6
I0813 15:18:57.483670 40068 net.cpp:367] drop6 -> fc6 (in-place)
I0813 15:18:57.483759 40068 net.cpp:122] Setting up drop6
I0813 15:18:57.483768 40068 net.cpp:129] Top shape: 32 4096 (131072)
I0813 15:18:57.483772 40068 net.cpp:137] Memory required for data: 217951744
I0813 15:18:57.483774 40068 layer_factory.hpp:77] Creating layer fc7
I0813 15:18:57.483783 40068 net.cpp:84] Creating Layer fc7
I0813 15:18:57.483786 40068 net.cpp:406] fc7 <- fc6
I0813 15:18:57.483803 40068 net.cpp:380] fc7 -> fc7
I0813 15:18:57.918602 40068 net.cpp:122] Setting up fc7
I0813 15:18:57.918639 40068 net.cpp:129] Top shape: 32 4096 (131072)
I0813 15:18:57.918665 40068 net.cpp:137] Memory required for data: 218476032
I0813 15:18:57.918692 40068 layer_factory.hpp:77] Creating layer relu7
I0813 15:18:57.918721 40068 net.cpp:84] Creating Layer relu7
I0813 15:18:57.918726 40068 net.cpp:406] relu7 <- fc7
I0813 15:18:57.918735 40068 net.cpp:367] relu7 -> fc7 (in-place)
I0813 15:18:57.919654 40068 net.cpp:122] Setting up relu7
I0813 15:18:57.919669 40068 net.cpp:129] Top shape: 32 4096 (131072)
I0813 15:18:57.919673 40068 net.cpp:137] Memory required for data: 219000320
I0813 15:18:57.919677 40068 layer_factory.hpp:77] Creating layer drop7
I0813 15:18:57.919684 40068 net.cpp:84] Creating Layer drop7
I0813 15:18:57.919687 40068 net.cpp:406] drop7 <- fc7
I0813 15:18:57.919692 40068 net.cpp:367] drop7 -> fc7 (in-place)
I0813 15:18:57.919737 40068 net.cpp:122] Setting up drop7
I0813 15:18:57.919744 40068 net.cpp:129] Top shape: 32 4096 (131072)
I0813 15:18:57.919745 40068 net.cpp:137] Memory required for data: 219524608
I0813 15:18:57.919749 40068 layer_factory.hpp:77] Creating layer latent
I0813 15:18:57.919757 40068 net.cpp:84] Creating Layer latent
I0813 15:18:57.919761 40068 net.cpp:406] latent <- fc7
I0813 15:18:57.919765 40068 net.cpp:380] latent -> latent
I0813 15:18:57.925321 40068 net.cpp:122] Setting up latent
I0813 15:18:57.925335 40068 net.cpp:129] Top shape: 32 48 (1536)
I0813 15:18:57.925338 40068 net.cpp:137] Memory required for data: 219530752
I0813 15:18:57.925344 40068 layer_factory.hpp:77] Creating layer latent_sigmoid
I0813 15:18:57.925355 40068 net.cpp:84] Creating Layer latent_sigmoid
I0813 15:18:57.925359 40068 net.cpp:406] latent_sigmoid <- latent
I0813 15:18:57.925365 40068 net.cpp:380] latent_sigmoid -> latent_sigmoid
I0813 15:18:57.925599 40068 net.cpp:122] Setting up latent_sigmoid
I0813 15:18:57.925612 40068 net.cpp:129] Top shape: 32 48 (1536)
I0813 15:18:57.925616 40068 net.cpp:137] Memory required for data: 219536896
I0813 15:18:57.925624 40068 layer_factory.hpp:77] Creating layer latent_sigmoid_latent_sigmoid_0_split
I0813 15:18:57.925637 40068 net.cpp:84] Creating Layer latent_sigmoid_latent_sigmoid_0_split
I0813 15:18:57.925642 40068 net.cpp:406] latent_sigmoid_latent_sigmoid_0_split <- latent_sigmoid
I0813 15:18:57.925648 40068 net.cpp:380] latent_sigmoid_latent_sigmoid_0_split -> latent_sigmoid_latent_sigmoid_0_split_0
I0813 15:18:57.925683 40068 net.cpp:380] latent_sigmoid_latent_sigmoid_0_split -> latent_sigmoid_latent_sigmoid_0_split_1
I0813 15:18:57.925689 40068 net.cpp:380] latent_sigmoid_latent_sigmoid_0_split -> latent_sigmoid_latent_sigmoid_0_split_2
I0813 15:18:57.925698 40068 net.cpp:380] latent_sigmoid_latent_sigmoid_0_split -> latent_sigmoid_latent_sigmoid_0_split_3
I0813 15:18:57.925773 40068 net.cpp:122] Setting up latent_sigmoid_latent_sigmoid_0_split
I0813 15:18:57.925783 40068 net.cpp:129] Top shape: 32 48 (1536)
I0813 15:18:57.925788 40068 net.cpp:129] Top shape: 32 48 (1536)
I0813 15:18:57.925791 40068 net.cpp:129] Top shape: 32 48 (1536)
I0813 15:18:57.925796 40068 net.cpp:129] Top shape: 32 48 (1536)
I0813 15:18:57.925798 40068 net.cpp:137] Memory required for data: 219561472
I0813 15:18:57.925801 40068 layer_factory.hpp:77] Creating layer loss_1
I0813 15:18:57.925808 40068 net.cpp:84] Creating Layer loss_1
I0813 15:18:57.925813 40068 net.cpp:406] loss_1 <- latent_sigmoid_latent_sigmoid_0_split_0
I0813 15:18:57.925818 40068 net.cpp:406] loss_1 <- latent_sigmoid_latent_sigmoid_0_split_1
I0813 15:18:57.925822 40068 net.cpp:380] loss_1 -> loss: forcing-binary
I0813 15:18:57.925884 40068 net.cpp:122] Setting up loss_1
I0813 15:18:57.925894 40068 net.cpp:129] Top shape: (1)
I0813 15:18:57.925897 40068 net.cpp:132]     with loss weight 1
I0813 15:18:57.925956 40068 net.cpp:137] Memory required for data: 219561476
I0813 15:18:57.925959 40068 layer_factory.hpp:77] Creating layer latent_sigmoid_reshape
I0813 15:18:57.925967 40068 net.cpp:84] Creating Layer latent_sigmoid_reshape
I0813 15:18:57.925971 40068 net.cpp:406] latent_sigmoid_reshape <- latent_sigmoid_latent_sigmoid_0_split_2
I0813 15:18:57.925976 40068 net.cpp:380] latent_sigmoid_reshape -> latent_sigmoid_reshape
I0813 15:18:57.926045 40068 net.cpp:122] Setting up latent_sigmoid_reshape
I0813 15:18:57.926056 40068 net.cpp:129] Top shape: 32 1 1 48 (1536)
I0813 15:18:57.926059 40068 net.cpp:137] Memory required for data: 219567620
I0813 15:18:57.926062 40068 layer_factory.hpp:77] Creating layer latent_sigmoid_avg
I0813 15:18:57.926075 40068 net.cpp:84] Creating Layer latent_sigmoid_avg
I0813 15:18:57.926080 40068 net.cpp:406] latent_sigmoid_avg <- latent_sigmoid_reshape
I0813 15:18:57.926084 40068 net.cpp:380] latent_sigmoid_avg -> latent_sigmoid_avg
I0813 15:18:57.926831 40068 net.cpp:122] Setting up latent_sigmoid_avg
I0813 15:18:57.926846 40068 net.cpp:129] Top shape: 32 1 1 1 (32)
I0813 15:18:57.926862 40068 net.cpp:137] Memory required for data: 219567748
I0813 15:18:57.926865 40068 layer_factory.hpp:77] Creating layer latent_sigmoid_avg_latent_sigmoid_avg_0_split
I0813 15:18:57.926872 40068 net.cpp:84] Creating Layer latent_sigmoid_avg_latent_sigmoid_avg_0_split
I0813 15:18:57.926874 40068 net.cpp:406] latent_sigmoid_avg_latent_sigmoid_avg_0_split <- latent_sigmoid_avg
I0813 15:18:57.926880 40068 net.cpp:380] latent_sigmoid_avg_latent_sigmoid_avg_0_split -> latent_sigmoid_avg_latent_sigmoid_avg_0_split_0
I0813 15:18:57.926887 40068 net.cpp:380] latent_sigmoid_avg_latent_sigmoid_avg_0_split -> latent_sigmoid_avg_latent_sigmoid_avg_0_split_1
I0813 15:18:57.926928 40068 net.cpp:122] Setting up latent_sigmoid_avg_latent_sigmoid_avg_0_split
I0813 15:18:57.926934 40068 net.cpp:129] Top shape: 32 1 1 1 (32)
I0813 15:18:57.926939 40068 net.cpp:129] Top shape: 32 1 1 1 (32)
I0813 15:18:57.926941 40068 net.cpp:137] Memory required for data: 219568004
I0813 15:18:57.926944 40068 layer_factory.hpp:77] Creating layer loss_2
I0813 15:18:57.926949 40068 net.cpp:84] Creating Layer loss_2
I0813 15:18:57.926952 40068 net.cpp:406] loss_2 <- latent_sigmoid_avg_latent_sigmoid_avg_0_split_0
I0813 15:18:57.926959 40068 net.cpp:406] loss_2 <- latent_sigmoid_avg_latent_sigmoid_avg_0_split_1
I0813 15:18:57.926964 40068 net.cpp:380] loss_2 -> loss: 50%-fire-rate
I0813 15:18:57.927000 40068 net.cpp:122] Setting up loss_2
I0813 15:18:57.927006 40068 net.cpp:129] Top shape: (1)
I0813 15:18:57.927007 40068 net.cpp:132]     with loss weight 1
I0813 15:18:57.927013 40068 net.cpp:137] Memory required for data: 219568008
I0813 15:18:57.927016 40068 layer_factory.hpp:77] Creating layer fc9
I0813 15:18:57.927031 40068 net.cpp:84] Creating Layer fc9
I0813 15:18:57.927034 40068 net.cpp:406] fc9 <- latent_sigmoid_latent_sigmoid_0_split_3
I0813 15:18:57.927042 40068 net.cpp:380] fc9 -> fc9
I0813 15:18:57.927212 40068 net.cpp:122] Setting up fc9
I0813 15:18:57.927223 40068 net.cpp:129] Top shape: 32 5 (160)
I0813 15:18:57.927227 40068 net.cpp:137] Memory required for data: 219568648
I0813 15:18:57.927242 40068 layer_factory.hpp:77] Creating layer loss
I0813 15:18:57.927259 40068 net.cpp:84] Creating Layer loss
I0813 15:18:57.927274 40068 net.cpp:406] loss <- fc9
I0813 15:18:57.927278 40068 net.cpp:406] loss <- label
I0813 15:18:57.927284 40068 net.cpp:380] loss -> loss: classfication-error
I0813 15:18:57.927294 40068 layer_factory.hpp:77] Creating layer loss
…
I0813 15:18:58.560827 40068 solver.cpp:190] Creating test net (#0) specified by net file: examples/bone-finetune/train_val_bone.prototxt
I0813 15:18:58.560909 40068 net.cpp:294] The NetState phase (1) differed from the phase (0) specified by a rule in layer data
I0813 15:18:58.561122 40068 net.cpp:51] Initializing net from parameters: 
name: "bone-SSDH"
state {
  phase: TEST
}
layer {
  name: "data"
  type: "Data"
  top: "data"
  top: "label"
  include {
    phase: TEST
  }
  transform_param {
    mirror: false
    crop_size: 227
    mean_value: 92.6427
  }
  data_param {
    source: "data/bone/bone_val_position_leveldb"
    batch_size: 50
  }
}
layer {
  name: "conv1"
  type: "Convolution"
  bottom: "data"
  top: "conv1"
  param {
    lr_mult: 1
    decay_mult: 1
  }
  param {
    lr_mult: 2
    decay_mult: 0
  }
  convolution_param {
    num_output: 96
    kernel_size: 11
    stride: 4
    weight_filler {
      type: "gaussian"
      std: 0.01
    }
    bias_filler {
      type: "constant"
      value: 0
    }
  }
}
layer {
  name: "relu1"
  type: "ReLU"
  bottom: "conv1"
  top: "conv1"
}
layer {
  name: "pool1"
  type: "Pooling"
  bottom: "conv1"
  top: "pool1"
  pooling_param {
    pool: MAX
    kernel_size: 3
    stride: 2
  }
}
layer {
  name: "norm1"
  type: "LRN"
  bottom: "pool1"
  top: "norm1"
  lrn_param {
    local_size: 5
    alpha: 0.0001
    beta: 0.75
  }
}
layer {
  name: "conv2"
  type: "Convolution"
  bottom: "norm1"
  top: "conv2"
  param {
    lr_mult: 1
    decay_mult: 1
  }
  param {
    lr_mult: 2
    decay_mult: 0
  }
  convolution_param {
    num_output: 256
    pad: 2
    kernel_size: 5
    group: 2
    weight_filler {
      type: "gaussian"
      std: 0.01
    }
    bias_filler {
      type: "constant"
      value: 1
    }
  }
}
layer {
  name: "relu2"
  type: "ReLU"
  bottom: "conv2"
  top: "conv2"
}
layer {
  name: "pool2"
  type: "Pooling"
  bottom: "conv2"
  top: "pool2"
  pooling_param {
    pool: MAX
    kernel_size: 3
    stride: 2
  }
}
layer {
  name: "norm2"
  type: "LRN"
  bottom: "pool2"
  top: "norm2"
  lrn_param {
    local_size: 5
    alpha: 0.0001
    beta: 0.75
  }
}
layer {
  name: "conv3"
  type: "Convolution"
  bottom: "norm2"
  top: "conv3"
  param {
    lr_mult: 1
    decay_mult: 1
  }
  param {
    lr_mult: 2
    decay_mult: 0
  }
  convolution_param {
    num_output: 384
    pad: 1
    kernel_size: 3
    weight_filler {
      type: "gaussian"
      std: 0.01
    }
    bias_filler {
      type: "constant"
      value: 0
    }
  }
}
layer {
  name: "relu3"
  type: "ReLU"
  bottom: "conv3"
  top: "conv3"
}
layer {
  name: "conv4"
  type: "Convolution"
  bottom: "conv3"
  top: "conv4"
  param {
    lr_mult: 1
    decay_mult: 1
  }
  param {
    lr_mult: 2
    decay_mult: 0
  }
  convolution_param {
    num_output: 384
    pad: 1
    kernel_size: 3
    group: 2
    weight_filler {
      type: "gaussian"
      std: 0.01
    }
    bias_filler {
      type: "constant"
      value: 1
    }
  }
}
layer {
  name: "relu4"
  type: "ReLU"
  bottom: "conv4"
  top: "conv4"
}
layer {
  name: "conv5"
  type: "Convolution"
  bottom: "conv4"
  top: "conv5"
  param {
    lr_mult: 1
    decay_mult: 1
  }
  param {
    lr_mult: 2
    decay_mult: 0
  }
  convolution_param {
    num_output: 256
    pad: 1
    kernel_size: 3
    group: 2
    weight_filler {
      type: "gaussian"
      std: 0.01
    }
    bias_filler {
      type: "constant"
      value: 1
    }
  }
}
layer {
  name: "relu5"
  type: "ReLU"
  bottom: "conv5"
  top: "conv5"
}
layer {
  name: "pool5"
  type: "Pooling"
  bottom: "conv5"
  top: "pool5"
  pooling_param {
    pool: MAX
    kernel_size: 3
    stride: 2
  }
}
layer {
  name: "fc6"
  type: "InnerProduct"
  bottom: "pool5"
  top: "fc6"
  param {
    lr_mult: 1
    decay_mult: 1
  }
  param {
    lr_mult: 2
    decay_mult: 0
  }
  inner_product_param {
    num_output: 4096
    weight_filler {
      type: "gaussian"
      std: 0.005
    }
    bias_filler {
      type: "constant"
      value: 1
    }
  }
}
layer {
  name: "relu6"
  type: "ReLU"
  bottom: "fc6"
  top: "fc6"
}
layer {
  name: "drop6"
  type: "Dropout"
  bottom: "fc6"
  top: "fc6"
  dropout_param {
    dropout_ratio: 0.5
  }
}
layer {
  name: "fc7"
  type: "InnerProduct"
  bottom: "fc6"
  top: "fc7"
  param {
    lr_mult: 1
    decay_mult: 1
  }
  param {
    lr_mult: 2
    decay_mult: 0
  }
  inner_product_param {
    num_output: 4096
    weight_filler {
      type: "gaussian"
      std: 0.005
    }
    bias_filler {
      type: "constant"
      value: 1
    }
  }
}
layer {
  name: "relu7"
  type: "ReLU"
  bottom: "fc7"
  top: "fc7"
}
layer {
  name: "drop7"
  type: "Dropout"
  bottom: "fc7"
  top: "fc7"
  dropout_param {
    dropout_ratio: 0.5
  }
}
layer {
  name: "latent"
  type: "InnerProduct"
  bottom: "fc7"
  top: "latent"
  param {
    lr_mult: 1
    decay_mult: 1
  }
  param {
    lr_mult: 2
    decay_mult: 0
  }
  inner_product_param {
    num_output: 48
    weight_filler {
      type: "gaussian"
      std: 0.01
    }
    bias_filler {
      type: "constant"
      value: 0
    }
  }
}
layer {
  name: "latent_sigmoid"
  type: "Sigmoid"
  bottom: "latent"
  top: "latent_sigmoid"
}
layer {
  name: "loss_1"
  type: "K1_EuclideanLoss"
  bottom: "latent_sigmoid"
  bottom: "latent_sigmoid"
  top: "loss: forcing-binary"
  loss_weight: 1
  propagate_down: true
  propagate_down: false
}
layer {
  name: "latent_sigmoid_reshape"
  type: "Reshape"
  bottom: "latent_sigmoid"
  top: "latent_sigmoid_reshape"
  reshape_param {
    shape {
      dim: 0
      dim: 1
      dim: 1
      dim: -1
    }
  }
}
layer {
  name: "latent_sigmoid_avg"
  type: "Pooling"
  bottom: "latent_sigmoid_reshape"
  top: "latent_sigmoid_avg"
  pooling_param {
    pool: AVE
    kernel_h: 1
    kernel_w: 48
  }
}
layer {
  name: "loss_2"
  type: "K2_EuclideanLoss"
  bottom: "latent_sigmoid_avg"
  bottom: "latent_sigmoid_avg"
  top: "loss: 50%-fire-rate"
  loss_weight: 1
  propagate_down: true
  propagate_down: false
}
layer {
  name: "fc9"
  type: "InnerProduct"
  bottom: "latent_sigmoid"
  top: "fc9"
  param {
    lr_mult: 10
    decay_mult: 1
  }
  param {
    lr_mult: 20
    decay_mult: 0
  }
  inner_product_param {
    num_output: 5
    weight_filler {
      type: "gaussian"
      std: 0.2
    }
    bias_filler {
      type: "constant"
      value: 0
    }
  }
}
layer {
  name: "accuracy"
  type: "Accuracy"
  bottom: "fc9"
  bottom: "label"
  top: "accuracy"
  include {
    phase: TEST
  }
}
layer {
  name: "loss"
  type: "SoftmaxWithLoss"
  bottom: "fc9"
  bottom: "label"
  top: "loss: classfication-error"
  loss_weight: 1
}
I0813 15:18:58.561327 40068 layer_factory.hpp:77] Creating layer data
I0813 15:18:58.687479 40068 db_leveldb.cpp:18] Opened leveldb data/bone/bone_val_position_leveldb
I0813 15:18:58.688467 40068 net.cpp:84] Creating Layer data
I0813 15:18:58.688495 40068 net.cpp:380] data -> data
I0813 15:18:58.688519 40068 net.cpp:380] data -> label
I0813 15:18:58.688954 40068 data_layer.cpp:45] output data size: 50,3,227,227
I0813 15:18:58.775324 40068 net.cpp:122] Setting up data
I0813 15:18:58.775377 40068 net.cpp:129] Top shape: 50 3 227 227 (7729350)
I0813 15:18:58.775384 40068 net.cpp:129] Top shape: 50 (50)
I0813 15:18:58.775389 40068 net.cpp:137] Memory required for data: 30917600
I0813 15:18:58.775398 40068 layer_factory.hpp:77] Creating layer label_data_1_split
I0813 15:18:58.775416 40068 net.cpp:84] Creating Layer label_data_1_split
I0813 15:18:58.775421 40068 net.cpp:406] label_data_1_split <- label
I0813 15:18:58.775429 40068 net.cpp:380] label_data_1_split -> label_data_1_split_0
I0813 15:18:58.775442 40068 net.cpp:380] label_data_1_split -> label_data_1_split_1
I0813 15:18:58.775514 40068 net.cpp:122] Setting up label_data_1_split
I0813 15:18:58.775528 40068 net.cpp:129] Top shape: 50 (50)
I0813 15:18:58.775532 40068 net.cpp:129] Top shape: 50 (50)
I0813 15:18:58.775535 40068 net.cpp:137] Memory required for data: 30918000
I0813 15:18:58.775539 40068 layer_factory.hpp:77] Creating layer conv1
I0813 15:18:58.775554 40068 net.cpp:84] Creating Layer conv1
I0813 15:18:58.775558 40068 net.cpp:406] conv1 <- data
I0813 15:18:58.775565 40068 net.cpp:380] conv1 -> conv1
I0813 15:18:58.778965 40068 net.cpp:122] Setting up conv1
I0813 15:18:58.778995 40068 net.cpp:129] Top shape: 50 96 55 55 (14520000)
I0813 15:18:58.779000 40068 net.cpp:137] Memory required for data: 88998000
I0813 15:18:58.779011 40068 layer_factory.hpp:77] Creating layer relu1
I0813 15:18:58.779021 40068 net.cpp:84] Creating Layer relu1
I0813 15:18:58.779024 40068 net.cpp:406] relu1 <- conv1
I0813 15:18:58.779029 40068 net.cpp:367] relu1 -> conv1 (in-place)
I0813 15:18:58.779810 40068 net.cpp:122] Setting up relu1
I0813 15:18:58.779837 40068 net.cpp:129] Top shape: 50 96 55 55 (14520000)
I0813 15:18:58.779841 40068 net.cpp:137] Memory required for data: 147078000
I0813 15:18:58.779844 40068 layer_factory.hpp:77] Creating layer pool1
I0813 15:18:58.779855 40068 net.cpp:84] Creating Layer pool1
I0813 15:18:58.779860 40068 net.cpp:406] pool1 <- conv1
I0813 15:18:58.779889 40068 net.cpp:380] pool1 -> pool1
I0813 15:18:58.782629 40068 net.cpp:122] Setting up pool1
I0813 15:18:58.782650 40068 net.cpp:129] Top shape: 50 96 27 27 (3499200)
I0813 15:18:58.782655 40068 net.cpp:137] Memory required for data: 161074800
I0813 15:18:58.782660 40068 layer_factory.hpp:77] Creating layer norm1
I0813 15:18:58.782671 40068 net.cpp:84] Creating Layer norm1
I0813 15:18:58.782676 40068 net.cpp:406] norm1 <- pool1
I0813 15:18:58.782683 40068 net.cpp:380] norm1 -> norm1
I0813 15:18:58.782968 40068 net.cpp:122] Setting up norm1
I0813 15:18:58.782982 40068 net.cpp:129] Top shape: 50 96 27 27 (3499200)
I0813 15:18:58.782986 40068 net.cpp:137] Memory required for data: 175071600
I0813 15:18:58.782991 40068 layer_factory.hpp:77] Creating layer conv2
I0813 15:18:58.783004 40068 net.cpp:84] Creating Layer conv2
I0813 15:18:58.783008 40068 net.cpp:406] conv2 <- norm1
I0813 15:18:58.783016 40068 net.cpp:380] conv2 -> conv2
I0813 15:18:58.798748 40068 net.cpp:122] Setting up conv2
I0813 15:18:58.798770 40068 net.cpp:129] Top shape: 50 256 27 27 (9331200)
I0813 15:18:58.798775 40068 net.cpp:137] Memory required for data: 212396400
I0813 15:18:58.798787 40068 layer_factory.hpp:77] Creating layer relu2
I0813 15:18:58.798797 40068 net.cpp:84] Creating Layer relu2
I0813 15:18:58.798801 40068 net.cpp:406] relu2 <- conv2
I0813 15:18:58.798808 40068 net.cpp:367] relu2 -> conv2 (in-place)
I0813 15:18:58.799140 40068 net.cpp:122] Setting up relu2
I0813 15:18:58.799157 40068 net.cpp:129] Top shape: 50 256 27 27 (9331200)
I0813 15:18:58.799161 40068 net.cpp:137] Memory required for data: 249721200
I0813 15:18:58.799166 40068 layer_factory.hpp:77] Creating layer pool2
I0813 15:18:58.799176 40068 net.cpp:84] Creating Layer pool2
I0813 15:18:58.799181 40068 net.cpp:406] pool2 <- conv2
I0813 15:18:58.799188 40068 net.cpp:380] pool2 -> pool2
I0813 15:18:58.799258 40068 net.cpp:122] Setting up pool2
I0813 15:18:58.799271 40068 net.cpp:129] Top shape: 50 256 13 13 (2163200)
I0813 15:18:58.799275 40068 net.cpp:137] Memory required for data: 258374000
I0813 15:18:58.799279 40068 layer_factory.hpp:77] Creating layer norm2
I0813 15:18:58.799288 40068 net.cpp:84] Creating Layer norm2
I0813 15:18:58.799291 40068 net.cpp:406] norm2 <- pool2
I0813 15:18:58.799298 40068 net.cpp:380] norm2 -> norm2
I0813 15:18:58.800257 40068 net.cpp:122] Setting up norm2
I0813 15:18:58.800276 40068 net.cpp:129] Top shape: 50 256 13 13 (2163200)
I0813 15:18:58.800281 40068 net.cpp:137] Memory required for data: 267026800
I0813 15:18:58.800285 40068 layer_factory.hpp:77] Creating layer conv3
I0813 15:18:58.800298 40068 net.cpp:84] Creating Layer conv3
I0813 15:18:58.800304 40068 net.cpp:406] conv3 <- norm2
I0813 15:18:58.800313 40068 net.cpp:380] conv3 -> conv3
I0813 15:18:58.827059 40068 net.cpp:122] Setting up conv3
I0813 15:18:58.827075 40068 net.cpp:129] Top shape: 50 384 13 13 (3244800)
I0813 15:18:58.827080 40068 net.cpp:137] Memory required for data: 280006000
I0813 15:18:58.827088 40068 layer_factory.hpp:77] Creating layer relu3
I0813 15:18:58.827096 40068 net.cpp:84] Creating Layer relu3
I0813 15:18:58.827100 40068 net.cpp:406] relu3 <- conv3
I0813 15:18:58.827106 40068 net.cpp:367] relu3 -> conv3 (in-place)
I0813 15:18:58.827318 40068 net.cpp:122] Setting up relu3
I0813 15:18:58.827332 40068 net.cpp:129] Top shape: 50 384 13 13 (3244800)
I0813 15:18:58.827334 40068 net.cpp:137] Memory required for data: 292985200
I0813 15:18:58.827338 40068 layer_factory.hpp:77] Creating layer conv4
I0813 15:18:58.827348 40068 net.cpp:84] Creating Layer conv4
I0813 15:18:58.827353 40068 net.cpp:406] conv4 <- conv3
I0813 15:18:58.827359 40068 net.cpp:380] conv4 -> conv4
I0813 15:18:58.849009 40068 net.cpp:122] Setting up conv4
I0813 15:18:58.849025 40068 net.cpp:129] Top shape: 50 384 13 13 (3244800)
I0813 15:18:58.849030 40068 net.cpp:137] Memory required for data: 305964400
I0813 15:18:58.849035 40068 layer_factory.hpp:77] Creating layer relu4
I0813 15:18:58.849042 40068 net.cpp:84] Creating Layer relu4
I0813 15:18:58.849061 40068 net.cpp:406] relu4 <- conv4
I0813 15:18:58.849066 40068 net.cpp:367] relu4 -> conv4 (in-place)
I0813 15:18:58.849304 40068 net.cpp:122] Setting up relu4
I0813 15:18:58.849318 40068 net.cpp:129] Top shape: 50 384 13 13 (3244800)
I0813 15:18:58.849323 40068 net.cpp:137] Memory required for data: 318943600
I0813 15:18:58.849326 40068 layer_factory.hpp:77] Creating layer conv5
I0813 15:18:58.849337 40068 net.cpp:84] Creating Layer conv5
I0813 15:18:58.849341 40068 net.cpp:406] conv5 <- conv4
I0813 15:18:58.849347 40068 net.cpp:380] conv5 -> conv5
I0813 15:18:58.864739 40068 net.cpp:122] Setting up conv5
I0813 15:18:58.864766 40068 net.cpp:129] Top shape: 50 256 13 13 (2163200)
I0813 15:18:58.864770 40068 net.cpp:137] Memory required for data: 327596400
I0813 15:18:58.864780 40068 layer_factory.hpp:77] Creating layer relu5
I0813 15:18:58.864789 40068 net.cpp:84] Creating Layer relu5
I0813 15:18:58.864794 40068 net.cpp:406] relu5 <- conv5
I0813 15:18:58.864799 40068 net.cpp:367] relu5 -> conv5 (in-place)
I0813 15:18:58.865571 40068 net.cpp:122] Setting up relu5
I0813 15:18:58.865586 40068 net.cpp:129] Top shape: 50 256 13 13 (2163200)
I0813 15:18:58.865588 40068 net.cpp:137] Memory required for data: 336249200
I0813 15:18:58.865592 40068 layer_factory.hpp:77] Creating layer pool5
I0813 15:18:58.865600 40068 net.cpp:84] Creating Layer pool5
I0813 15:18:58.865603 40068 net.cpp:406] pool5 <- conv5
I0813 15:18:58.865609 40068 net.cpp:380] pool5 -> pool5
I0813 15:18:58.865680 40068 net.cpp:122] Setting up pool5
I0813 15:18:58.865686 40068 net.cpp:129] Top shape: 50 256 6 6 (460800)
I0813 15:18:58.865689 40068 net.cpp:137] Memory required for data: 338092400
I0813 15:18:58.865692 40068 layer_factory.hpp:77] Creating layer fc6
I0813 15:18:58.865707 40068 net.cpp:84] Creating Layer fc6
I0813 15:18:58.865711 40068 net.cpp:406] fc6 <- pool5
I0813 15:18:58.865717 40068 net.cpp:380] fc6 -> fc6
I0813 15:18:59.887081 40068 net.cpp:122] Setting up fc6
I0813 15:18:59.887122 40068 net.cpp:129] Top shape: 50 4096 (204800)
I0813 15:18:59.887126 40068 net.cpp:137] Memory required for data: 338911600
I0813 15:18:59.887136 40068 layer_factory.hpp:77] Creating layer relu6
I0813 15:18:59.887152 40068 net.cpp:84] Creating Layer relu6
I0813 15:18:59.887158 40068 net.cpp:406] relu6 <- fc6
I0813 15:18:59.887166 40068 net.cpp:367] relu6 -> fc6 (in-place)
I0813 15:18:59.887526 40068 net.cpp:122] Setting up relu6
I0813 15:18:59.887548 40068 net.cpp:129] Top shape: 50 4096 (204800)
I0813 15:18:59.887552 40068 net.cpp:137] Memory required for data: 339730800
I0813 15:18:59.887565 40068 layer_factory.hpp:77] Creating layer drop6
I0813 15:18:59.887575 40068 net.cpp:84] Creating Layer drop6
I0813 15:18:59.887579 40068 net.cpp:406] drop6 <- fc6
I0813 15:18:59.887586 40068 net.cpp:367] drop6 -> fc6 (in-place)
I0813 15:18:59.887624 40068 net.cpp:122] Setting up drop6
I0813 15:18:59.887630 40068 net.cpp:129] Top shape: 50 4096 (204800)
I0813 15:18:59.887634 40068 net.cpp:137] Memory required for data: 340550000
I0813 15:18:59.887636 40068 layer_factory.hpp:77] Creating layer fc7
I0813 15:18:59.887647 40068 net.cpp:84] Creating Layer fc7
I0813 15:18:59.887650 40068 net.cpp:406] fc7 <- fc6
I0813 15:18:59.887656 40068 net.cpp:380] fc7 -> fc7
I0813 15:19:00.325039 40068 net.cpp:122] Setting up fc7
I0813 15:19:00.325083 40068 net.cpp:129] Top shape: 50 4096 (204800)
I0813 15:19:00.325086 40068 net.cpp:137] Memory required for data: 341369200
I0813 15:19:00.325101 40068 layer_factory.hpp:77] Creating layer relu7
I0813 15:19:00.325119 40068 net.cpp:84] Creating Layer relu7
I0813 15:19:00.325124 40068 net.cpp:406] relu7 <- fc7
I0813 15:19:00.325145 40068 net.cpp:367] relu7 -> fc7 (in-place)
I0813 15:19:00.326256 40068 net.cpp:122] Setting up relu7
I0813 15:19:00.326270 40068 net.cpp:129] Top shape: 50 4096 (204800)
I0813 15:19:00.326274 40068 net.cpp:137] Memory required for data: 342188400
I0813 15:19:00.326277 40068 layer_factory.hpp:77] Creating layer drop7
I0813 15:19:00.326288 40068 net.cpp:84] Creating Layer drop7
I0813 15:19:00.326292 40068 net.cpp:406] drop7 <- fc7
I0813 15:19:00.326333 40068 net.cpp:367] drop7 -> fc7 (in-place)
I0813 15:19:00.326375 40068 net.cpp:122] Setting up drop7
I0813 15:19:00.326382 40068 net.cpp:129] Top shape: 50 4096 (204800)
I0813 15:19:00.326385 40068 net.cpp:137] Memory required for data: 343007600
I0813 15:19:00.326388 40068 layer_factory.hpp:77] Creating layer latent
I0813 15:19:00.326400 40068 net.cpp:84] Creating Layer latent
I0813 15:19:00.326402 40068 net.cpp:406] latent <- fc7
I0813 15:19:00.326411 40068 net.cpp:380] latent -> latent
I0813 15:19:00.331948 40068 net.cpp:122] Setting up latent
I0813 15:19:00.331961 40068 net.cpp:129] Top shape: 50 48 (2400)
I0813 15:19:00.331965 40068 net.cpp:137] Memory required for data: 343017200
I0813 15:19:00.331970 40068 layer_factory.hpp:77] Creating layer latent_sigmoid
I0813 15:19:00.331979 40068 net.cpp:84] Creating Layer latent_sigmoid
I0813 15:19:00.331981 40068 net.cpp:406] latent_sigmoid <- latent
I0813 15:19:00.331986 40068 net.cpp:380] latent_sigmoid -> latent_sigmoid
I0813 15:19:00.332243 40068 net.cpp:122] Setting up latent_sigmoid
I0813 15:19:00.332255 40068 net.cpp:129] Top shape: 50 48 (2400)
I0813 15:19:00.332259 40068 net.cpp:137] Memory required for data: 343026800
I0813 15:19:00.332263 40068 layer_factory.hpp:77] Creating layer latent_sigmoid_latent_sigmoid_0_split
I0813 15:19:00.332270 40068 net.cpp:84] Creating Layer latent_sigmoid_latent_sigmoid_0_split
I0813 15:19:00.332274 40068 net.cpp:406] latent_sigmoid_latent_sigmoid_0_split <- latent_sigmoid
I0813 15:19:00.332280 40068 net.cpp:380] latent_sigmoid_latent_sigmoid_0_split -> latent_sigmoid_latent_sigmoid_0_split_0
I0813 15:19:00.332288 40068 net.cpp:380] latent_sigmoid_latent_sigmoid_0_split -> latent_sigmoid_latent_sigmoid_0_split_1
I0813 15:19:00.332293 40068 net.cpp:380] latent_sigmoid_latent_sigmoid_0_split -> latent_sigmoid_latent_sigmoid_0_split_2
I0813 15:19:00.332299 40068 net.cpp:380] latent_sigmoid_latent_sigmoid_0_split -> latent_sigmoid_latent_sigmoid_0_split_3
I0813 15:19:00.332382 40068 net.cpp:122] Setting up latent_sigmoid_latent_sigmoid_0_split
I0813 15:19:00.332391 40068 net.cpp:129] Top shape: 50 48 (2400)
I0813 15:19:00.332396 40068 net.cpp:129] Top shape: 50 48 (2400)
I0813 15:19:00.332398 40068 net.cpp:129] Top shape: 50 48 (2400)
I0813 15:19:00.332402 40068 net.cpp:129] Top shape: 50 48 (2400)
I0813 15:19:00.332404 40068 net.cpp:137] Memory required for data: 343065200
I0813 15:19:00.332407 40068 layer_factory.hpp:77] Creating layer loss_1
I0813 15:19:00.332417 40068 net.cpp:84] Creating Layer loss_1
I0813 15:19:00.332419 40068 net.cpp:406] loss_1 <- latent_sigmoid_latent_sigmoid_0_split_0
I0813 15:19:00.332424 40068 net.cpp:406] loss_1 <- latent_sigmoid_latent_sigmoid_0_split_1
I0813 15:19:00.332430 40068 net.cpp:380] loss_1 -> loss: forcing-binary
I0813 15:19:00.332484 40068 net.cpp:122] Setting up loss_1
I0813 15:19:00.332491 40068 net.cpp:129] Top shape: (1)
I0813 15:19:00.332494 40068 net.cpp:132]     with loss weight 1
I0813 15:19:00.332510 40068 net.cpp:137] Memory required for data: 343065204
I0813 15:19:00.332515 40068 layer_factory.hpp:77] Creating layer latent_sigmoid_reshape
I0813 15:19:00.332525 40068 net.cpp:84] Creating Layer latent_sigmoid_reshape
I0813 15:19:00.332528 40068 net.cpp:406] latent_sigmoid_reshape <- latent_sigmoid_latent_sigmoid_0_split_2
I0813 15:19:00.332535 40068 net.cpp:380] latent_sigmoid_reshape -> latent_sigmoid_reshape
I0813 15:19:00.332566 40068 net.cpp:122] Setting up latent_sigmoid_reshape
I0813 15:19:00.332574 40068 net.cpp:129] Top shape: 50 1 1 48 (2400)
I0813 15:19:00.332577 40068 net.cpp:137] Memory required for data: 343074804
I0813 15:19:00.332581 40068 layer_factory.hpp:77] Creating layer latent_sigmoid_avg
I0813 15:19:00.332589 40068 net.cpp:84] Creating Layer latent_sigmoid_avg
I0813 15:19:00.332593 40068 net.cpp:406] latent_sigmoid_avg <- latent_sigmoid_reshape
I0813 15:19:00.332599 40068 net.cpp:380] latent_sigmoid_avg -> latent_sigmoid_avg
I0813 15:19:00.333380 40068 net.cpp:122] Setting up latent_sigmoid_avg
I0813 15:19:00.333395 40068 net.cpp:129] Top shape: 50 1 1 1 (50)
I0813 15:19:00.333420 40068 net.cpp:137] Memory required for data: 343075004
I0813 15:19:00.333425 40068 layer_factory.hpp:77] Creating layer latent_sigmoid_avg_latent_sigmoid_avg_0_split
I0813 15:19:00.333431 40068 net.cpp:84] Creating Layer latent_sigmoid_avg_latent_sigmoid_avg_0_split
I0813 15:19:00.333436 40068 net.cpp:406] latent_sigmoid_avg_latent_sigmoid_avg_0_split <- latent_sigmoid_avg
I0813 15:19:00.333441 40068 net.cpp:380] latent_sigmoid_avg_latent_sigmoid_avg_0_split -> latent_sigmoid_avg_latent_sigmoid_avg_0_split_0
I0813 15:19:00.333459 40068 net.cpp:380] latent_sigmoid_avg_latent_sigmoid_avg_0_split -> latent_sigmoid_avg_latent_sigmoid_avg_0_split_1
I0813 15:19:00.333515 40068 net.cpp:122] Setting up latent_sigmoid_avg_latent_sigmoid_avg_0_split
I0813 15:19:00.333521 40068 net.cpp:129] Top shape: 50 1 1 1 (50)
I0813 15:19:00.333525 40068 net.cpp:129] Top shape: 50 1 1 1 (50)
I0813 15:19:00.333528 40068 net.cpp:137] Memory required for data: 343075404
I0813 15:19:00.333531 40068 layer_factory.hpp:77] Creating layer loss_2
I0813 15:19:00.333539 40068 net.cpp:84] Creating Layer loss_2
I0813 15:19:00.333542 40068 net.cpp:406] loss_2 <- latent_sigmoid_avg_latent_sigmoid_avg_0_split_0
I0813 15:19:00.333546 40068 net.cpp:406] loss_2 <- latent_sigmoid_avg_latent_sigmoid_avg_0_split_1
I0813 15:19:00.333552 40068 net.cpp:380] loss_2 -> loss: 50%-fire-rate
I0813 15:19:00.333592 40068 net.cpp:122] Setting up loss_2
I0813 15:19:00.333597 40068 net.cpp:129] Top shape: (1)
I0813 15:19:00.333600 40068 net.cpp:132]     with loss weight 1
I0813 15:19:00.333606 40068 net.cpp:137] Memory required for data: 343075408
I0813 15:19:00.333609 40068 layer_factory.hpp:77] Creating layer fc9
I0813 15:19:00.333617 40068 net.cpp:84] Creating Layer fc9
I0813 15:19:00.333621 40068 net.cpp:406] fc9 <- latent_sigmoid_latent_sigmoid_0_split_3
I0813 15:19:00.333627 40068 net.cpp:380] fc9 -> fc9
I0813 15:19:00.333783 40068 net.cpp:122] Setting up fc9
I0813 15:19:00.333793 40068 net.cpp:129] Top shape: 50 5 (250)
I0813 15:19:00.333796 40068 net.cpp:137] Memory required for data: 343076408
I0813 15:19:00.333809 40068 layer_factory.hpp:77] Creating layer fc9_fc9_0_split
I0813 15:19:00.333822 40068 net.cpp:84] Creating Layer fc9_fc9_0_split
I0813 15:19:00.333825 40068 net.cpp:406] fc9_fc9_0_split <- fc9
I0813 15:19:00.333830 40068 net.cpp:380] fc9_fc9_0_split -> fc9_fc9_0_split_0
I0813 15:19:00.333837 40068 net.cpp:380] fc9_fc9_0_split -> fc9_fc9_0_split_1
I0813 15:19:00.333879 40068 net.cpp:122] Setting up fc9_fc9_0_split
I0813 15:19:00.333887 40068 net.cpp:129] Top shape: 50 5 (250)
I0813 15:19:00.333891 40068 net.cpp:129] Top shape: 50 5 (250)
I0813 15:19:00.333894 40068 net.cpp:137] Memory required for data: 343078408
I0813 15:19:00.333897 40068 layer_factory.hpp:77] Creating layer accuracy
I0813 15:19:00.333909 40068 net.cpp:84] Creating Layer accuracy
I0813 15:19:00.333914 40068 net.cpp:406] accuracy <- fc9_fc9_0_split_0
I0813 15:19:00.333917 40068 net.cpp:406] accuracy <- label_data_1_split_0
I0813 15:19:00.333922 40068 net.cpp:380] accuracy -> accuracy
…
