…
I0721 16:05:05.405066  7087 net.cpp:294] The NetState phase (0) differed from the phase (1) specified by a rule in layer accuracy
I0721 16:05:05.405304  7087 net.cpp:51] Initializing net from parameters: 
name: "SSDH"
state {
  phase: TRAIN
  level: 0
  stage: ""
}
layer {
  name: "data"
  type: "Data"
  top: "data"
  top: "label"
  include {
    phase: TRAIN
  }
  transform_param {
    mirror: true
    crop_size: 227
    mean_file: "./data/ilsvrc12/imagenet_mean.binaryproto"
  }
  data_param {
    source: "data/cifar10/cifar10_train_leveldb"
    batch_size: 32
  }
}
layer {
  name: "conv1"
  type: "Convolution"
  bottom: "data"
  top: "conv1"
  param {
    lr_mult: 1
    decay_mult: 1
  }
  param {
    lr_mult: 2
    decay_mult: 0
  }
  convolution_param {
    num_output: 96
    kernel_size: 11
    stride: 4
    weight_filler {
      type: "gaussian"
      std: 0.01
    }
    bias_filler {
      type: "constant"
      value: 0
    }
  }
}
layer {
  name: "relu1"
  type: "ReLU"
  bottom: "conv1"
  top: "conv1"
}
layer {
  name: "pool1"
  type: "Pooling"
  bottom: "conv1"
  top: "pool1"
  pooling_param {
    pool: MAX
    kernel_size: 3
    stride: 2
  }
}
layer {
  name: "norm1"
  type: "LRN"
  bottom: "pool1"
  top: "norm1"
  lrn_param {
    local_size: 5
    alpha: 0.0001
    beta: 0.75
  }
}
layer {
  name: "conv2"
  type: "Convolution"
  bottom: "norm1"
  top: "conv2"
  param {
    lr_mult: 1
    decay_mult: 1
  }
  param {
    lr_mult: 2
    decay_mult: 0
  }
  convolution_param {
    num_output: 256
    pad: 2
    kernel_size: 5
    group: 2
    weight_filler {
      type: "gaussian"
      std: 0.01
    }
    bias_filler {
      type: "constant"
      value: 1
    }
  }
}
layer {
  name: "relu2"
  type: "ReLU"
  bottom: "conv2"
  top: "conv2"
}
layer {
  name: "pool2"
  type: "Pooling"
  bottom: "conv2"
  top: "pool2"
  pooling_param {
    pool: MAX
    kernel_size: 3
    stride: 2
  }
}
layer {
  name: "norm2"
  type: "LRN"
  bottom: "pool2"
  top: "norm2"
  lrn_param {
    local_size: 5
    alpha: 0.0001
    beta: 0.75
  }
}
layer {
  name: "conv3"
  type: "Convolution"
  bottom: "norm2"
  top: "conv3"
  param {
    lr_mult: 1
    decay_mult: 1
  }
  param {
    lr_mult: 2
    decay_mult: 0
  }
  convolution_param {
    num_output: 384
    pad: 1
    kernel_size: 3
    weight_filler {
      type: "gaussian"
      std: 0.01
    }
    bias_filler {
      type: "constant"
      value: 0
    }
  }
}
layer {
  name: "relu3"
  type: "ReLU"
  bottom: "conv3"
  top: "conv3"
}
layer {
  name: "conv4"
  type: "Convolution"
  bottom: "conv3"
  top: "conv4"
  param {
    lr_mult: 1
    decay_mult: 1
  }
  param {
    lr_mult: 2
    decay_mult: 0
  }
  convolution_param {
    num_output: 384
    pad: 1
    kernel_size: 3
    group: 2
    weight_filler {
      type: "gaussian"
      std: 0.01
    }
    bias_filler {
      type: "constant"
      value: 1
    }
  }
}
layer {
  name: "relu4"
  type: "ReLU"
  bottom: "conv4"
  top: "conv4"
}
layer {
  name: "conv5"
  type: "Convolution"
  bottom: "conv4"
  top: "conv5"
  param {
    lr_mult: 1
    decay_mult: 1
  }
  param {
    lr_mult: 2
    decay_mult: 0
  }
  convolution_param {
    num_output: 256
    pad: 1
    kernel_size: 3
    group: 2
    weight_filler {
      type: "gaussian"
      std: 0.01
    }
    bias_filler {
      type: "constant"
      value: 1
    }
  }
}
layer {
  name: "relu5"
  type: "ReLU"
  bottom: "conv5"
  top: "conv5"
}
layer {
  name: "pool5"
  type: "Pooling"
  bottom: "conv5"
  top: "pool5"
  pooling_param {
    pool: MAX
    kernel_size: 3
    stride: 2
  }
}
layer {
  name: "fc6"
  type: "InnerProduct"
  bottom: "pool5"
  top: "fc6"
  param {
    lr_mult: 1
    decay_mult: 1
  }
  param {
    lr_mult: 2
    decay_mult: 0
  }
  inner_product_param {
    num_output: 4096
    weight_filler {
      type: "gaussian"
      std: 0.005
    }
    bias_filler {
      type: "constant"
      value: 1
    }
  }
}
layer {
  name: "relu6"
  type: "ReLU"
  bottom: "fc6"
  top: "fc6"
}
layer {
  name: "drop6"
  type: "Dropout"
  bottom: "fc6"
  top: "fc6"
  dropout_param {
    dropout_ratio: 0.5
  }
}
layer {
  name: "fc7"
  type: "InnerProduct"
  bottom: "fc6"
  top: "fc7"
  param {
    lr_mult: 1
    decay_mult: 1
  }
  param {
    lr_mult: 2
    decay_mult: 0
  }
  inner_product_param {
    num_output: 4096
    weight_filler {
      type: "gaussian"
      std: 0.005
    }
    bias_filler {
      type: "constant"
      value: 1
    }
  }
}
layer {
  name: "relu7"
  type: "ReLU"
  bottom: "fc7"
  top: "fc7"
}
layer {
  name: "drop7"
  type: "Dropout"
  bottom: "fc7"
  top: "fc7"
  dropout_param {
    dropout_ratio: 0.5
  }
}
layer {
  name: "latent"
  type: "InnerProduct"
  bottom: "fc7"
  top: "latent"
  param {
    lr_mult: 1
    decay_mult: 1
  }
  param {
    lr_mult: 2
    decay_mult: 0
  }
  inner_product_param {
    num_output: 48
    weight_filler {
      type: "gaussian"
      std: 0.01
    }
    bias_filler {
      type: "constant"
      value: 0
    }
  }
}
layer {
  name: "latent_sigmoid"
  type: "Sigmoid"
  bottom: "latent"
  top: "latent_sigmoid"
}
layer {
  name: "loss_1"
  type: "K1_EuclideanLoss"
  bottom: "latent_sigmoid"
  bottom: "latent_sigmoid"
  top: "loss: forcing-binary"
  loss_weight: 1
  propagate_down: true
  propagate_down: false
}
layer {
  name: "latent_sigmoid_reshape"
  type: "Reshape"
  bottom: "latent_sigmoid"
  top: "latent_sigmoid_reshape"
  reshape_param {
    shape {
      dim: 0
      dim: 1
      dim: 1
      dim: -1
    }
  }
}
layer {
  name: "latent_sigmoid_avg"
  type: "Pooling"
  bottom: "latent_sigmoid_reshape"
  top: "latent_sigmoid_avg"
  pooling_param {
    pool: AVE
    kernel_h: 1
    kernel_w: 48
  }
}
layer {
  name: "loss_2"
  type: "K2_EuclideanLoss"
  bottom: "latent_sigmoid_avg"
  bottom: "latent_sigmoid_avg"
  top: "loss: 50%-fire-rate"
  loss_weight: 1
  propagate_down: true
  propagate_down: false
}
layer {
  name: "fc9"
  type: "InnerProduct"
  bottom: "latent_sigmoid"
  top: "fc9"
  param {
    lr_mult: 10
    decay_mult: 1
  }
  param {
    lr_mult: 20
    decay_mult: 0
  }
  inner_product_param {
    num_output: 10
    weight_filler {
      type: "gaussian"
      std: 0.2
    }
    bias_filler {
      type: "constant"
      value: 0
    }
  }
}
layer {
  name: "loss"
  type: "SoftmaxWithLoss"
  bottom: "fc9"
  bottom: "label"
  top: "loss: classfication-error"
  loss_weight: 1
}
I0721 16:05:05.405529  7087 layer_factory.hpp:77] Creating layer data
I0721 16:05:05.484253  7087 db_leveldb.cpp:18] Opened leveldb data/cifar10/cifar10_train_leveldb
I0721 16:05:05.489030  7087 net.cpp:84] Creating Layer data
I0721 16:05:05.489089  7087 net.cpp:380] data -> data
I0721 16:05:05.489145  7087 net.cpp:380] data -> label
I0721 16:05:05.489197  7087 data_transformer.cpp:25] Loading mean file from: ./data/ilsvrc12/imagenet_mean.binaryproto
I0721 16:05:05.492925  7087 data_layer.cpp:45] output data size: 32,3,227,227
I0721 16:05:05.545171  7087 net.cpp:122] Setting up data
I0721 16:05:05.545359  7087 net.cpp:129] Top shape: 32 3 227 227 (4946784)
I0721 16:05:05.545400  7087 net.cpp:129] Top shape: 32 (32)
I0721 16:05:05.545409  7087 net.cpp:137] Memory required for data: 19787264
I0721 16:05:05.545426  7087 layer_factory.hpp:77] Creating layer conv1
I0721 16:05:05.545469  7087 net.cpp:84] Creating Layer conv1
I0721 16:05:05.545480  7087 net.cpp:406] conv1 <- data
I0721 16:05:05.545552  7087 net.cpp:380] conv1 -> conv1
I0721 16:05:05.831184  7087 net.cpp:122] Setting up conv1
I0721 16:05:05.831228  7087 net.cpp:129] Top shape: 32 96 55 55 (9292800)
I0721 16:05:05.831234  7087 net.cpp:137] Memory required for data: 56958464
I0721 16:05:05.831254  7087 layer_factory.hpp:77] Creating layer relu1
I0721 16:05:05.831275  7087 net.cpp:84] Creating Layer relu1
I0721 16:05:05.831281  7087 net.cpp:406] relu1 <- conv1
I0721 16:05:05.831295  7087 net.cpp:367] relu1 -> conv1 (in-place)
I0721 16:05:05.832106  7087 net.cpp:122] Setting up relu1
I0721 16:05:05.832124  7087 net.cpp:129] Top shape: 32 96 55 55 (9292800)
I0721 16:05:05.832129  7087 net.cpp:137] Memory required for data: 94129664
I0721 16:05:05.832134  7087 layer_factory.hpp:77] Creating layer pool1
I0721 16:05:05.832144  7087 net.cpp:84] Creating Layer pool1
I0721 16:05:05.832149  7087 net.cpp:406] pool1 <- conv1
I0721 16:05:05.832154  7087 net.cpp:380] pool1 -> pool1
I0721 16:05:05.832216  7087 net.cpp:122] Setting up pool1
I0721 16:05:05.832226  7087 net.cpp:129] Top shape: 32 96 27 27 (2239488)
I0721 16:05:05.832231  7087 net.cpp:137] Memory required for data: 103087616
I0721 16:05:05.832234  7087 layer_factory.hpp:77] Creating layer norm1
I0721 16:05:05.832247  7087 net.cpp:84] Creating Layer norm1
I0721 16:05:05.832252  7087 net.cpp:406] norm1 <- pool1
I0721 16:05:05.832257  7087 net.cpp:380] norm1 -> norm1
I0721 16:05:05.832494  7087 net.cpp:122] Setting up norm1
I0721 16:05:05.832509  7087 net.cpp:129] Top shape: 32 96 27 27 (2239488)
I0721 16:05:05.832514  7087 net.cpp:137] Memory required for data: 112045568
I0721 16:05:05.832517  7087 layer_factory.hpp:77] Creating layer conv2
I0721 16:05:05.832531  7087 net.cpp:84] Creating Layer conv2
I0721 16:05:05.832535  7087 net.cpp:406] conv2 <- norm1
I0721 16:05:05.832541  7087 net.cpp:380] conv2 -> conv2
I0721 16:05:05.847506  7087 net.cpp:122] Setting up conv2
I0721 16:05:05.847529  7087 net.cpp:129] Top shape: 32 256 27 27 (5971968)
I0721 16:05:05.847534  7087 net.cpp:137] Memory required for data: 135933440
I0721 16:05:05.847545  7087 layer_factory.hpp:77] Creating layer relu2
I0721 16:05:05.847556  7087 net.cpp:84] Creating Layer relu2
I0721 16:05:05.847560  7087 net.cpp:406] relu2 <- conv2
I0721 16:05:05.847566  7087 net.cpp:367] relu2 -> conv2 (in-place)
I0721 16:05:05.848392  7087 net.cpp:122] Setting up relu2
I0721 16:05:05.848408  7087 net.cpp:129] Top shape: 32 256 27 27 (5971968)
I0721 16:05:05.848412  7087 net.cpp:137] Memory required for data: 159821312
I0721 16:05:05.848417  7087 layer_factory.hpp:77] Creating layer pool2
I0721 16:05:05.848424  7087 net.cpp:84] Creating Layer pool2
I0721 16:05:05.848428  7087 net.cpp:406] pool2 <- conv2
I0721 16:05:05.848436  7087 net.cpp:380] pool2 -> pool2
I0721 16:05:05.848486  7087 net.cpp:122] Setting up pool2
I0721 16:05:05.848493  7087 net.cpp:129] Top shape: 32 256 13 13 (1384448)
I0721 16:05:05.848496  7087 net.cpp:137] Memory required for data: 165359104
I0721 16:05:05.848500  7087 layer_factory.hpp:77] Creating layer norm2
I0721 16:05:05.848510  7087 net.cpp:84] Creating Layer norm2
I0721 16:05:05.848515  7087 net.cpp:406] norm2 <- pool2
I0721 16:05:05.848521  7087 net.cpp:380] norm2 -> norm2
I0721 16:05:05.848758  7087 net.cpp:122] Setting up norm2
I0721 16:05:05.848773  7087 net.cpp:129] Top shape: 32 256 13 13 (1384448)
I0721 16:05:05.848776  7087 net.cpp:137] Memory required for data: 170896896
I0721 16:05:05.848780  7087 layer_factory.hpp:77] Creating layer conv3
I0721 16:05:05.848793  7087 net.cpp:84] Creating Layer conv3
I0721 16:05:05.848798  7087 net.cpp:406] conv3 <- norm2
I0721 16:05:05.848806  7087 net.cpp:380] conv3 -> conv3
I0721 16:05:05.881278  7087 net.cpp:122] Setting up conv3
I0721 16:05:05.881307  7087 net.cpp:129] Top shape: 32 384 13 13 (2076672)
I0721 16:05:05.881312  7087 net.cpp:137] Memory required for data: 179203584
I0721 16:05:05.881325  7087 layer_factory.hpp:77] Creating layer relu3
I0721 16:05:05.881337  7087 net.cpp:84] Creating Layer relu3
I0721 16:05:05.881341  7087 net.cpp:406] relu3 <- conv3
I0721 16:05:05.881371  7087 net.cpp:367] relu3 -> conv3 (in-place)
I0721 16:05:05.881598  7087 net.cpp:122] Setting up relu3
I0721 16:05:05.881613  7087 net.cpp:129] Top shape: 32 384 13 13 (2076672)
I0721 16:05:05.881616  7087 net.cpp:137] Memory required for data: 187510272
I0721 16:05:05.881620  7087 layer_factory.hpp:77] Creating layer conv4
I0721 16:05:05.881633  7087 net.cpp:84] Creating Layer conv4
I0721 16:05:05.881639  7087 net.cpp:406] conv4 <- conv3
I0721 16:05:05.881647  7087 net.cpp:380] conv4 -> conv4
I0721 16:05:05.908423  7087 net.cpp:122] Setting up conv4
I0721 16:05:05.908458  7087 net.cpp:129] Top shape: 32 384 13 13 (2076672)
I0721 16:05:05.908463  7087 net.cpp:137] Memory required for data: 195816960
I0721 16:05:05.908471  7087 layer_factory.hpp:77] Creating layer relu4
I0721 16:05:05.908480  7087 net.cpp:84] Creating Layer relu4
I0721 16:05:05.908485  7087 net.cpp:406] relu4 <- conv4
I0721 16:05:05.908491  7087 net.cpp:367] relu4 -> conv4 (in-place)
I0721 16:05:05.909329  7087 net.cpp:122] Setting up relu4
I0721 16:05:05.909346  7087 net.cpp:129] Top shape: 32 384 13 13 (2076672)
I0721 16:05:05.909350  7087 net.cpp:137] Memory required for data: 204123648
I0721 16:05:05.909354  7087 layer_factory.hpp:77] Creating layer conv5
I0721 16:05:05.909370  7087 net.cpp:84] Creating Layer conv5
I0721 16:05:05.909375  7087 net.cpp:406] conv5 <- conv4
I0721 16:05:05.909382  7087 net.cpp:380] conv5 -> conv5
I0721 16:05:05.928829  7087 net.cpp:122] Setting up conv5
I0721 16:05:05.928858  7087 net.cpp:129] Top shape: 32 256 13 13 (1384448)
I0721 16:05:05.928864  7087 net.cpp:137] Memory required for data: 209661440
I0721 16:05:05.928875  7087 layer_factory.hpp:77] Creating layer relu5
I0721 16:05:05.928884  7087 net.cpp:84] Creating Layer relu5
I0721 16:05:05.928889  7087 net.cpp:406] relu5 <- conv5
I0721 16:05:05.928894  7087 net.cpp:367] relu5 -> conv5 (in-place)
I0721 16:05:05.929721  7087 net.cpp:122] Setting up relu5
I0721 16:05:05.929738  7087 net.cpp:129] Top shape: 32 256 13 13 (1384448)
I0721 16:05:05.929749  7087 net.cpp:137] Memory required for data: 215199232
I0721 16:05:05.929754  7087 layer_factory.hpp:77] Creating layer pool5
I0721 16:05:05.929764  7087 net.cpp:84] Creating Layer pool5
I0721 16:05:05.929769  7087 net.cpp:406] pool5 <- conv5
I0721 16:05:05.929776  7087 net.cpp:380] pool5 -> pool5
I0721 16:05:05.929832  7087 net.cpp:122] Setting up pool5
I0721 16:05:05.929839  7087 net.cpp:129] Top shape: 32 256 6 6 (294912)
I0721 16:05:05.929842  7087 net.cpp:137] Memory required for data: 216378880
I0721 16:05:05.929847  7087 layer_factory.hpp:77] Creating layer fc6
I0721 16:05:05.929863  7087 net.cpp:84] Creating Layer fc6
I0721 16:05:05.929868  7087 net.cpp:406] fc6 <- pool5
I0721 16:05:05.929875  7087 net.cpp:380] fc6 -> fc6
I0721 16:05:07.082023  7087 net.cpp:122] Setting up fc6
I0721 16:05:07.082098  7087 net.cpp:129] Top shape: 32 4096 (131072)
I0721 16:05:07.082104  7087 net.cpp:137] Memory required for data: 216903168
I0721 16:05:07.082129  7087 layer_factory.hpp:77] Creating layer relu6
I0721 16:05:07.082171  7087 net.cpp:84] Creating Layer relu6
I0721 16:05:07.082180  7087 net.cpp:406] relu6 <- fc6
I0721 16:05:07.082190  7087 net.cpp:367] relu6 -> fc6 (in-place)
I0721 16:05:07.083053  7087 net.cpp:122] Setting up relu6
I0721 16:05:07.083070  7087 net.cpp:129] Top shape: 32 4096 (131072)
I0721 16:05:07.083073  7087 net.cpp:137] Memory required for data: 217427456
I0721 16:05:07.083077  7087 layer_factory.hpp:77] Creating layer drop6
I0721 16:05:07.083096  7087 net.cpp:84] Creating Layer drop6
I0721 16:05:07.083099  7087 net.cpp:406] drop6 <- fc6
I0721 16:05:07.083106  7087 net.cpp:367] drop6 -> fc6 (in-place)
I0721 16:05:07.083158  7087 net.cpp:122] Setting up drop6
I0721 16:05:07.083168  7087 net.cpp:129] Top shape: 32 4096 (131072)
I0721 16:05:07.083173  7087 net.cpp:137] Memory required for data: 217951744
I0721 16:05:07.083175  7087 layer_factory.hpp:77] Creating layer fc7
I0721 16:05:07.083184  7087 net.cpp:84] Creating Layer fc7
I0721 16:05:07.083189  7087 net.cpp:406] fc7 <- fc6
I0721 16:05:07.083222  7087 net.cpp:380] fc7 -> fc7
I0721 16:05:07.585991  7087 net.cpp:122] Setting up fc7
I0721 16:05:07.586031  7087 net.cpp:129] Top shape: 32 4096 (131072)
I0721 16:05:07.586036  7087 net.cpp:137] Memory required for data: 218476032
I0721 16:05:07.586050  7087 layer_factory.hpp:77] Creating layer relu7
I0721 16:05:07.586064  7087 net.cpp:84] Creating Layer relu7
I0721 16:05:07.586071  7087 net.cpp:406] relu7 <- fc7
I0721 16:05:07.586081  7087 net.cpp:367] relu7 -> fc7 (in-place)
I0721 16:05:07.587224  7087 net.cpp:122] Setting up relu7
I0721 16:05:07.587240  7087 net.cpp:129] Top shape: 32 4096 (131072)
I0721 16:05:07.587244  7087 net.cpp:137] Memory required for data: 219000320
I0721 16:05:07.587249  7087 layer_factory.hpp:77] Creating layer drop7
I0721 16:05:07.587258  7087 net.cpp:84] Creating Layer drop7
I0721 16:05:07.587262  7087 net.cpp:406] drop7 <- fc7
I0721 16:05:07.587270  7087 net.cpp:367] drop7 -> fc7 (in-place)
I0721 16:05:07.587311  7087 net.cpp:122] Setting up drop7
I0721 16:05:07.587321  7087 net.cpp:129] Top shape: 32 4096 (131072)
I0721 16:05:07.587324  7087 net.cpp:137] Memory required for data: 219524608
I0721 16:05:07.587328  7087 layer_factory.hpp:77] Creating layer latent
I0721 16:05:07.587350  7087 net.cpp:84] Creating Layer latent
I0721 16:05:07.587357  7087 net.cpp:406] latent <- fc7
I0721 16:05:07.587364  7087 net.cpp:380] latent -> latent
I0721 16:05:07.594821  7087 net.cpp:122] Setting up latent
I0721 16:05:07.594838  7087 net.cpp:129] Top shape: 32 48 (1536)
I0721 16:05:07.594843  7087 net.cpp:137] Memory required for data: 219530752
I0721 16:05:07.594852  7087 layer_factory.hpp:77] Creating layer latent_sigmoid
I0721 16:05:07.594861  7087 net.cpp:84] Creating Layer latent_sigmoid
I0721 16:05:07.594866  7087 net.cpp:406] latent_sigmoid <- latent
I0721 16:05:07.594872  7087 net.cpp:380] latent_sigmoid -> latent_sigmoid
I0721 16:05:07.595126  7087 net.cpp:122] Setting up latent_sigmoid
I0721 16:05:07.595140  7087 net.cpp:129] Top shape: 32 48 (1536)
I0721 16:05:07.595144  7087 net.cpp:137] Memory required for data: 219536896
I0721 16:05:07.595149  7087 layer_factory.hpp:77] Creating layer latent_sigmoid_latent_sigmoid_0_split
I0721 16:05:07.595160  7087 net.cpp:84] Creating Layer latent_sigmoid_latent_sigmoid_0_split
I0721 16:05:07.595165  7087 net.cpp:406] latent_sigmoid_latent_sigmoid_0_split <- latent_sigmoid
I0721 16:05:07.595171  7087 net.cpp:380] latent_sigmoid_latent_sigmoid_0_split -> latent_sigmoid_latent_sigmoid_0_split_0
I0721 16:05:07.595198  7087 net.cpp:380] latent_sigmoid_latent_sigmoid_0_split -> latent_sigmoid_latent_sigmoid_0_split_1
I0721 16:05:07.595207  7087 net.cpp:380] latent_sigmoid_latent_sigmoid_0_split -> latent_sigmoid_latent_sigmoid_0_split_2
I0721 16:05:07.595214  7087 net.cpp:380] latent_sigmoid_latent_sigmoid_0_split -> latent_sigmoid_latent_sigmoid_0_split_3
I0721 16:05:07.595289  7087 net.cpp:122] Setting up latent_sigmoid_latent_sigmoid_0_split
I0721 16:05:07.595299  7087 net.cpp:129] Top shape: 32 48 (1536)
I0721 16:05:07.595302  7087 net.cpp:129] Top shape: 32 48 (1536)
I0721 16:05:07.595307  7087 net.cpp:129] Top shape: 32 48 (1536)
I0721 16:05:07.595311  7087 net.cpp:129] Top shape: 32 48 (1536)
I0721 16:05:07.595314  7087 net.cpp:137] Memory required for data: 219561472
I0721 16:05:07.595317  7087 layer_factory.hpp:77] Creating layer loss_1
I0721 16:05:07.595326  7087 net.cpp:84] Creating Layer loss_1
I0721 16:05:07.595330  7087 net.cpp:406] loss_1 <- latent_sigmoid_latent_sigmoid_0_split_0
I0721 16:05:07.595336  7087 net.cpp:406] loss_1 <- latent_sigmoid_latent_sigmoid_0_split_1
I0721 16:05:07.595341  7087 net.cpp:380] loss_1 -> loss: forcing-binary
I0721 16:05:07.595402  7087 net.cpp:122] Setting up loss_1
I0721 16:05:07.595412  7087 net.cpp:129] Top shape: (1)
I0721 16:05:07.595415  7087 net.cpp:132]     with loss weight 1
I0721 16:05:07.595463  7087 net.cpp:137] Memory required for data: 219561476
I0721 16:05:07.595468  7087 layer_factory.hpp:77] Creating layer latent_sigmoid_reshape
I0721 16:05:07.595490  7087 net.cpp:84] Creating Layer latent_sigmoid_reshape
I0721 16:05:07.595520  7087 net.cpp:406] latent_sigmoid_reshape <- latent_sigmoid_latent_sigmoid_0_split_2
I0721 16:05:07.595530  7087 net.cpp:380] latent_sigmoid_reshape -> latent_sigmoid_reshape
I0721 16:05:07.595574  7087 net.cpp:122] Setting up latent_sigmoid_reshape
I0721 16:05:07.595583  7087 net.cpp:129] Top shape: 32 1 1 48 (1536)
I0721 16:05:07.595588  7087 net.cpp:137] Memory required for data: 219567620
I0721 16:05:07.595592  7087 layer_factory.hpp:77] Creating layer latent_sigmoid_avg
I0721 16:05:07.595599  7087 net.cpp:84] Creating Layer latent_sigmoid_avg
I0721 16:05:07.595603  7087 net.cpp:406] latent_sigmoid_avg <- latent_sigmoid_reshape
I0721 16:05:07.595612  7087 net.cpp:380] latent_sigmoid_avg -> latent_sigmoid_avg
I0721 16:05:07.596503  7087 net.cpp:122] Setting up latent_sigmoid_avg
I0721 16:05:07.596519  7087 net.cpp:129] Top shape: 32 1 1 1 (32)
I0721 16:05:07.596524  7087 net.cpp:137] Memory required for data: 219567748
I0721 16:05:07.596527  7087 layer_factory.hpp:77] Creating layer latent_sigmoid_avg_latent_sigmoid_avg_0_split
I0721 16:05:07.596534  7087 net.cpp:84] Creating Layer latent_sigmoid_avg_latent_sigmoid_avg_0_split
I0721 16:05:07.596539  7087 net.cpp:406] latent_sigmoid_avg_latent_sigmoid_avg_0_split <- latent_sigmoid_avg
I0721 16:05:07.596546  7087 net.cpp:380] latent_sigmoid_avg_latent_sigmoid_avg_0_split -> latent_sigmoid_avg_latent_sigmoid_avg_0_split_0
I0721 16:05:07.596554  7087 net.cpp:380] latent_sigmoid_avg_latent_sigmoid_avg_0_split -> latent_sigmoid_avg_latent_sigmoid_avg_0_split_1
I0721 16:05:07.596604  7087 net.cpp:122] Setting up latent_sigmoid_avg_latent_sigmoid_avg_0_split
I0721 16:05:07.596613  7087 net.cpp:129] Top shape: 32 1 1 1 (32)
I0721 16:05:07.596618  7087 net.cpp:129] Top shape: 32 1 1 1 (32)
I0721 16:05:07.596621  7087 net.cpp:137] Memory required for data: 219568004
I0721 16:05:07.596626  7087 layer_factory.hpp:77] Creating layer loss_2
I0721 16:05:07.596633  7087 net.cpp:84] Creating Layer loss_2
I0721 16:05:07.596638  7087 net.cpp:406] loss_2 <- latent_sigmoid_avg_latent_sigmoid_avg_0_split_0
I0721 16:05:07.596642  7087 net.cpp:406] loss_2 <- latent_sigmoid_avg_latent_sigmoid_avg_0_split_1
I0721 16:05:07.596650  7087 net.cpp:380] loss_2 -> loss: 50%-fire-rate
I0721 16:05:07.596691  7087 net.cpp:122] Setting up loss_2
I0721 16:05:07.596699  7087 net.cpp:129] Top shape: (1)
I0721 16:05:07.596702  7087 net.cpp:132]     with loss weight 1
I0721 16:05:07.596709  7087 net.cpp:137] Memory required for data: 219568008
I0721 16:05:07.596714  7087 layer_factory.hpp:77] Creating layer fc9
I0721 16:05:07.596731  7087 net.cpp:84] Creating Layer fc9
I0721 16:05:07.596736  7087 net.cpp:406] fc9 <- latent_sigmoid_latent_sigmoid_0_split_3
I0721 16:05:07.596742  7087 net.cpp:380] fc9 -> fc9
I0721 16:05:07.596930  7087 net.cpp:122] Setting up fc9
I0721 16:05:07.596940  7087 net.cpp:129] Top shape: 32 10 (320)
I0721 16:05:07.596942  7087 net.cpp:137] Memory required for data: 219569288
I0721 16:05:07.596957  7087 layer_factory.hpp:77] Creating layer loss
I0721 16:05:07.596967  7087 net.cpp:84] Creating Layer loss
I0721 16:05:07.596971  7087 net.cpp:406] loss <- fc9
I0721 16:05:07.596976  7087 net.cpp:406] loss <- label
I0721 16:05:07.596982  7087 net.cpp:380] loss -> loss: classfication-error
…
I0721 16:05:08.339004  7087 solver.cpp:190] Creating test net (#0) specified by net file: examples/cifar10/train_val_cifar10.prototxt
I0721 16:05:08.339068  7087 net.cpp:294] The NetState phase (1) differed from the phase (0) specified by a rule in layer data
I0721 16:05:08.339279  7087 net.cpp:51] Initializing net from parameters: 
name: "SSDH"
state {
  phase: TEST
}
layer {
  name: "data"
  type: "Data"
  top: "data"
  top: "label"
  include {
    phase: TEST
  }
  transform_param {
    mirror: false
    crop_size: 227
    mean_file: "./data/ilsvrc12/imagenet_mean.binaryproto"
  }
  data_param {
    source: "data/cifar10/cifar10_val_leveldb"
    batch_size: 50
  }
}
layer {
  name: "conv1"
  type: "Convolution"
  bottom: "data"
  top: "conv1"
  param {
    lr_mult: 1
    decay_mult: 1
  }
  param {
    lr_mult: 2
    decay_mult: 0
  }
  convolution_param {
    num_output: 96
    kernel_size: 11
    stride: 4
    weight_filler {
      type: "gaussian"
      std: 0.01
    }
    bias_filler {
      type: "constant"
      value: 0
    }
  }
}
layer {
  name: "relu1"
  type: "ReLU"
  bottom: "conv1"
  top: "conv1"
}
layer {
  name: "pool1"
  type: "Pooling"
  bottom: "conv1"
  top: "pool1"
  pooling_param {
    pool: MAX
    kernel_size: 3
    stride: 2
  }
}
layer {
  name: "norm1"
  type: "LRN"
  bottom: "pool1"
  top: "norm1"
  lrn_param {
    local_size: 5
    alpha: 0.0001
    beta: 0.75
  }
}
layer {
  name: "conv2"
  type: "Convolution"
  bottom: "norm1"
  top: "conv2"
  param {
    lr_mult: 1
    decay_mult: 1
  }
  param {
    lr_mult: 2
    decay_mult: 0
  }
  convolution_param {
    num_output: 256
    pad: 2
    kernel_size: 5
    group: 2
    weight_filler {
      type: "gaussian"
      std: 0.01
    }
    bias_filler {
      type: "constant"
      value: 1
    }
  }
}
layer {
  name: "relu2"
  type: "ReLU"
  bottom: "conv2"
  top: "conv2"
}
layer {
  name: "pool2"
  type: "Pooling"
  bottom: "conv2"
  top: "pool2"
  pooling_param {
    pool: MAX
    kernel_size: 3
    stride: 2
  }
}
layer {
  name: "norm2"
  type: "LRN"
  bottom: "pool2"
  top: "norm2"
  lrn_param {
    local_size: 5
    alpha: 0.0001
    beta: 0.75
  }
}
layer {
  name: "conv3"
  type: "Convolution"
  bottom: "norm2"
  top: "conv3"
  param {
    lr_mult: 1
    decay_mult: 1
  }
  param {
    lr_mult: 2
    decay_mult: 0
  }
  convolution_param {
    num_output: 384
    pad: 1
    kernel_size: 3
    weight_filler {
      type: "gaussian"
      std: 0.01
    }
    bias_filler {
      type: "constant"
      value: 0
    }
  }
}
layer {
  name: "relu3"
  type: "ReLU"
  bottom: "conv3"
  top: "conv3"
}
layer {
  name: "conv4"
  type: "Convolution"
  bottom: "conv3"
  top: "conv4"
  param {
    lr_mult: 1
    decay_mult: 1
  }
  param {
    lr_mult: 2
    decay_mult: 0
  }
  convolution_param {
    num_output: 384
    pad: 1
    kernel_size: 3
    group: 2
    weight_filler {
      type: "gaussian"
      std: 0.01
    }
    bias_filler {
      type: "constant"
      value: 1
    }
  }
}
layer {
  name: "relu4"
  type: "ReLU"
  bottom: "conv4"
  top: "conv4"
}
layer {
  name: "conv5"
  type: "Convolution"
  bottom: "conv4"
  top: "conv5"
  param {
    lr_mult: 1
    decay_mult: 1
  }
  param {
    lr_mult: 2
    decay_mult: 0
  }
  convolution_param {
    num_output: 256
    pad: 1
    kernel_size: 3
    group: 2
    weight_filler {
      type: "gaussian"
      std: 0.01
    }
    bias_filler {
      type: "constant"
      value: 1
    }
  }
}
layer {
  name: "relu5"
  type: "ReLU"
  bottom: "conv5"
  top: "conv5"
}
layer {
  name: "pool5"
  type: "Pooling"
  bottom: "conv5"
  top: "pool5"
  pooling_param {
    pool: MAX
    kernel_size: 3
    stride: 2
  }
}
layer {
  name: "fc6"
  type: "InnerProduct"
  bottom: "pool5"
  top: "fc6"
  param {
    lr_mult: 1
    decay_mult: 1
  }
  param {
    lr_mult: 2
    decay_mult: 0
  }
  inner_product_param {
    num_output: 4096
    weight_filler {
      type: "gaussian"
      std: 0.005
    }
    bias_filler {
      type: "constant"
      value: 1
    }
  }
}
layer {
  name: "relu6"
  type: "ReLU"
  bottom: "fc6"
  top: "fc6"
}
layer {
  name: "drop6"
  type: "Dropout"
  bottom: "fc6"
  top: "fc6"
  dropout_param {
    dropout_ratio: 0.5
  }
}
layer {
  name: "fc7"
  type: "InnerProduct"
  bottom: "fc6"
  top: "fc7"
  param {
    lr_mult: 1
    decay_mult: 1
  }
  param {
    lr_mult: 2
    decay_mult: 0
  }
  inner_product_param {
    num_output: 4096
    weight_filler {
      type: "gaussian"
      std: 0.005
    }
    bias_filler {
      type: "constant"
      value: 1
    }
  }
}
layer {
  name: "relu7"
  type: "ReLU"
  bottom: "fc7"
  top: "fc7"
}
layer {
  name: "drop7"
  type: "Dropout"
  bottom: "fc7"
  top: "fc7"
  dropout_param {
    dropout_ratio: 0.5
  }
}
layer {
  name: "latent"
  type: "InnerProduct"
  bottom: "fc7"
  top: "latent"
  param {
    lr_mult: 1
    decay_mult: 1
  }
  param {
    lr_mult: 2
    decay_mult: 0
  }
  inner_product_param {
    num_output: 48
    weight_filler {
      type: "gaussian"
      std: 0.01
    }
    bias_filler {
      type: "constant"
      value: 0
    }
  }
}
layer {
  name: "latent_sigmoid"
  type: "Sigmoid"
  bottom: "latent"
  top: "latent_sigmoid"
}
layer {
  name: "loss_1"
  type: "K1_EuclideanLoss"
  bottom: "latent_sigmoid"
  bottom: "latent_sigmoid"
  top: "loss: forcing-binary"
  loss_weight: 1
  propagate_down: true
  propagate_down: false
}
layer {
  name: "latent_sigmoid_reshape"
  type: "Reshape"
  bottom: "latent_sigmoid"
  top: "latent_sigmoid_reshape"
  reshape_param {
    shape {
      dim: 0
      dim: 1
      dim: 1
      dim: -1
    }
  }
}
layer {
  name: "latent_sigmoid_avg"
  type: "Pooling"
  bottom: "latent_sigmoid_reshape"
  top: "latent_sigmoid_avg"
  pooling_param {
    pool: AVE
    kernel_h: 1
    kernel_w: 48
  }
}
layer {
  name: "loss_2"
  type: "K2_EuclideanLoss"
  bottom: "latent_sigmoid_avg"
  bottom: "latent_sigmoid_avg"
  top: "loss: 50%-fire-rate"
  loss_weight: 1
  propagate_down: true
  propagate_down: false
}
layer {
  name: "fc9"
  type: "InnerProduct"
  bottom: "latent_sigmoid"
  top: "fc9"
  param {
    lr_mult: 10
    decay_mult: 1
  }
  param {
    lr_mult: 20
    decay_mult: 0
  }
  inner_product_param {
    num_output: 10
    weight_filler {
      type: "gaussian"
      std: 0.2
    }
    bias_filler {
      type: "constant"
      value: 0
    }
  }
}
layer {
  name: "accuracy"
  type: "Accuracy"
  bottom: "fc9"
  bottom: "label"
  top: "accuracy"
  include {
    phase: TEST
  }
}
layer {
  name: "loss"
  type: "SoftmaxWithLoss"
  bottom: "fc9"
  bottom: "label"
  top: "loss: classfication-error"
  loss_weight: 1
}
I0721 16:05:08.339458  7087 layer_factory.hpp:77] Creating layer data
I0721 16:05:08.408875  7087 db_leveldb.cpp:18] Opened leveldb data/cifar10/cifar10_val_leveldb
I0721 16:05:08.412575  7087 net.cpp:84] Creating Layer data
I0721 16:05:08.412648  7087 net.cpp:380] data -> data
I0721 16:05:08.412674  7087 net.cpp:380] data -> label
I0721 16:05:08.412691  7087 data_transformer.cpp:25] Loading mean file from: ./data/ilsvrc12/imagenet_mean.binaryproto
I0721 16:05:08.417738  7087 data_layer.cpp:45] output data size: 50,3,227,227
I0721 16:05:08.498098  7087 net.cpp:122] Setting up data
I0721 16:05:08.498142  7087 net.cpp:129] Top shape: 50 3 227 227 (7729350)
I0721 16:05:08.498149  7087 net.cpp:129] Top shape: 50 (50)
I0721 16:05:08.498153  7087 net.cpp:137] Memory required for data: 30917600
I0721 16:05:08.498160  7087 layer_factory.hpp:77] Creating layer label_data_1_split
I0721 16:05:08.498188  7087 net.cpp:84] Creating Layer label_data_1_split
I0721 16:05:08.498194  7087 net.cpp:406] label_data_1_split <- label
I0721 16:05:08.498203  7087 net.cpp:380] label_data_1_split -> label_data_1_split_0
I0721 16:05:08.498215  7087 net.cpp:380] label_data_1_split -> label_data_1_split_1
I0721 16:05:08.498708  7087 net.cpp:122] Setting up label_data_1_split
I0721 16:05:08.498760  7087 net.cpp:129] Top shape: 50 (50)
I0721 16:05:08.498771  7087 net.cpp:129] Top shape: 50 (50)
I0721 16:05:08.498778  7087 net.cpp:137] Memory required for data: 30918000
I0721 16:05:08.498795  7087 layer_factory.hpp:77] Creating layer conv1
I0721 16:05:08.498832  7087 net.cpp:84] Creating Layer conv1
I0721 16:05:08.498844  7087 net.cpp:406] conv1 <- data
I0721 16:05:08.498859  7087 net.cpp:380] conv1 -> conv1
I0721 16:05:08.507489  7087 net.cpp:122] Setting up conv1
I0721 16:05:08.507527  7087 net.cpp:129] Top shape: 50 96 55 55 (14520000)
I0721 16:05:08.507544  7087 net.cpp:137] Memory required for data: 88998000
I0721 16:05:08.507570  7087 layer_factory.hpp:77] Creating layer relu1
I0721 16:05:08.507592  7087 net.cpp:84] Creating Layer relu1
I0721 16:05:08.507601  7087 net.cpp:406] relu1 <- conv1
I0721 16:05:08.507611  7087 net.cpp:367] relu1 -> conv1 (in-place)
I0721 16:05:08.509130  7087 net.cpp:122] Setting up relu1
I0721 16:05:08.509161  7087 net.cpp:129] Top shape: 50 96 55 55 (14520000)
I0721 16:05:08.509168  7087 net.cpp:137] Memory required for data: 147078000
I0721 16:05:08.509176  7087 layer_factory.hpp:77] Creating layer pool1
I0721 16:05:08.509194  7087 net.cpp:84] Creating Layer pool1
I0721 16:05:08.509212  7087 net.cpp:406] pool1 <- conv1
I0721 16:05:08.509236  7087 net.cpp:380] pool1 -> pool1
I0721 16:05:08.509341  7087 net.cpp:122] Setting up pool1
I0721 16:05:08.509358  7087 net.cpp:129] Top shape: 50 96 27 27 (3499200)
I0721 16:05:08.509364  7087 net.cpp:137] Memory required for data: 161074800
I0721 16:05:08.509371  7087 layer_factory.hpp:77] Creating layer norm1
I0721 16:05:08.509384  7087 net.cpp:84] Creating Layer norm1
I0721 16:05:08.509392  7087 net.cpp:406] norm1 <- pool1
I0721 16:05:08.509402  7087 net.cpp:380] norm1 -> norm1
I0721 16:05:08.509856  7087 net.cpp:122] Setting up norm1
I0721 16:05:08.509877  7087 net.cpp:129] Top shape: 50 96 27 27 (3499200)
I0721 16:05:08.509884  7087 net.cpp:137] Memory required for data: 175071600
I0721 16:05:08.509892  7087 layer_factory.hpp:77] Creating layer conv2
I0721 16:05:08.509912  7087 net.cpp:84] Creating Layer conv2
I0721 16:05:08.509918  7087 net.cpp:406] conv2 <- norm1
I0721 16:05:08.509932  7087 net.cpp:380] conv2 -> conv2
I0721 16:05:08.527886  7087 net.cpp:122] Setting up conv2
I0721 16:05:08.527926  7087 net.cpp:129] Top shape: 50 256 27 27 (9331200)
I0721 16:05:08.527930  7087 net.cpp:137] Memory required for data: 212396400
I0721 16:05:08.527945  7087 layer_factory.hpp:77] Creating layer relu2
I0721 16:05:08.527956  7087 net.cpp:84] Creating Layer relu2
I0721 16:05:08.527959  7087 net.cpp:406] relu2 <- conv2
I0721 16:05:08.527966  7087 net.cpp:367] relu2 -> conv2 (in-place)
I0721 16:05:08.528252  7087 net.cpp:122] Setting up relu2
I0721 16:05:08.528265  7087 net.cpp:129] Top shape: 50 256 27 27 (9331200)
I0721 16:05:08.528270  7087 net.cpp:137] Memory required for data: 249721200
I0721 16:05:08.528272  7087 layer_factory.hpp:77] Creating layer pool2
I0721 16:05:08.528283  7087 net.cpp:84] Creating Layer pool2
I0721 16:05:08.528287  7087 net.cpp:406] pool2 <- conv2
I0721 16:05:08.528293  7087 net.cpp:380] pool2 -> pool2
I0721 16:05:08.528347  7087 net.cpp:122] Setting up pool2
I0721 16:05:08.528364  7087 net.cpp:129] Top shape: 50 256 13 13 (2163200)
I0721 16:05:08.528367  7087 net.cpp:137] Memory required for data: 258374000
I0721 16:05:08.528370  7087 layer_factory.hpp:77] Creating layer norm2
I0721 16:05:08.528378  7087 net.cpp:84] Creating Layer norm2
I0721 16:05:08.528383  7087 net.cpp:406] norm2 <- pool2
I0721 16:05:08.528388  7087 net.cpp:380] norm2 -> norm2
I0721 16:05:08.529172  7087 net.cpp:122] Setting up norm2
I0721 16:05:08.529187  7087 net.cpp:129] Top shape: 50 256 13 13 (2163200)
I0721 16:05:08.529203  7087 net.cpp:137] Memory required for data: 267026800
I0721 16:05:08.529206  7087 layer_factory.hpp:77] Creating layer conv3
I0721 16:05:08.529228  7087 net.cpp:84] Creating Layer conv3
I0721 16:05:08.529232  7087 net.cpp:406] conv3 <- norm2
I0721 16:05:08.529239  7087 net.cpp:380] conv3 -> conv3
I0721 16:05:08.562513  7087 net.cpp:122] Setting up conv3
I0721 16:05:08.562547  7087 net.cpp:129] Top shape: 50 384 13 13 (3244800)
I0721 16:05:08.562554  7087 net.cpp:137] Memory required for data: 280006000
I0721 16:05:08.562572  7087 layer_factory.hpp:77] Creating layer relu3
I0721 16:05:08.562585  7087 net.cpp:84] Creating Layer relu3
I0721 16:05:08.562592  7087 net.cpp:406] relu3 <- conv3
I0721 16:05:08.562602  7087 net.cpp:367] relu3 -> conv3 (in-place)
I0721 16:05:08.562876  7087 net.cpp:122] Setting up relu3
I0721 16:05:08.562892  7087 net.cpp:129] Top shape: 50 384 13 13 (3244800)
I0721 16:05:08.562897  7087 net.cpp:137] Memory required for data: 292985200
I0721 16:05:08.562902  7087 layer_factory.hpp:77] Creating layer conv4
I0721 16:05:08.562917  7087 net.cpp:84] Creating Layer conv4
I0721 16:05:08.562922  7087 net.cpp:406] conv4 <- conv3
I0721 16:05:08.562930  7087 net.cpp:380] conv4 -> conv4
I0721 16:05:08.591291  7087 net.cpp:122] Setting up conv4
I0721 16:05:08.591322  7087 net.cpp:129] Top shape: 50 384 13 13 (3244800)
I0721 16:05:08.591326  7087 net.cpp:137] Memory required for data: 305964400
I0721 16:05:08.591337  7087 layer_factory.hpp:77] Creating layer relu4
I0721 16:05:08.591351  7087 net.cpp:84] Creating Layer relu4
I0721 16:05:08.591362  7087 net.cpp:406] relu4 <- conv4
I0721 16:05:08.591370  7087 net.cpp:367] relu4 -> conv4 (in-place)
I0721 16:05:08.591579  7087 net.cpp:122] Setting up relu4
I0721 16:05:08.591593  7087 net.cpp:129] Top shape: 50 384 13 13 (3244800)
I0721 16:05:08.591596  7087 net.cpp:137] Memory required for data: 318943600
I0721 16:05:08.591600  7087 layer_factory.hpp:77] Creating layer conv5
I0721 16:05:08.591614  7087 net.cpp:84] Creating Layer conv5
I0721 16:05:08.591619  7087 net.cpp:406] conv5 <- conv4
I0721 16:05:08.591626  7087 net.cpp:380] conv5 -> conv5
I0721 16:05:08.612700  7087 net.cpp:122] Setting up conv5
I0721 16:05:08.612731  7087 net.cpp:129] Top shape: 50 256 13 13 (2163200)
I0721 16:05:08.612736  7087 net.cpp:137] Memory required for data: 327596400
I0721 16:05:08.612752  7087 layer_factory.hpp:77] Creating layer relu5
I0721 16:05:08.612767  7087 net.cpp:84] Creating Layer relu5
I0721 16:05:08.612773  7087 net.cpp:406] relu5 <- conv5
I0721 16:05:08.612781  7087 net.cpp:367] relu5 -> conv5 (in-place)
I0721 16:05:08.613593  7087 net.cpp:122] Setting up relu5
I0721 16:05:08.613613  7087 net.cpp:129] Top shape: 50 256 13 13 (2163200)
I0721 16:05:08.613623  7087 net.cpp:137] Memory required for data: 336249200
I0721 16:05:08.613627  7087 layer_factory.hpp:77] Creating layer pool5
I0721 16:05:08.613642  7087 net.cpp:84] Creating Layer pool5
I0721 16:05:08.613647  7087 net.cpp:406] pool5 <- conv5
I0721 16:05:08.613656  7087 net.cpp:380] pool5 -> pool5
I0721 16:05:08.613731  7087 net.cpp:122] Setting up pool5
I0721 16:05:08.613760  7087 net.cpp:129] Top shape: 50 256 6 6 (460800)
I0721 16:05:08.613765  7087 net.cpp:137] Memory required for data: 338092400
I0721 16:05:08.613768  7087 layer_factory.hpp:77] Creating layer fc6
I0721 16:05:08.613780  7087 net.cpp:84] Creating Layer fc6
I0721 16:05:08.613785  7087 net.cpp:406] fc6 <- pool5
I0721 16:05:08.613792  7087 net.cpp:380] fc6 -> fc6
I0721 16:05:09.708268  7087 net.cpp:122] Setting up fc6
I0721 16:05:09.708331  7087 net.cpp:129] Top shape: 50 4096 (204800)
I0721 16:05:09.708336  7087 net.cpp:137] Memory required for data: 338911600
I0721 16:05:09.708359  7087 layer_factory.hpp:77] Creating layer relu6
I0721 16:05:09.708395  7087 net.cpp:84] Creating Layer relu6
I0721 16:05:09.708410  7087 net.cpp:406] relu6 <- fc6
I0721 16:05:09.708423  7087 net.cpp:367] relu6 -> fc6 (in-place)
I0721 16:05:09.708899  7087 net.cpp:122] Setting up relu6
I0721 16:05:09.708912  7087 net.cpp:129] Top shape: 50 4096 (204800)
I0721 16:05:09.708927  7087 net.cpp:137] Memory required for data: 339730800
I0721 16:05:09.708931  7087 layer_factory.hpp:77] Creating layer drop6
I0721 16:05:09.708947  7087 net.cpp:84] Creating Layer drop6
I0721 16:05:09.708951  7087 net.cpp:406] drop6 <- fc6
I0721 16:05:09.708957  7087 net.cpp:367] drop6 -> fc6 (in-place)
I0721 16:05:09.709012  7087 net.cpp:122] Setting up drop6
I0721 16:05:09.709017  7087 net.cpp:129] Top shape: 50 4096 (204800)
I0721 16:05:09.709020  7087 net.cpp:137] Memory required for data: 340550000
I0721 16:05:09.709023  7087 layer_factory.hpp:77] Creating layer fc7
I0721 16:05:09.709045  7087 net.cpp:84] Creating Layer fc7
I0721 16:05:09.709049  7087 net.cpp:406] fc7 <- fc6
I0721 16:05:09.709067  7087 net.cpp:380] fc7 -> fc7
I0721 16:05:10.190477  7087 net.cpp:122] Setting up fc7
I0721 16:05:10.190539  7087 net.cpp:129] Top shape: 50 4096 (204800)
I0721 16:05:10.190544  7087 net.cpp:137] Memory required for data: 341369200
I0721 16:05:10.190577  7087 layer_factory.hpp:77] Creating layer relu7
I0721 16:05:10.190599  7087 net.cpp:84] Creating Layer relu7
I0721 16:05:10.190608  7087 net.cpp:406] relu7 <- fc7
I0721 16:05:10.190615  7087 net.cpp:367] relu7 -> fc7 (in-place)
I0721 16:05:10.191975  7087 net.cpp:122] Setting up relu7
I0721 16:05:10.192013  7087 net.cpp:129] Top shape: 50 4096 (204800)
I0721 16:05:10.192028  7087 net.cpp:137] Memory required for data: 342188400
I0721 16:05:10.192031  7087 layer_factory.hpp:77] Creating layer drop7
I0721 16:05:10.192044  7087 net.cpp:84] Creating Layer drop7
I0721 16:05:10.192047  7087 net.cpp:406] drop7 <- fc7
I0721 16:05:10.192054  7087 net.cpp:367] drop7 -> fc7 (in-place)
I0721 16:05:10.192121  7087 net.cpp:122] Setting up drop7
I0721 16:05:10.192143  7087 net.cpp:129] Top shape: 50 4096 (204800)
I0721 16:05:10.192147  7087 net.cpp:137] Memory required for data: 343007600
I0721 16:05:10.192150  7087 layer_factory.hpp:77] Creating layer latent
I0721 16:05:10.192162  7087 net.cpp:84] Creating Layer latent
I0721 16:05:10.192164  7087 net.cpp:406] latent <- fc7
I0721 16:05:10.192173  7087 net.cpp:380] latent -> latent
I0721 16:05:10.198429  7087 net.cpp:122] Setting up latent
I0721 16:05:10.198457  7087 net.cpp:129] Top shape: 50 48 (2400)
I0721 16:05:10.198460  7087 net.cpp:137] Memory required for data: 343017200
I0721 16:05:10.198467  7087 layer_factory.hpp:77] Creating layer latent_sigmoid
I0721 16:05:10.198485  7087 net.cpp:84] Creating Layer latent_sigmoid
I0721 16:05:10.198489  7087 net.cpp:406] latent_sigmoid <- latent
I0721 16:05:10.198496  7087 net.cpp:380] latent_sigmoid -> latent_sigmoid
I0721 16:05:10.198760  7087 net.cpp:122] Setting up latent_sigmoid
I0721 16:05:10.198774  7087 net.cpp:129] Top shape: 50 48 (2400)
I0721 16:05:10.198777  7087 net.cpp:137] Memory required for data: 343026800
I0721 16:05:10.198781  7087 layer_factory.hpp:77] Creating layer latent_sigmoid_latent_sigmoid_0_split
I0721 16:05:10.198788  7087 net.cpp:84] Creating Layer latent_sigmoid_latent_sigmoid_0_split
I0721 16:05:10.198792  7087 net.cpp:406] latent_sigmoid_latent_sigmoid_0_split <- latent_sigmoid
I0721 16:05:10.198798  7087 net.cpp:380] latent_sigmoid_latent_sigmoid_0_split -> latent_sigmoid_latent_sigmoid_0_split_0
I0721 16:05:10.198806  7087 net.cpp:380] latent_sigmoid_latent_sigmoid_0_split -> latent_sigmoid_latent_sigmoid_0_split_1
I0721 16:05:10.198812  7087 net.cpp:380] latent_sigmoid_latent_sigmoid_0_split -> latent_sigmoid_latent_sigmoid_0_split_2
I0721 16:05:10.198817  7087 net.cpp:380] latent_sigmoid_latent_sigmoid_0_split -> latent_sigmoid_latent_sigmoid_0_split_3
I0721 16:05:10.198890  7087 net.cpp:122] Setting up latent_sigmoid_latent_sigmoid_0_split
I0721 16:05:10.198899  7087 net.cpp:129] Top shape: 50 48 (2400)
I0721 16:05:10.198904  7087 net.cpp:129] Top shape: 50 48 (2400)
I0721 16:05:10.198906  7087 net.cpp:129] Top shape: 50 48 (2400)
I0721 16:05:10.198910  7087 net.cpp:129] Top shape: 50 48 (2400)
I0721 16:05:10.198913  7087 net.cpp:137] Memory required for data: 343065200
I0721 16:05:10.198917  7087 layer_factory.hpp:77] Creating layer loss_1
I0721 16:05:10.198925  7087 net.cpp:84] Creating Layer loss_1
I0721 16:05:10.198927  7087 net.cpp:406] loss_1 <- latent_sigmoid_latent_sigmoid_0_split_0
I0721 16:05:10.198932  7087 net.cpp:406] loss_1 <- latent_sigmoid_latent_sigmoid_0_split_1
I0721 16:05:10.198938  7087 net.cpp:380] loss_1 -> loss: forcing-binary
I0721 16:05:10.198992  7087 net.cpp:122] Setting up loss_1
I0721 16:05:10.199000  7087 net.cpp:129] Top shape: (1)
I0721 16:05:10.199003  7087 net.cpp:132]     with loss weight 1
I0721 16:05:10.199038  7087 net.cpp:137] Memory required for data: 343065204
I0721 16:05:10.199041  7087 layer_factory.hpp:77] Creating layer latent_sigmoid_reshape
I0721 16:05:10.199050  7087 net.cpp:84] Creating Layer latent_sigmoid_reshape
I0721 16:05:10.199054  7087 net.cpp:406] latent_sigmoid_reshape <- latent_sigmoid_latent_sigmoid_0_split_2
I0721 16:05:10.199060  7087 net.cpp:380] latent_sigmoid_reshape -> latent_sigmoid_reshape
I0721 16:05:10.199095  7087 net.cpp:122] Setting up latent_sigmoid_reshape
I0721 16:05:10.199105  7087 net.cpp:129] Top shape: 50 1 1 48 (2400)
I0721 16:05:10.199108  7087 net.cpp:137] Memory required for data: 343074804
I0721 16:05:10.199110  7087 layer_factory.hpp:77] Creating layer latent_sigmoid_avg
I0721 16:05:10.199137  7087 net.cpp:84] Creating Layer latent_sigmoid_avg
I0721 16:05:10.199142  7087 net.cpp:406] latent_sigmoid_avg <- latent_sigmoid_reshape
I0721 16:05:10.199148  7087 net.cpp:380] latent_sigmoid_avg -> latent_sigmoid_avg
I0721 16:05:10.199939  7087 net.cpp:122] Setting up latent_sigmoid_avg
I0721 16:05:10.199954  7087 net.cpp:129] Top shape: 50 1 1 1 (50)
I0721 16:05:10.199968  7087 net.cpp:137] Memory required for data: 343075004
I0721 16:05:10.199972  7087 layer_factory.hpp:77] Creating layer latent_sigmoid_avg_latent_sigmoid_avg_0_split
I0721 16:05:10.199980  7087 net.cpp:84] Creating Layer latent_sigmoid_avg_latent_sigmoid_avg_0_split
I0721 16:05:10.199983  7087 net.cpp:406] latent_sigmoid_avg_latent_sigmoid_avg_0_split <- latent_sigmoid_avg
I0721 16:05:10.199990  7087 net.cpp:380] latent_sigmoid_avg_latent_sigmoid_avg_0_split -> latent_sigmoid_avg_latent_sigmoid_avg_0_split_0
I0721 16:05:10.199996  7087 net.cpp:380] latent_sigmoid_avg_latent_sigmoid_avg_0_split -> latent_sigmoid_avg_latent_sigmoid_avg_0_split_1
I0721 16:05:10.200052  7087 net.cpp:122] Setting up latent_sigmoid_avg_latent_sigmoid_avg_0_split
I0721 16:05:10.200058  7087 net.cpp:129] Top shape: 50 1 1 1 (50)
I0721 16:05:10.200062  7087 net.cpp:129] Top shape: 50 1 1 1 (50)
I0721 16:05:10.200064  7087 net.cpp:137] Memory required for data: 343075404
I0721 16:05:10.200067  7087 layer_factory.hpp:77] Creating layer loss_2
I0721 16:05:10.200074  7087 net.cpp:84] Creating Layer loss_2
I0721 16:05:10.200078  7087 net.cpp:406] loss_2 <- latent_sigmoid_avg_latent_sigmoid_avg_0_split_0
I0721 16:05:10.200081  7087 net.cpp:406] loss_2 <- latent_sigmoid_avg_latent_sigmoid_avg_0_split_1
I0721 16:05:10.200088  7087 net.cpp:380] loss_2 -> loss: 50%-fire-rate
I0721 16:05:10.200129  7087 net.cpp:122] Setting up loss_2
I0721 16:05:10.200135  7087 net.cpp:129] Top shape: (1)
I0721 16:05:10.200139  7087 net.cpp:132]     with loss weight 1
I0721 16:05:10.200145  7087 net.cpp:137] Memory required for data: 343075408
I0721 16:05:10.200147  7087 layer_factory.hpp:77] Creating layer fc9
I0721 16:05:10.200155  7087 net.cpp:84] Creating Layer fc9
I0721 16:05:10.200158  7087 net.cpp:406] fc9 <- latent_sigmoid_latent_sigmoid_0_split_3
I0721 16:05:10.200165  7087 net.cpp:380] fc9 -> fc9
I0721 16:05:10.200356  7087 net.cpp:122] Setting up fc9
I0721 16:05:10.200366  7087 net.cpp:129] Top shape: 50 10 (500)
I0721 16:05:10.200369  7087 net.cpp:137] Memory required for data: 343077408
I0721 16:05:10.200381  7087 layer_factory.hpp:77] Creating layer fc9_fc9_0_split
I0721 16:05:10.200397  7087 net.cpp:84] Creating Layer fc9_fc9_0_split
I0721 16:05:10.200400  7087 net.cpp:406] fc9_fc9_0_split <- fc9
I0721 16:05:10.200407  7087 net.cpp:380] fc9_fc9_0_split -> fc9_fc9_0_split_0
I0721 16:05:10.200414  7087 net.cpp:380] fc9_fc9_0_split -> fc9_fc9_0_split_1
I0721 16:05:10.200459  7087 net.cpp:122] Setting up fc9_fc9_0_split
I0721 16:05:10.200467  7087 net.cpp:129] Top shape: 50 10 (500)
I0721 16:05:10.200470  7087 net.cpp:129] Top shape: 50 10 (500)
I0721 16:05:10.200474  7087 net.cpp:137] Memory required for data: 343081408
I0721 16:05:10.200476  7087 layer_factory.hpp:77] Creating layer accuracy
I0721 16:05:10.200489  7087 net.cpp:84] Creating Layer accuracy
I0721 16:05:10.200491  7087 net.cpp:406] accuracy <- fc9_fc9_0_split_0
I0721 16:05:10.200495  7087 net.cpp:406] accuracy <- label_data_1_split_0
I0721 16:05:10.200501  7087 net.cpp:380] accuracy -> accuracy
…
