…
I1021 20:18:14.773705 23905 net.cpp:296] The NetState phase (0) differed from the phase (1) specified by a rule in layer accuracy
I1021 20:18:14.774181 23905 net.cpp:53] Initializing net from parameters: 
name: "Cifar10-TryCrossNet"
state {
  phase: TRAIN
  level: 0
  stage: ""
}
layer {
  name: "data"
  type: "Data"
  top: "data"
  top: "label"
  include {
    phase: TRAIN
  }
  transform_param {
    mirror: true
    crop_size: 227
    mean_file: "./data/ilsvrc12/imagenet_mean.binaryproto"
  }
  data_param {
    source: "data/cifar10/cifar10_train_leveldb"
    batch_size: 50
  }
}
layer {
  name: "conv1"
  type: "Convolution"
  bottom: "data"
  top: "conv1"
  param {
    lr_mult: 1
    decay_mult: 1
  }
  param {
    lr_mult: 2
    decay_mult: 0
  }
  convolution_param {
    num_output: 96
    kernel_size: 11
    stride: 4
    weight_filler {
      type: "gaussian"
      std: 0.01
    }
    bias_filler {
      type: "constant"
      value: 0
    }
  }
}
layer {
  name: "relu1"
  type: "ReLU"
  bottom: "conv1"
  top: "conv1"
}
layer {
  name: "pool1"
  type: "Pooling"
  bottom: "conv1"
  top: "pool1"
  pooling_param {
    pool: MAX
    kernel_size: 3
    stride: 2
  }
}
layer {
  name: "norm1"
  type: "LRN"
  bottom: "pool1"
  top: "norm1"
  lrn_param {
    local_size: 5
    alpha: 0.0001
    beta: 0.75
  }
}
layer {
  name: "conv2"
  type: "Convolution"
  bottom: "norm1"
  top: "conv2"
  param {
    lr_mult: 1
    decay_mult: 1
  }
  param {
    lr_mult: 2
    decay_mult: 0
  }
  convolution_param {
    num_output: 256
    pad: 2
    kernel_size: 5
    group: 2
    weight_filler {
      type: "gaussian"
      std: 0.01
    }
    bias_filler {
      type: "constant"
      value: 1
    }
  }
}
layer {
  name: "relu2"
  type: "ReLU"
  bottom: "conv2"
  top: "conv2"
}
layer {
  name: "pool2"
  type: "Pooling"
  bottom: "conv2"
  top: "pool2"
  pooling_param {
    pool: MAX
    kernel_size: 3
    stride: 2
  }
}
layer {
  name: "norm2"
  type: "LRN"
  bottom: "pool2"
  top: "norm2"
  lrn_param {
    local_size: 5
    alpha: 0.0001
    beta: 0.75
  }
}
layer {
  name: "conv3"
  type: "Convolution"
  bottom: "norm2"
  top: "conv3"
  param {
    lr_mult: 1
    decay_mult: 1
  }
  param {
    lr_mult: 2
    decay_mult: 0
  }
  convolution_param {
    num_output: 384
    pad: 1
    kernel_size: 3
    weight_filler {
      type: "gaussian"
      std: 0.01
    }
    bias_filler {
      type: "constant"
      value: 0
    }
  }
}
layer {
  name: "relu3"
  type: "ReLU"
  bottom: "conv3"
  top: "conv3"
}
layer {
  name: "conv4"
  type: "Convolution"
  bottom: "conv3"
  top: "conv4"
  param {
    lr_mult: 1
    decay_mult: 1
  }
  param {
    lr_mult: 2
    decay_mult: 0
  }
  convolution_param {
    num_output: 384
    pad: 1
    kernel_size: 3
    group: 2
    weight_filler {
      type: "gaussian"
      std: 0.01
    }
    bias_filler {
      type: "constant"
      value: 1
    }
  }
}
layer {
  name: "relu4"
  type: "ReLU"
  bottom: "conv4"
  top: "conv4"
}
layer {
  name: "conv5"
  type: "Convolution"
  bottom: "conv4"
  top: "conv5"
  param {
    lr_mult: 1
    decay_mult: 1
  }
  param {
    lr_mult: 2
    decay_mult: 0
  }
  convolution_param {
    num_output: 256
    pad: 1
    kernel_size: 3
    group: 2
    weight_filler {
      type: "gaussian"
      std: 0.01
    }
    bias_filler {
      type: "constant"
      value: 1
    }
  }
}
layer {
  name: "relu5"
  type: "ReLU"
  bottom: "conv5"
  top: "conv5"
}
layer {
  name: "pool5"
  type: "Pooling"
  bottom: "conv5"
  top: "pool5"
  pooling_param {
    pool: MAX
    kernel_size: 3
    stride: 2
  }
}
layer {
  name: "fc6"
  type: "InnerProduct"
  bottom: "pool5"
  top: "fc6"
  param {
    lr_mult: 1
    decay_mult: 1
  }
  param {
    lr_mult: 2
    decay_mult: 0
  }
  inner_product_param {
    num_output: 4096
    weight_filler {
      type: "gaussian"
      std: 0.005
    }
    bias_filler {
      type: "constant"
      value: 1
    }
  }
}
layer {
  name: "relu6"
  type: "ReLU"
  bottom: "fc6"
  top: "fc6"
}
layer {
  name: "drop6"
  type: "Dropout"
  bottom: "fc6"
  top: "fc6"
  dropout_param {
    dropout_ratio: 0.5
  }
}
layer {
  name: "fc7"
  type: "InnerProduct"
  bottom: "fc6"
  top: "fc7"
  param {
    lr_mult: 1
    decay_mult: 1
  }
  param {
    lr_mult: 2
    decay_mult: 0
  }
  inner_product_param {
    num_output: 4096
    weight_filler {
      type: "gaussian"
      std: 0.005
    }
    bias_filler {
      type: "constant"
      value: 1
    }
  }
}
layer {
  name: "relu7"
  type: "ReLU"
  bottom: "fc7"
  top: "fc7"
}
layer {
  name: "drop7"
  type: "Dropout"
  bottom: "fc7"
  top: "fc7"
  dropout_param {
    dropout_ratio: 0.5
  }
}
layer {
  name: "latent"
  type: "InnerProduct"
  bottom: "fc7"
  top: "latent"
  param {
    lr_mult: 10
    decay_mult: 10
  }
  param {
    lr_mult: 20
    decay_mult: 0
  }
  inner_product_param {
    num_output: 32
    weight_filler {
      type: "gaussian"
      std: 0.01
    }
    bias_filler {
      type: "constant"
      value: 0
    }
  }
}
layer {
  name: "latent_sigmoid"
  type: "Sigmoid"
  bottom: "latent"
  top: "latent_sigmoid"
}
layer {
  name: "latent_tanh"
  type: "TanH"
  bottom: "latent"
  top: "latent_tanh"
}
layer {
  name: "latent_tanh_correlation"
  type: "Correlative"
  bottom: "latent_tanh"
  top: "latent_tanh_correlation"
}
layer {
  name: "latent_tanh_Euclidean"
  type: "IndependentLoss"
  bottom: "latent_tanh_correlation"
  top: "loss: independent-loss"
  loss_weight: 1
}
layer {
  name: "fc9"
  type: "InnerProduct"
  bottom: "latent_sigmoid"
  top: "fc9"
  param {
    lr_mult: 10
    decay_mult: 1
  }
  param {
    lr_mult: 20
    decay_mult: 0
  }
  inner_product_param {
    num_output: 10
    weight_filler {
      type: "gaussian"
      std: 0.2
    }
    bias_filler {
      type: "constant"
      value: 0
    }
  }
}
layer {
  name: "loss"
  type: "SoftmaxWithLoss"
  bottom: "fc9"
  bottom: "label"
  top: "loss: classfication-error"
  loss_weight: 1
}
layer {
  name: "loss_1"
  type: "K1_EuclideanLoss"
  bottom: "latent_sigmoid"
  bottom: "latent_sigmoid"
  top: "loss: forcing-binary"
  loss_weight: 1
  propagate_down: true
  propagate_down: false
}
layer {
  name: "latent_sigmoid_reshape"
  type: "Reshape"
  bottom: "latent_sigmoid"
  top: "latent_sigmoid_reshape"
  reshape_param {
    shape {
      dim: 0
      dim: 1
      dim: 1
      dim: -1
    }
  }
}
layer {
  name: "latent_sigmoid_permute"
  type: "Permute"
  bottom: "latent_sigmoid_reshape"
  top: "latent_sigmoid_permute"
  permute_param {
    order: 3
    order: 1
    order: 2
    order: 0
  }
}
layer {
  name: "latent_sigmoid_avg"
  type: "Pooling"
  bottom: "latent_sigmoid_permute"
  top: "latent_sigmoid_avg"
  pooling_param {
    pool: AVE
    kernel_h: 1
    kernel_w: 50
  }
}
layer {
  name: "loss_2"
  type: "K2_EuclideanLoss"
  bottom: "latent_sigmoid_avg"
  bottom: "latent_sigmoid_avg"
  top: "loss: 50%-fire-rate"
  loss_weight: 1
  propagate_down: true
  propagate_down: false
}
I1021 20:18:14.774577 23905 layer_factory.hpp:77] Creating layer data
I1021 20:18:14.844439 23905 db_leveldb.cpp:18] Opened leveldb data/cifar10/cifar10_train_leveldb
I1021 20:18:14.849383 23905 net.cpp:86] Creating Layer data
I1021 20:18:14.849426 23905 net.cpp:382] data -> data
I1021 20:18:14.849478 23905 net.cpp:382] data -> label
I1021 20:18:14.849527 23905 data_transformer.cpp:25] Loading mean file from: ./data/ilsvrc12/imagenet_mean.binaryproto
I1021 20:18:14.853287 23905 data_layer.cpp:45] output data size: 50,3,227,227
I1021 20:18:14.943382 23905 net.cpp:124] Setting up data
I1021 20:18:14.943508 23905 net.cpp:131] Top shape: 50 3 227 227 (7729350)
I1021 20:18:14.943542 23905 net.cpp:131] Top shape: 50 (50)
I1021 20:18:14.943552 23905 net.cpp:139] Memory required for data: 30917600
I1021 20:18:14.943567 23905 layer_factory.hpp:77] Creating layer conv1
I1021 20:18:14.943611 23905 net.cpp:86] Creating Layer conv1
I1021 20:18:14.943626 23905 net.cpp:408] conv1 <- data
I1021 20:18:14.943648 23905 net.cpp:382] conv1 -> conv1
I1021 20:18:15.219281 23905 net.cpp:124] Setting up conv1
I1021 20:18:15.219324 23905 net.cpp:131] Top shape: 50 96 55 55 (14520000)
I1021 20:18:15.219329 23905 net.cpp:139] Memory required for data: 88997600
I1021 20:18:15.219352 23905 layer_factory.hpp:77] Creating layer relu1
I1021 20:18:15.219368 23905 net.cpp:86] Creating Layer relu1
I1021 20:18:15.219383 23905 net.cpp:408] relu1 <- conv1
I1021 20:18:15.219389 23905 net.cpp:369] relu1 -> conv1 (in-place)
I1021 20:18:15.220083 23905 net.cpp:124] Setting up relu1
I1021 20:18:15.220098 23905 net.cpp:131] Top shape: 50 96 55 55 (14520000)
I1021 20:18:15.220113 23905 net.cpp:139] Memory required for data: 147077600
I1021 20:18:15.220115 23905 layer_factory.hpp:77] Creating layer pool1
I1021 20:18:15.220135 23905 net.cpp:86] Creating Layer pool1
I1021 20:18:15.220139 23905 net.cpp:408] pool1 <- conv1
I1021 20:18:15.220144 23905 net.cpp:382] pool1 -> pool1
I1021 20:18:15.220213 23905 net.cpp:124] Setting up pool1
I1021 20:18:15.220232 23905 net.cpp:131] Top shape: 50 96 27 27 (3499200)
I1021 20:18:15.220234 23905 net.cpp:139] Memory required for data: 161074400
I1021 20:18:15.220237 23905 layer_factory.hpp:77] Creating layer norm1
I1021 20:18:15.220252 23905 net.cpp:86] Creating Layer norm1
I1021 20:18:15.220257 23905 net.cpp:408] norm1 <- pool1
I1021 20:18:15.220260 23905 net.cpp:382] norm1 -> norm1
I1021 20:18:15.220474 23905 net.cpp:124] Setting up norm1
I1021 20:18:15.220487 23905 net.cpp:131] Top shape: 50 96 27 27 (3499200)
I1021 20:18:15.220491 23905 net.cpp:139] Memory required for data: 175071200
I1021 20:18:15.220494 23905 layer_factory.hpp:77] Creating layer conv2
I1021 20:18:15.220507 23905 net.cpp:86] Creating Layer conv2
I1021 20:18:15.220510 23905 net.cpp:408] conv2 <- norm1
I1021 20:18:15.220516 23905 net.cpp:382] conv2 -> conv2
I1021 20:18:15.232254 23905 net.cpp:124] Setting up conv2
I1021 20:18:15.232270 23905 net.cpp:131] Top shape: 50 256 27 27 (9331200)
I1021 20:18:15.232273 23905 net.cpp:139] Memory required for data: 212396000
I1021 20:18:15.232282 23905 layer_factory.hpp:77] Creating layer relu2
I1021 20:18:15.232290 23905 net.cpp:86] Creating Layer relu2
I1021 20:18:15.232295 23905 net.cpp:408] relu2 <- conv2
I1021 20:18:15.232298 23905 net.cpp:369] relu2 -> conv2 (in-place)
I1021 20:18:15.233005 23905 net.cpp:124] Setting up relu2
I1021 20:18:15.233017 23905 net.cpp:131] Top shape: 50 256 27 27 (9331200)
I1021 20:18:15.233021 23905 net.cpp:139] Memory required for data: 249720800
I1021 20:18:15.233024 23905 layer_factory.hpp:77] Creating layer pool2
I1021 20:18:15.233031 23905 net.cpp:86] Creating Layer pool2
I1021 20:18:15.233033 23905 net.cpp:408] pool2 <- conv2
I1021 20:18:15.233041 23905 net.cpp:382] pool2 -> pool2
I1021 20:18:15.233093 23905 net.cpp:124] Setting up pool2
I1021 20:18:15.233098 23905 net.cpp:131] Top shape: 50 256 13 13 (2163200)
I1021 20:18:15.233101 23905 net.cpp:139] Memory required for data: 258373600
I1021 20:18:15.233104 23905 layer_factory.hpp:77] Creating layer norm2
I1021 20:18:15.233114 23905 net.cpp:86] Creating Layer norm2
I1021 20:18:15.233119 23905 net.cpp:408] norm2 <- pool2
I1021 20:18:15.233122 23905 net.cpp:382] norm2 -> norm2
I1021 20:18:15.233366 23905 net.cpp:124] Setting up norm2
I1021 20:18:15.233381 23905 net.cpp:131] Top shape: 50 256 13 13 (2163200)
I1021 20:18:15.233386 23905 net.cpp:139] Memory required for data: 267026400
I1021 20:18:15.233412 23905 layer_factory.hpp:77] Creating layer conv3
I1021 20:18:15.233423 23905 net.cpp:86] Creating Layer conv3
I1021 20:18:15.233427 23905 net.cpp:408] conv3 <- norm2
I1021 20:18:15.233434 23905 net.cpp:382] conv3 -> conv3
I1021 20:18:15.258579 23905 net.cpp:124] Setting up conv3
I1021 20:18:15.258597 23905 net.cpp:131] Top shape: 50 384 13 13 (3244800)
I1021 20:18:15.258601 23905 net.cpp:139] Memory required for data: 280005600
I1021 20:18:15.258610 23905 layer_factory.hpp:77] Creating layer relu3
I1021 20:18:15.258615 23905 net.cpp:86] Creating Layer relu3
I1021 20:18:15.258618 23905 net.cpp:408] relu3 <- conv3
I1021 20:18:15.258622 23905 net.cpp:369] relu3 -> conv3 (in-place)
I1021 20:18:15.258834 23905 net.cpp:124] Setting up relu3
I1021 20:18:15.258846 23905 net.cpp:131] Top shape: 50 384 13 13 (3244800)
I1021 20:18:15.258849 23905 net.cpp:139] Memory required for data: 292984800
I1021 20:18:15.258852 23905 layer_factory.hpp:77] Creating layer conv4
I1021 20:18:15.258864 23905 net.cpp:86] Creating Layer conv4
I1021 20:18:15.258867 23905 net.cpp:408] conv4 <- conv3
I1021 20:18:15.258875 23905 net.cpp:382] conv4 -> conv4
I1021 20:18:15.279637 23905 net.cpp:124] Setting up conv4
I1021 20:18:15.279652 23905 net.cpp:131] Top shape: 50 384 13 13 (3244800)
I1021 20:18:15.279656 23905 net.cpp:139] Memory required for data: 305964000
I1021 20:18:15.279662 23905 layer_factory.hpp:77] Creating layer relu4
I1021 20:18:15.279669 23905 net.cpp:86] Creating Layer relu4
I1021 20:18:15.279671 23905 net.cpp:408] relu4 <- conv4
I1021 20:18:15.279677 23905 net.cpp:369] relu4 -> conv4 (in-place)
I1021 20:18:15.280372 23905 net.cpp:124] Setting up relu4
I1021 20:18:15.280385 23905 net.cpp:131] Top shape: 50 384 13 13 (3244800)
I1021 20:18:15.280388 23905 net.cpp:139] Memory required for data: 318943200
I1021 20:18:15.280391 23905 layer_factory.hpp:77] Creating layer conv5
I1021 20:18:15.280402 23905 net.cpp:86] Creating Layer conv5
I1021 20:18:15.280405 23905 net.cpp:408] conv5 <- conv4
I1021 20:18:15.280412 23905 net.cpp:382] conv5 -> conv5
I1021 20:18:15.295542 23905 net.cpp:124] Setting up conv5
I1021 20:18:15.295558 23905 net.cpp:131] Top shape: 50 256 13 13 (2163200)
I1021 20:18:15.295562 23905 net.cpp:139] Memory required for data: 327596000
I1021 20:18:15.295570 23905 layer_factory.hpp:77] Creating layer relu5
I1021 20:18:15.295577 23905 net.cpp:86] Creating Layer relu5
I1021 20:18:15.295579 23905 net.cpp:408] relu5 <- conv5
I1021 20:18:15.295585 23905 net.cpp:369] relu5 -> conv5 (in-place)
I1021 20:18:15.296285 23905 net.cpp:124] Setting up relu5
I1021 20:18:15.296298 23905 net.cpp:131] Top shape: 50 256 13 13 (2163200)
I1021 20:18:15.296301 23905 net.cpp:139] Memory required for data: 336248800
I1021 20:18:15.296304 23905 layer_factory.hpp:77] Creating layer pool5
I1021 20:18:15.296311 23905 net.cpp:86] Creating Layer pool5
I1021 20:18:15.296314 23905 net.cpp:408] pool5 <- conv5
I1021 20:18:15.296320 23905 net.cpp:382] pool5 -> pool5
I1021 20:18:15.296375 23905 net.cpp:124] Setting up pool5
I1021 20:18:15.296383 23905 net.cpp:131] Top shape: 50 256 6 6 (460800)
I1021 20:18:15.296386 23905 net.cpp:139] Memory required for data: 338092000
I1021 20:18:15.296388 23905 layer_factory.hpp:77] Creating layer fc6
I1021 20:18:15.296401 23905 net.cpp:86] Creating Layer fc6
I1021 20:18:15.296403 23905 net.cpp:408] fc6 <- pool5
I1021 20:18:15.296411 23905 net.cpp:382] fc6 -> fc6
I1021 20:18:16.329686 23905 net.cpp:124] Setting up fc6
I1021 20:18:16.329725 23905 net.cpp:131] Top shape: 50 4096 (204800)
I1021 20:18:16.329728 23905 net.cpp:139] Memory required for data: 338911200
I1021 20:18:16.329738 23905 layer_factory.hpp:77] Creating layer relu6
I1021 20:18:16.329751 23905 net.cpp:86] Creating Layer relu6
I1021 20:18:16.329756 23905 net.cpp:408] relu6 <- fc6
I1021 20:18:16.329762 23905 net.cpp:369] relu6 -> fc6 (in-place)
I1021 20:18:16.330039 23905 net.cpp:124] Setting up relu6
I1021 20:18:16.330050 23905 net.cpp:131] Top shape: 50 4096 (204800)
I1021 20:18:16.330054 23905 net.cpp:139] Memory required for data: 339730400
I1021 20:18:16.330080 23905 layer_factory.hpp:77] Creating layer drop6
I1021 20:18:16.330087 23905 net.cpp:86] Creating Layer drop6
I1021 20:18:16.330090 23905 net.cpp:408] drop6 <- fc6
I1021 20:18:16.330097 23905 net.cpp:369] drop6 -> fc6 (in-place)
I1021 20:18:16.330135 23905 net.cpp:124] Setting up drop6
I1021 20:18:16.330149 23905 net.cpp:131] Top shape: 50 4096 (204800)
I1021 20:18:16.330152 23905 net.cpp:139] Memory required for data: 340549600
I1021 20:18:16.330155 23905 layer_factory.hpp:77] Creating layer fc7
I1021 20:18:16.330163 23905 net.cpp:86] Creating Layer fc7
I1021 20:18:16.330166 23905 net.cpp:408] fc7 <- fc6
I1021 20:18:16.330173 23905 net.cpp:382] fc7 -> fc7
I1021 20:18:16.764856 23905 net.cpp:124] Setting up fc7
I1021 20:18:16.764894 23905 net.cpp:131] Top shape: 50 4096 (204800)
I1021 20:18:16.764897 23905 net.cpp:139] Memory required for data: 341368800
I1021 20:18:16.764906 23905 layer_factory.hpp:77] Creating layer relu7
I1021 20:18:16.764920 23905 net.cpp:86] Creating Layer relu7
I1021 20:18:16.764925 23905 net.cpp:408] relu7 <- fc7
I1021 20:18:16.764931 23905 net.cpp:369] relu7 -> fc7 (in-place)
I1021 20:18:16.765826 23905 net.cpp:124] Setting up relu7
I1021 20:18:16.765841 23905 net.cpp:131] Top shape: 50 4096 (204800)
I1021 20:18:16.765843 23905 net.cpp:139] Memory required for data: 342188000
I1021 20:18:16.765846 23905 layer_factory.hpp:77] Creating layer drop7
I1021 20:18:16.765858 23905 net.cpp:86] Creating Layer drop7
I1021 20:18:16.765861 23905 net.cpp:408] drop7 <- fc7
I1021 20:18:16.765866 23905 net.cpp:369] drop7 -> fc7 (in-place)
I1021 20:18:16.765914 23905 net.cpp:124] Setting up drop7
I1021 20:18:16.765919 23905 net.cpp:131] Top shape: 50 4096 (204800)
I1021 20:18:16.765923 23905 net.cpp:139] Memory required for data: 343007200
I1021 20:18:16.765925 23905 layer_factory.hpp:77] Creating layer latent
I1021 20:18:16.765933 23905 net.cpp:86] Creating Layer latent
I1021 20:18:16.765936 23905 net.cpp:408] latent <- fc7
I1021 20:18:16.765942 23905 net.cpp:382] latent -> latent
I1021 20:18:16.769817 23905 net.cpp:124] Setting up latent
I1021 20:18:16.769830 23905 net.cpp:131] Top shape: 50 32 (1600)
I1021 20:18:16.769834 23905 net.cpp:139] Memory required for data: 343013600
I1021 20:18:16.769839 23905 layer_factory.hpp:77] Creating layer latent_latent_0_split
I1021 20:18:16.769850 23905 net.cpp:86] Creating Layer latent_latent_0_split
I1021 20:18:16.769853 23905 net.cpp:408] latent_latent_0_split <- latent
I1021 20:18:16.769858 23905 net.cpp:382] latent_latent_0_split -> latent_latent_0_split_0
I1021 20:18:16.769865 23905 net.cpp:382] latent_latent_0_split -> latent_latent_0_split_1
I1021 20:18:16.769920 23905 net.cpp:124] Setting up latent_latent_0_split
I1021 20:18:16.769927 23905 net.cpp:131] Top shape: 50 32 (1600)
I1021 20:18:16.769930 23905 net.cpp:131] Top shape: 50 32 (1600)
I1021 20:18:16.769933 23905 net.cpp:139] Memory required for data: 343026400
I1021 20:18:16.769937 23905 layer_factory.hpp:77] Creating layer latent_sigmoid
I1021 20:18:16.769944 23905 net.cpp:86] Creating Layer latent_sigmoid
I1021 20:18:16.769948 23905 net.cpp:408] latent_sigmoid <- latent_latent_0_split_0
I1021 20:18:16.769951 23905 net.cpp:382] latent_sigmoid -> latent_sigmoid
I1021 20:18:16.770149 23905 net.cpp:124] Setting up latent_sigmoid
I1021 20:18:16.770161 23905 net.cpp:131] Top shape: 50 32 (1600)
I1021 20:18:16.770164 23905 net.cpp:139] Memory required for data: 343032800
I1021 20:18:16.770167 23905 layer_factory.hpp:77] Creating layer latent_sigmoid_latent_sigmoid_0_split
I1021 20:18:16.770174 23905 net.cpp:86] Creating Layer latent_sigmoid_latent_sigmoid_0_split
I1021 20:18:16.770176 23905 net.cpp:408] latent_sigmoid_latent_sigmoid_0_split <- latent_sigmoid
I1021 20:18:16.770184 23905 net.cpp:382] latent_sigmoid_latent_sigmoid_0_split -> latent_sigmoid_latent_sigmoid_0_split_0
I1021 20:18:16.770190 23905 net.cpp:382] latent_sigmoid_latent_sigmoid_0_split -> latent_sigmoid_latent_sigmoid_0_split_1
I1021 20:18:16.770195 23905 net.cpp:382] latent_sigmoid_latent_sigmoid_0_split -> latent_sigmoid_latent_sigmoid_0_split_2
I1021 20:18:16.770220 23905 net.cpp:382] latent_sigmoid_latent_sigmoid_0_split -> latent_sigmoid_latent_sigmoid_0_split_3
I1021 20:18:16.770282 23905 net.cpp:124] Setting up latent_sigmoid_latent_sigmoid_0_split
I1021 20:18:16.770290 23905 net.cpp:131] Top shape: 50 32 (1600)
I1021 20:18:16.770294 23905 net.cpp:131] Top shape: 50 32 (1600)
I1021 20:18:16.770298 23905 net.cpp:131] Top shape: 50 32 (1600)
I1021 20:18:16.770300 23905 net.cpp:131] Top shape: 50 32 (1600)
I1021 20:18:16.770303 23905 net.cpp:139] Memory required for data: 343058400
I1021 20:18:16.770305 23905 layer_factory.hpp:77] Creating layer latent_tanh
I1021 20:18:16.770313 23905 net.cpp:86] Creating Layer latent_tanh
I1021 20:18:16.770316 23905 net.cpp:408] latent_tanh <- latent_latent_0_split_1
I1021 20:18:16.770320 23905 net.cpp:382] latent_tanh -> latent_tanh
I1021 20:18:16.770987 23905 net.cpp:124] Setting up latent_tanh
I1021 20:18:16.771000 23905 net.cpp:131] Top shape: 50 32 (1600)
I1021 20:18:16.771004 23905 net.cpp:139] Memory required for data: 343064800
I1021 20:18:16.771008 23905 layer_factory.hpp:77] Creating layer latent_tanh_correlation
I1021 20:18:16.771019 23905 net.cpp:86] Creating Layer latent_tanh_correlation
I1021 20:18:16.771023 23905 net.cpp:408] latent_tanh_correlation <- latent_tanh
I1021 20:18:16.771028 23905 net.cpp:382] latent_tanh_correlation -> latent_tanh_correlation
I1021 20:18:16.771064 23905 net.cpp:124] Setting up latent_tanh_correlation
I1021 20:18:16.771070 23905 net.cpp:131] Top shape: 32 32 (1024)
I1021 20:18:16.771071 23905 net.cpp:139] Memory required for data: 343068896
I1021 20:18:16.771075 23905 layer_factory.hpp:77] Creating layer latent_tanh_Euclidean
I1021 20:18:16.771083 23905 net.cpp:86] Creating Layer latent_tanh_Euclidean
I1021 20:18:16.771086 23905 net.cpp:408] latent_tanh_Euclidean <- latent_tanh_correlation
I1021 20:18:16.771090 23905 net.cpp:382] latent_tanh_Euclidean -> loss: independent-loss
I1021 20:18:16.771154 23905 net.cpp:124] Setting up latent_tanh_Euclidean
I1021 20:18:16.771170 23905 net.cpp:131] Top shape: (1)
I1021 20:18:16.771173 23905 net.cpp:134]     with loss weight 1
I1021 20:18:16.771204 23905 net.cpp:139] Memory required for data: 343068900
I1021 20:18:16.771208 23905 layer_factory.hpp:77] Creating layer fc9
I1021 20:18:16.771215 23905 net.cpp:86] Creating Layer fc9
I1021 20:18:16.771219 23905 net.cpp:408] fc9 <- latent_sigmoid_latent_sigmoid_0_split_0
I1021 20:18:16.771225 23905 net.cpp:382] fc9 -> fc9
I1021 20:18:16.771338 23905 net.cpp:124] Setting up fc9
I1021 20:18:16.771347 23905 net.cpp:131] Top shape: 50 10 (500)
I1021 20:18:16.771349 23905 net.cpp:139] Memory required for data: 343070900
I1021 20:18:16.771359 23905 layer_factory.hpp:77] Creating layer loss
I1021 20:18:16.771368 23905 net.cpp:86] Creating Layer loss
I1021 20:18:16.771370 23905 net.cpp:408] loss <- fc9
I1021 20:18:16.771374 23905 net.cpp:408] loss <- label
I1021 20:18:16.771378 23905 net.cpp:382] loss -> loss: classfication-error
…
I1021 20:18:16.771760 23905 net.cpp:134]     with loss weight 1
I1021 20:18:16.771764 23905 net.cpp:139] Memory required for data: 343070908
I1021 20:18:16.771766 23905 layer_factory.hpp:77] Creating layer latent_sigmoid_reshape
I1021 20:18:16.771792 23905 net.cpp:86] Creating Layer latent_sigmoid_reshape
I1021 20:18:16.771797 23905 net.cpp:408] latent_sigmoid_reshape <- latent_sigmoid_latent_sigmoid_0_split_3
I1021 20:18:16.771803 23905 net.cpp:382] latent_sigmoid_reshape -> latent_sigmoid_reshape
I1021 20:18:16.771837 23905 net.cpp:124] Setting up latent_sigmoid_reshape
I1021 20:18:16.771845 23905 net.cpp:131] Top shape: 50 1 1 32 (1600)
I1021 20:18:16.771848 23905 net.cpp:139] Memory required for data: 343077308
I1021 20:18:16.771852 23905 layer_factory.hpp:77] Creating layer latent_sigmoid_permute
I1021 20:18:16.771862 23905 net.cpp:86] Creating Layer latent_sigmoid_permute
I1021 20:18:16.771864 23905 net.cpp:408] latent_sigmoid_permute <- latent_sigmoid_reshape
I1021 20:18:16.771870 23905 net.cpp:382] latent_sigmoid_permute -> latent_sigmoid_permute
I1021 20:18:16.771965 23905 net.cpp:124] Setting up latent_sigmoid_permute
I1021 20:18:16.771973 23905 net.cpp:131] Top shape: 32 1 1 50 (1600)
I1021 20:18:16.771978 23905 net.cpp:139] Memory required for data: 343083708
I1021 20:18:16.771981 23905 layer_factory.hpp:77] Creating layer latent_sigmoid_avg
I1021 20:18:16.771986 23905 net.cpp:86] Creating Layer latent_sigmoid_avg
I1021 20:18:16.771991 23905 net.cpp:408] latent_sigmoid_avg <- latent_sigmoid_permute
I1021 20:18:16.771994 23905 net.cpp:382] latent_sigmoid_avg -> latent_sigmoid_avg
I1021 20:18:16.772676 23905 net.cpp:124] Setting up latent_sigmoid_avg
I1021 20:18:16.772691 23905 net.cpp:131] Top shape: 32 1 1 1 (32)
I1021 20:18:16.772693 23905 net.cpp:139] Memory required for data: 343083836
I1021 20:18:16.772696 23905 layer_factory.hpp:77] Creating layer latent_sigmoid_avg_latent_sigmoid_avg_0_split
I1021 20:18:16.772701 23905 net.cpp:86] Creating Layer latent_sigmoid_avg_latent_sigmoid_avg_0_split
I1021 20:18:16.772704 23905 net.cpp:408] latent_sigmoid_avg_latent_sigmoid_avg_0_split <- latent_sigmoid_avg
I1021 20:18:16.772709 23905 net.cpp:382] latent_sigmoid_avg_latent_sigmoid_avg_0_split -> latent_sigmoid_avg_latent_sigmoid_avg_0_split_0
I1021 20:18:16.772716 23905 net.cpp:382] latent_sigmoid_avg_latent_sigmoid_avg_0_split -> latent_sigmoid_avg_latent_sigmoid_avg_0_split_1
I1021 20:18:16.772766 23905 net.cpp:124] Setting up latent_sigmoid_avg_latent_sigmoid_avg_0_split
I1021 20:18:16.772773 23905 net.cpp:131] Top shape: 32 1 1 1 (32)
I1021 20:18:16.772778 23905 net.cpp:131] Top shape: 32 1 1 1 (32)
I1021 20:18:16.772780 23905 net.cpp:139] Memory required for data: 343084092
I1021 20:18:16.772783 23905 layer_factory.hpp:77] Creating layer loss_2
I1021 20:18:16.772789 23905 net.cpp:86] Creating Layer loss_2
I1021 20:18:16.772791 23905 net.cpp:408] loss_2 <- latent_sigmoid_avg_latent_sigmoid_avg_0_split_0
I1021 20:18:16.772795 23905 net.cpp:408] loss_2 <- latent_sigmoid_avg_latent_sigmoid_avg_0_split_1
…
I1021 20:18:17.406530 23905 net.cpp:296] The NetState phase (1) differed from the phase (0) specified by a rule in layer data
I1021 20:18:17.406764 23905 net.cpp:53] Initializing net from parameters: 
name: "Cifar10-TryCrossNet"
state {
  phase: TEST
}
layer {
  name: "data"
  type: "Data"
  top: "data"
  top: "label"
  include {
    phase: TEST
  }
  transform_param {
    mirror: false
    crop_size: 227
    mean_file: "./data/ilsvrc12/imagenet_mean.binaryproto"
  }
  data_param {
    source: "data/cifar10/cifar10_val_leveldb"
    batch_size: 50
  }
}
layer {
  name: "conv1"
  type: "Convolution"
  bottom: "data"
  top: "conv1"
  param {
    lr_mult: 1
    decay_mult: 1
  }
  param {
    lr_mult: 2
    decay_mult: 0
  }
  convolution_param {
    num_output: 96
    kernel_size: 11
    stride: 4
    weight_filler {
      type: "gaussian"
      std: 0.01
    }
    bias_filler {
      type: "constant"
      value: 0
    }
  }
}
layer {
  name: "relu1"
  type: "ReLU"
  bottom: "conv1"
  top: "conv1"
}
layer {
  name: "pool1"
  type: "Pooling"
  bottom: "conv1"
  top: "pool1"
  pooling_param {
    pool: MAX
    kernel_size: 3
    stride: 2
  }
}
layer {
  name: "norm1"
  type: "LRN"
  bottom: "pool1"
  top: "norm1"
  lrn_param {
    local_size: 5
    alpha: 0.0001
    beta: 0.75
  }
}
layer {
  name: "conv2"
  type: "Convolution"
  bottom: "norm1"
  top: "conv2"
  param {
    lr_mult: 1
    decay_mult: 1
  }
  param {
    lr_mult: 2
    decay_mult: 0
  }
  convolution_param {
    num_output: 256
    pad: 2
    kernel_size: 5
    group: 2
    weight_filler {
      type: "gaussian"
      std: 0.01
    }
    bias_filler {
      type: "constant"
      value: 1
    }
  }
}
layer {
  name: "relu2"
  type: "ReLU"
  bottom: "conv2"
  top: "conv2"
}
layer {
  name: "pool2"
  type: "Pooling"
  bottom: "conv2"
  top: "pool2"
  pooling_param {
    pool: MAX
    kernel_size: 3
    stride: 2
  }
}
layer {
  name: "norm2"
  type: "LRN"
  bottom: "pool2"
  top: "norm2"
  lrn_param {
    local_size: 5
    alpha: 0.0001
    beta: 0.75
  }
}
layer {
  name: "conv3"
  type: "Convolution"
  bottom: "norm2"
  top: "conv3"
  param {
    lr_mult: 1
    decay_mult: 1
  }
  param {
    lr_mult: 2
    decay_mult: 0
  }
  convolution_param {
    num_output: 384
    pad: 1
    kernel_size: 3
    weight_filler {
      type: "gaussian"
      std: 0.01
    }
    bias_filler {
      type: "constant"
      value: 0
    }
  }
}
layer {
  name: "relu3"
  type: "ReLU"
  bottom: "conv3"
  top: "conv3"
}
layer {
  name: "conv4"
  type: "Convolution"
  bottom: "conv3"
  top: "conv4"
  param {
    lr_mult: 1
    decay_mult: 1
  }
  param {
    lr_mult: 2
    decay_mult: 0
  }
  convolution_param {
    num_output: 384
    pad: 1
    kernel_size: 3
    group: 2
    weight_filler {
      type: "gaussian"
      std: 0.01
    }
    bias_filler {
      type: "constant"
      value: 1
    }
  }
}
layer {
  name: "relu4"
  type: "ReLU"
  bottom: "conv4"
  top: "conv4"
}
layer {
  name: "conv5"
  type: "Convolution"
  bottom: "conv4"
  top: "conv5"
  param {
    lr_mult: 1
    decay_mult: 1
  }
  param {
    lr_mult: 2
    decay_mult: 0
  }
  convolution_param {
    num_output: 256
    pad: 1
    kernel_size: 3
    group: 2
    weight_filler {
      type: "gaussian"
      std: 0.01
    }
    bias_filler {
      type: "constant"
      value: 1
    }
  }
}
layer {
  name: "relu5"
  type: "ReLU"
  bottom: "conv5"
  top: "conv5"
}
layer {
  name: "pool5"
  type: "Pooling"
  bottom: "conv5"
  top: "pool5"
  pooling_param {
    pool: MAX
    kernel_size: 3
    stride: 2
  }
}
layer {
  name: "fc6"
  type: "InnerProduct"
  bottom: "pool5"
  top: "fc6"
  param {
    lr_mult: 1
    decay_mult: 1
  }
  param {
    lr_mult: 2
    decay_mult: 0
  }
  inner_product_param {
    num_output: 4096
    weight_filler {
      type: "gaussian"
      std: 0.005
    }
    bias_filler {
      type: "constant"
      value: 1
    }
  }
}
layer {
  name: "relu6"
  type: "ReLU"
  bottom: "fc6"
  top: "fc6"
}
layer {
  name: "drop6"
  type: "Dropout"
  bottom: "fc6"
  top: "fc6"
  dropout_param {
    dropout_ratio: 0.5
  }
}
layer {
  name: "fc7"
  type: "InnerProduct"
  bottom: "fc6"
  top: "fc7"
  param {
    lr_mult: 1
    decay_mult: 1
  }
  param {
    lr_mult: 2
    decay_mult: 0
  }
  inner_product_param {
    num_output: 4096
    weight_filler {
      type: "gaussian"
      std: 0.005
    }
    bias_filler {
      type: "constant"
      value: 1
    }
  }
}
layer {
  name: "relu7"
  type: "ReLU"
  bottom: "fc7"
  top: "fc7"
}
layer {
  name: "drop7"
  type: "Dropout"
  bottom: "fc7"
  top: "fc7"
  dropout_param {
    dropout_ratio: 0.5
  }
}
layer {
  name: "latent"
  type: "InnerProduct"
  bottom: "fc7"
  top: "latent"
  param {
    lr_mult: 10
    decay_mult: 10
  }
  param {
    lr_mult: 20
    decay_mult: 0
  }
  inner_product_param {
    num_output: 32
    weight_filler {
      type: "gaussian"
      std: 0.01
    }
    bias_filler {
      type: "constant"
      value: 0
    }
  }
}
layer {
  name: "latent_sigmoid"
  type: "Sigmoid"
  bottom: "latent"
  top: "latent_sigmoid"
}
layer {
  name: "latent_tanh"
  type: "TanH"
  bottom: "latent"
  top: "latent_tanh"
}
layer {
  name: "latent_tanh_correlation"
  type: "Correlative"
  bottom: "latent_tanh"
  top: "latent_tanh_correlation"
}
layer {
  name: "latent_tanh_Euclidean"
  type: "IndependentLoss"
  bottom: "latent_tanh_correlation"
  top: "loss: independent-loss"
  loss_weight: 1
}
layer {
  name: "fc9"
  type: "InnerProduct"
  bottom: "latent_sigmoid"
  top: "fc9"
  param {
    lr_mult: 10
    decay_mult: 1
  }
  param {
    lr_mult: 20
    decay_mult: 0
  }
  inner_product_param {
    num_output: 10
    weight_filler {
      type: "gaussian"
      std: 0.2
    }
    bias_filler {
      type: "constant"
      value: 0
    }
  }
}
layer {
  name: "accuracy"
  type: "Accuracy"
  bottom: "fc9"
  bottom: "label"
  top: "accuracy"
  include {
    phase: TEST
  }
}
layer {
  name: "loss"
  type: "SoftmaxWithLoss"
  bottom: "fc9"
  bottom: "label"
  top: "loss: classfication-error"
  loss_weight: 1
}
layer {
  name: "loss_1"
  type: "K1_EuclideanLoss"
  bottom: "latent_sigmoid"
  bottom: "latent_sigmoid"
  top: "loss: forcing-binary"
  loss_weight: 1
  propagate_down: true
  propagate_down: false
}
layer {
  name: "latent_sigmoid_reshape"
  type: "Reshape"
  bottom: "latent_sigmoid"
  top: "latent_sigmoid_reshape"
  reshape_param {
    shape {
      dim: 0
      dim: 1
      dim: 1
      dim: -1
    }
  }
}
layer {
  name: "latent_sigmoid_permute"
  type: "Permute"
  bottom: "latent_sigmoid_reshape"
  top: "latent_sigmoid_permute"
  permute_param {
    order: 3
    order: 1
    order: 2
    order: 0
  }
}
layer {
  name: "latent_sigmoid_avg"
  type: "Pooling"
  bottom: "latent_sigmoid_permute"
  top: "latent_sigmoid_avg"
  pooling_param {
    pool: AVE
    kernel_h: 1
    kernel_w: 50
  }
}
layer {
  name: "loss_2"
  type: "K2_EuclideanLoss"
  bottom: "latent_sigmoid_avg"
  bottom: "latent_sigmoid_avg"
  top: "loss: 50%-fire-rate"
  loss_weight: 1
  propagate_down: true
  propagate_down: false
}
I1021 20:18:17.406941 23905 layer_factory.hpp:77] Creating layer data
I1021 20:18:17.543972 23905 db_leveldb.cpp:18] Opened leveldb data/cifar10/cifar10_val_leveldb
I1021 20:18:17.547017 23905 net.cpp:86] Creating Layer data
I1021 20:18:17.547049 23905 net.cpp:382] data -> data
I1021 20:18:17.547070 23905 net.cpp:382] data -> label
I1021 20:18:17.547086 23905 data_transformer.cpp:25] Loading mean file from: ./data/ilsvrc12/imagenet_mean.binaryproto
I1021 20:18:17.550930 23905 data_layer.cpp:45] output data size: 50,3,227,227
I1021 20:18:17.627810 23905 net.cpp:124] Setting up data
I1021 20:18:17.627851 23905 net.cpp:131] Top shape: 50 3 227 227 (7729350)
I1021 20:18:17.627858 23905 net.cpp:131] Top shape: 50 (50)
I1021 20:18:17.627861 23905 net.cpp:139] Memory required for data: 30917600
I1021 20:18:17.627867 23905 layer_factory.hpp:77] Creating layer label_data_1_split
I1021 20:18:17.627883 23905 net.cpp:86] Creating Layer label_data_1_split
I1021 20:18:17.627887 23905 net.cpp:408] label_data_1_split <- label
I1021 20:18:17.627895 23905 net.cpp:382] label_data_1_split -> label_data_1_split_0
I1021 20:18:17.627907 23905 net.cpp:382] label_data_1_split -> label_data_1_split_1
I1021 20:18:17.627981 23905 net.cpp:124] Setting up label_data_1_split
I1021 20:18:17.627987 23905 net.cpp:131] Top shape: 50 (50)
I1021 20:18:17.627991 23905 net.cpp:131] Top shape: 50 (50)
I1021 20:18:17.627993 23905 net.cpp:139] Memory required for data: 30918000
I1021 20:18:17.627996 23905 layer_factory.hpp:77] Creating layer conv1
I1021 20:18:17.628036 23905 net.cpp:86] Creating Layer conv1
I1021 20:18:17.628039 23905 net.cpp:408] conv1 <- data
I1021 20:18:17.628046 23905 net.cpp:382] conv1 -> conv1
I1021 20:18:17.637275 23905 net.cpp:124] Setting up conv1
I1021 20:18:17.637323 23905 net.cpp:131] Top shape: 50 96 55 55 (14520000)
I1021 20:18:17.637331 23905 net.cpp:139] Memory required for data: 88998000
I1021 20:18:17.637353 23905 layer_factory.hpp:77] Creating layer relu1
I1021 20:18:17.637372 23905 net.cpp:86] Creating Layer relu1
I1021 20:18:17.637380 23905 net.cpp:408] relu1 <- conv1
I1021 20:18:17.637392 23905 net.cpp:369] relu1 -> conv1 (in-place)
I1021 20:18:17.637768 23905 net.cpp:124] Setting up relu1
I1021 20:18:17.637790 23905 net.cpp:131] Top shape: 50 96 55 55 (14520000)
I1021 20:18:17.637796 23905 net.cpp:139] Memory required for data: 147078000
I1021 20:18:17.637802 23905 layer_factory.hpp:77] Creating layer pool1
I1021 20:18:17.637820 23905 net.cpp:86] Creating Layer pool1
I1021 20:18:17.637825 23905 net.cpp:408] pool1 <- conv1
I1021 20:18:17.637836 23905 net.cpp:382] pool1 -> pool1
I1021 20:18:17.637926 23905 net.cpp:124] Setting up pool1
I1021 20:18:17.637941 23905 net.cpp:131] Top shape: 50 96 27 27 (3499200)
I1021 20:18:17.637946 23905 net.cpp:139] Memory required for data: 161074800
I1021 20:18:17.637953 23905 layer_factory.hpp:77] Creating layer norm1
I1021 20:18:17.637967 23905 net.cpp:86] Creating Layer norm1
I1021 20:18:17.637974 23905 net.cpp:408] norm1 <- pool1
I1021 20:18:17.637984 23905 net.cpp:382] norm1 -> norm1
I1021 20:18:17.639377 23905 net.cpp:124] Setting up norm1
I1021 20:18:17.639405 23905 net.cpp:131] Top shape: 50 96 27 27 (3499200)
I1021 20:18:17.639412 23905 net.cpp:139] Memory required for data: 175071600
I1021 20:18:17.639420 23905 layer_factory.hpp:77] Creating layer conv2
I1021 20:18:17.639439 23905 net.cpp:86] Creating Layer conv2
I1021 20:18:17.639447 23905 net.cpp:408] conv2 <- norm1
I1021 20:18:17.639459 23905 net.cpp:382] conv2 -> conv2
I1021 20:18:17.653759 23905 net.cpp:124] Setting up conv2
I1021 20:18:17.653791 23905 net.cpp:131] Top shape: 50 256 27 27 (9331200)
I1021 20:18:17.653795 23905 net.cpp:139] Memory required for data: 212396400
I1021 20:18:17.653807 23905 layer_factory.hpp:77] Creating layer relu2
I1021 20:18:17.653816 23905 net.cpp:86] Creating Layer relu2
I1021 20:18:17.653820 23905 net.cpp:408] relu2 <- conv2
I1021 20:18:17.653826 23905 net.cpp:369] relu2 -> conv2 (in-place)
I1021 20:18:17.654594 23905 net.cpp:124] Setting up relu2
I1021 20:18:17.654619 23905 net.cpp:131] Top shape: 50 256 27 27 (9331200)
I1021 20:18:17.654623 23905 net.cpp:139] Memory required for data: 249721200
I1021 20:18:17.654625 23905 layer_factory.hpp:77] Creating layer pool2
I1021 20:18:17.654637 23905 net.cpp:86] Creating Layer pool2
I1021 20:18:17.654640 23905 net.cpp:408] pool2 <- conv2
I1021 20:18:17.654646 23905 net.cpp:382] pool2 -> pool2
I1021 20:18:17.654713 23905 net.cpp:124] Setting up pool2
I1021 20:18:17.654721 23905 net.cpp:131] Top shape: 50 256 13 13 (2163200)
I1021 20:18:17.654723 23905 net.cpp:139] Memory required for data: 258374000
I1021 20:18:17.654726 23905 layer_factory.hpp:77] Creating layer norm2
I1021 20:18:17.654736 23905 net.cpp:86] Creating Layer norm2
I1021 20:18:17.654738 23905 net.cpp:408] norm2 <- pool2
I1021 20:18:17.654744 23905 net.cpp:382] norm2 -> norm2
I1021 20:18:17.654983 23905 net.cpp:124] Setting up norm2
I1021 20:18:17.654995 23905 net.cpp:131] Top shape: 50 256 13 13 (2163200)
I1021 20:18:17.654999 23905 net.cpp:139] Memory required for data: 267026800
I1021 20:18:17.655002 23905 layer_factory.hpp:77] Creating layer conv3
I1021 20:18:17.655016 23905 net.cpp:86] Creating Layer conv3
I1021 20:18:17.655020 23905 net.cpp:408] conv3 <- norm2
I1021 20:18:17.655027 23905 net.cpp:382] conv3 -> conv3
I1021 20:18:17.680918 23905 net.cpp:124] Setting up conv3
I1021 20:18:17.680956 23905 net.cpp:131] Top shape: 50 384 13 13 (3244800)
I1021 20:18:17.680960 23905 net.cpp:139] Memory required for data: 280006000
I1021 20:18:17.681001 23905 layer_factory.hpp:77] Creating layer relu3
I1021 20:18:17.681025 23905 net.cpp:86] Creating Layer relu3
I1021 20:18:17.681030 23905 net.cpp:408] relu3 <- conv3
I1021 20:18:17.681036 23905 net.cpp:369] relu3 -> conv3 (in-place)
I1021 20:18:17.681797 23905 net.cpp:124] Setting up relu3
I1021 20:18:17.681813 23905 net.cpp:131] Top shape: 50 384 13 13 (3244800)
I1021 20:18:17.681815 23905 net.cpp:139] Memory required for data: 292985200
I1021 20:18:17.681830 23905 layer_factory.hpp:77] Creating layer conv4
I1021 20:18:17.681843 23905 net.cpp:86] Creating Layer conv4
I1021 20:18:17.681846 23905 net.cpp:408] conv4 <- conv3
I1021 20:18:17.681852 23905 net.cpp:382] conv4 -> conv4
I1021 20:18:17.703356 23905 net.cpp:124] Setting up conv4
I1021 20:18:17.703388 23905 net.cpp:131] Top shape: 50 384 13 13 (3244800)
I1021 20:18:17.703392 23905 net.cpp:139] Memory required for data: 305964400
I1021 20:18:17.703402 23905 layer_factory.hpp:77] Creating layer relu4
I1021 20:18:17.703411 23905 net.cpp:86] Creating Layer relu4
I1021 20:18:17.703415 23905 net.cpp:408] relu4 <- conv4
I1021 20:18:17.703423 23905 net.cpp:369] relu4 -> conv4 (in-place)
I1021 20:18:17.704166 23905 net.cpp:124] Setting up relu4
I1021 20:18:17.704190 23905 net.cpp:131] Top shape: 50 384 13 13 (3244800)
I1021 20:18:17.704193 23905 net.cpp:139] Memory required for data: 318943600
I1021 20:18:17.704197 23905 layer_factory.hpp:77] Creating layer conv5
I1021 20:18:17.704210 23905 net.cpp:86] Creating Layer conv5
I1021 20:18:17.704214 23905 net.cpp:408] conv5 <- conv4
I1021 20:18:17.704221 23905 net.cpp:382] conv5 -> conv5
I1021 20:18:17.719779 23905 net.cpp:124] Setting up conv5
I1021 20:18:17.719812 23905 net.cpp:131] Top shape: 50 256 13 13 (2163200)
I1021 20:18:17.719816 23905 net.cpp:139] Memory required for data: 327596400
I1021 20:18:17.719830 23905 layer_factory.hpp:77] Creating layer relu5
I1021 20:18:17.719841 23905 net.cpp:86] Creating Layer relu5
I1021 20:18:17.719844 23905 net.cpp:408] relu5 <- conv5
I1021 20:18:17.719851 23905 net.cpp:369] relu5 -> conv5 (in-place)
I1021 20:18:17.720074 23905 net.cpp:124] Setting up relu5
I1021 20:18:17.720088 23905 net.cpp:131] Top shape: 50 256 13 13 (2163200)
I1021 20:18:17.720090 23905 net.cpp:139] Memory required for data: 336249200
I1021 20:18:17.720094 23905 layer_factory.hpp:77] Creating layer pool5
I1021 20:18:17.720106 23905 net.cpp:86] Creating Layer pool5
I1021 20:18:17.720110 23905 net.cpp:408] pool5 <- conv5
I1021 20:18:17.720116 23905 net.cpp:382] pool5 -> pool5
I1021 20:18:17.720177 23905 net.cpp:124] Setting up pool5
I1021 20:18:17.720186 23905 net.cpp:131] Top shape: 50 256 6 6 (460800)
I1021 20:18:17.720190 23905 net.cpp:139] Memory required for data: 338092400
I1021 20:18:17.720192 23905 layer_factory.hpp:77] Creating layer fc6
I1021 20:18:17.720203 23905 net.cpp:86] Creating Layer fc6
I1021 20:18:17.720207 23905 net.cpp:408] fc6 <- pool5
I1021 20:18:17.720213 23905 net.cpp:382] fc6 -> fc6
I1021 20:18:18.720985 23905 net.cpp:124] Setting up fc6
I1021 20:18:18.721017 23905 net.cpp:131] Top shape: 50 4096 (204800)
I1021 20:18:18.721021 23905 net.cpp:139] Memory required for data: 338911600
I1021 20:18:18.721031 23905 layer_factory.hpp:77] Creating layer relu6
I1021 20:18:18.721045 23905 net.cpp:86] Creating Layer relu6
I1021 20:18:18.721050 23905 net.cpp:408] relu6 <- fc6
I1021 20:18:18.721057 23905 net.cpp:369] relu6 -> fc6 (in-place)
I1021 20:18:18.721969 23905 net.cpp:124] Setting up relu6
I1021 20:18:18.721984 23905 net.cpp:131] Top shape: 50 4096 (204800)
I1021 20:18:18.721988 23905 net.cpp:139] Memory required for data: 339730800
I1021 20:18:18.721992 23905 layer_factory.hpp:77] Creating layer drop6
I1021 20:18:18.722002 23905 net.cpp:86] Creating Layer drop6
I1021 20:18:18.722007 23905 net.cpp:408] drop6 <- fc6
I1021 20:18:18.722012 23905 net.cpp:369] drop6 -> fc6 (in-place)
I1021 20:18:18.722061 23905 net.cpp:124] Setting up drop6
I1021 20:18:18.722066 23905 net.cpp:131] Top shape: 50 4096 (204800)
I1021 20:18:18.722069 23905 net.cpp:139] Memory required for data: 340550000
I1021 20:18:18.722093 23905 layer_factory.hpp:77] Creating layer fc7
I1021 20:18:18.722105 23905 net.cpp:86] Creating Layer fc7
I1021 20:18:18.722108 23905 net.cpp:408] fc7 <- fc6
I1021 20:18:18.722115 23905 net.cpp:382] fc7 -> fc7
I1021 20:18:19.177224 23905 net.cpp:124] Setting up fc7
I1021 20:18:19.177248 23905 net.cpp:131] Top shape: 50 4096 (204800)
I1021 20:18:19.177253 23905 net.cpp:139] Memory required for data: 341369200
I1021 20:18:19.177265 23905 layer_factory.hpp:77] Creating layer relu7
I1021 20:18:19.177275 23905 net.cpp:86] Creating Layer relu7
I1021 20:18:19.177281 23905 net.cpp:408] relu7 <- fc7
I1021 20:18:19.177299 23905 net.cpp:369] relu7 -> fc7 (in-place)
I1021 20:18:19.177637 23905 net.cpp:124] Setting up relu7
I1021 20:18:19.177649 23905 net.cpp:131] Top shape: 50 4096 (204800)
I1021 20:18:19.177664 23905 net.cpp:139] Memory required for data: 342188400
I1021 20:18:19.177667 23905 layer_factory.hpp:77] Creating layer drop7
I1021 20:18:19.177675 23905 net.cpp:86] Creating Layer drop7
I1021 20:18:19.177680 23905 net.cpp:408] drop7 <- fc7
I1021 20:18:19.177685 23905 net.cpp:369] drop7 -> fc7 (in-place)
I1021 20:18:19.177721 23905 net.cpp:124] Setting up drop7
I1021 20:18:19.177726 23905 net.cpp:131] Top shape: 50 4096 (204800)
I1021 20:18:19.177728 23905 net.cpp:139] Memory required for data: 343007600
I1021 20:18:19.177731 23905 layer_factory.hpp:77] Creating layer latent
I1021 20:18:19.177740 23905 net.cpp:86] Creating Layer latent
I1021 20:18:19.177744 23905 net.cpp:408] latent <- fc7
I1021 20:18:19.177750 23905 net.cpp:382] latent -> latent
I1021 20:18:19.181118 23905 net.cpp:124] Setting up latent
I1021 20:18:19.181129 23905 net.cpp:131] Top shape: 50 32 (1600)
I1021 20:18:19.181133 23905 net.cpp:139] Memory required for data: 343014000
I1021 20:18:19.181138 23905 layer_factory.hpp:77] Creating layer latent_latent_0_split
I1021 20:18:19.181143 23905 net.cpp:86] Creating Layer latent_latent_0_split
I1021 20:18:19.181146 23905 net.cpp:408] latent_latent_0_split <- latent
I1021 20:18:19.181152 23905 net.cpp:382] latent_latent_0_split -> latent_latent_0_split_0
I1021 20:18:19.181157 23905 net.cpp:382] latent_latent_0_split -> latent_latent_0_split_1
I1021 20:18:19.181211 23905 net.cpp:124] Setting up latent_latent_0_split
I1021 20:18:19.181231 23905 net.cpp:131] Top shape: 50 32 (1600)
I1021 20:18:19.181251 23905 net.cpp:131] Top shape: 50 32 (1600)
I1021 20:18:19.181253 23905 net.cpp:139] Memory required for data: 343026800
I1021 20:18:19.181257 23905 layer_factory.hpp:77] Creating layer latent_sigmoid
I1021 20:18:19.181263 23905 net.cpp:86] Creating Layer latent_sigmoid
I1021 20:18:19.181267 23905 net.cpp:408] latent_sigmoid <- latent_latent_0_split_0
I1021 20:18:19.181272 23905 net.cpp:382] latent_sigmoid -> latent_sigmoid
I1021 20:18:19.182027 23905 net.cpp:124] Setting up latent_sigmoid
I1021 20:18:19.182041 23905 net.cpp:131] Top shape: 50 32 (1600)
I1021 20:18:19.182045 23905 net.cpp:139] Memory required for data: 343033200
I1021 20:18:19.182049 23905 layer_factory.hpp:77] Creating layer latent_sigmoid_latent_sigmoid_0_split
I1021 20:18:19.182055 23905 net.cpp:86] Creating Layer latent_sigmoid_latent_sigmoid_0_split
I1021 20:18:19.182058 23905 net.cpp:408] latent_sigmoid_latent_sigmoid_0_split <- latent_sigmoid
I1021 20:18:19.182065 23905 net.cpp:382] latent_sigmoid_latent_sigmoid_0_split -> latent_sigmoid_latent_sigmoid_0_split_0
I1021 20:18:19.182072 23905 net.cpp:382] latent_sigmoid_latent_sigmoid_0_split -> latent_sigmoid_latent_sigmoid_0_split_1
I1021 20:18:19.182090 23905 net.cpp:382] latent_sigmoid_latent_sigmoid_0_split -> latent_sigmoid_latent_sigmoid_0_split_2
I1021 20:18:19.182094 23905 net.cpp:382] latent_sigmoid_latent_sigmoid_0_split -> latent_sigmoid_latent_sigmoid_0_split_3
I1021 20:18:19.182165 23905 net.cpp:124] Setting up latent_sigmoid_latent_sigmoid_0_split
I1021 20:18:19.182173 23905 net.cpp:131] Top shape: 50 32 (1600)
I1021 20:18:19.182178 23905 net.cpp:131] Top shape: 50 32 (1600)
I1021 20:18:19.182180 23905 net.cpp:131] Top shape: 50 32 (1600)
I1021 20:18:19.182183 23905 net.cpp:131] Top shape: 50 32 (1600)
I1021 20:18:19.182202 23905 net.cpp:139] Memory required for data: 343058800
I1021 20:18:19.182206 23905 layer_factory.hpp:77] Creating layer latent_tanh
I1021 20:18:19.182212 23905 net.cpp:86] Creating Layer latent_tanh
I1021 20:18:19.182216 23905 net.cpp:408] latent_tanh <- latent_latent_0_split_1
I1021 20:18:19.182222 23905 net.cpp:382] latent_tanh -> latent_tanh
I1021 20:18:19.182430 23905 net.cpp:124] Setting up latent_tanh
I1021 20:18:19.182441 23905 net.cpp:131] Top shape: 50 32 (1600)
I1021 20:18:19.182445 23905 net.cpp:139] Memory required for data: 343065200
I1021 20:18:19.182447 23905 layer_factory.hpp:77] Creating layer latent_tanh_correlation
I1021 20:18:19.182454 23905 net.cpp:86] Creating Layer latent_tanh_correlation
I1021 20:18:19.182457 23905 net.cpp:408] latent_tanh_correlation <- latent_tanh
I1021 20:18:19.182463 23905 net.cpp:382] latent_tanh_correlation -> latent_tanh_correlation
I1021 20:18:19.182492 23905 net.cpp:124] Setting up latent_tanh_correlation
I1021 20:18:19.182500 23905 net.cpp:131] Top shape: 32 32 (1024)
I1021 20:18:19.182510 23905 net.cpp:139] Memory required for data: 343069296
I1021 20:18:19.182513 23905 layer_factory.hpp:77] Creating layer latent_tanh_Euclidean
I1021 20:18:19.182520 23905 net.cpp:86] Creating Layer latent_tanh_Euclidean
I1021 20:18:19.182523 23905 net.cpp:408] latent_tanh_Euclidean <- latent_tanh_correlation
I1021 20:18:19.182529 23905 net.cpp:382] latent_tanh_Euclidean -> loss: independent-loss
I1021 20:18:19.182600 23905 net.cpp:124] Setting up latent_tanh_Euclidean
I1021 20:18:19.182608 23905 net.cpp:131] Top shape: (1)
I1021 20:18:19.182611 23905 net.cpp:134]     with loss weight 1
I1021 20:18:19.182622 23905 net.cpp:139] Memory required for data: 343069300
I1021 20:18:19.182627 23905 layer_factory.hpp:77] Creating layer fc9
I1021 20:18:19.182634 23905 net.cpp:86] Creating Layer fc9
I1021 20:18:19.182637 23905 net.cpp:408] fc9 <- latent_sigmoid_latent_sigmoid_0_split_0
I1021 20:18:19.182644 23905 net.cpp:382] fc9 -> fc9
I1021 20:18:19.182795 23905 net.cpp:124] Setting up fc9
I1021 20:18:19.182803 23905 net.cpp:131] Top shape: 50 10 (500)
I1021 20:18:19.182806 23905 net.cpp:139] Memory required for data: 343071300
I1021 20:18:19.182818 23905 layer_factory.hpp:77] Creating layer fc9_fc9_0_split
I1021 20:18:19.182824 23905 net.cpp:86] Creating Layer fc9_fc9_0_split
I1021 20:18:19.182827 23905 net.cpp:408] fc9_fc9_0_split <- fc9
I1021 20:18:19.182832 23905 net.cpp:382] fc9_fc9_0_split -> fc9_fc9_0_split_0
I1021 20:18:19.182838 23905 net.cpp:382] fc9_fc9_0_split -> fc9_fc9_0_split_1
I1021 20:18:19.182879 23905 net.cpp:124] Setting up fc9_fc9_0_split
I1021 20:18:19.182888 23905 net.cpp:131] Top shape: 50 10 (500)
I1021 20:18:19.182891 23905 net.cpp:131] Top shape: 50 10 (500)
I1021 20:18:19.182894 23905 net.cpp:139] Memory required for data: 343075300
I1021 20:18:19.182896 23905 layer_factory.hpp:77] Creating layer accuracy
I1021 20:18:19.182914 23905 net.cpp:86] Creating Layer accuracy
I1021 20:18:19.182917 23905 net.cpp:408] accuracy <- fc9_fc9_0_split_0
I1021 20:18:19.182921 23905 net.cpp:408] accuracy <- label_data_1_split_0
I1021 20:18:19.182926 23905 net.cpp:382] accuracy -> accuracy
…
