…
I1120 10:12:15.842777  7371 net.cpp:296] The NetState phase (0) differed from the phase (1) specified by a rule in layer accuracy
I1120 10:12:15.842974  7371 net.cpp:53] Initializing net from parameters: 
name: "SSDH"
state {
  phase: TRAIN
  level: 0
  stage: ""
}
layer {
  name: "data"
  type: "Data"
  top: "data"
  top: "label"
  include {
    phase: TRAIN
  }
  transform_param {
    mirror: true
    crop_size: 227
    mean_file: "./data/ilsvrc12/imagenet_mean.binaryproto"
  }
  data_param {
    source: "data/cifar10/cifar10_train_leveldb"
    batch_size: 32
  }
}
layer {
  name: "conv1"
  type: "Convolution"
  bottom: "data"
  top: "conv1"
  param {
    lr_mult: 1
    decay_mult: 1
  }
  param {
    lr_mult: 2
    decay_mult: 0
  }
  convolution_param {
    num_output: 96
    kernel_size: 11
    stride: 4
    weight_filler {
      type: "gaussian"
      std: 0.01
    }
    bias_filler {
      type: "constant"
      value: 0
    }
  }
}
layer {
  name: "relu1"
  type: "ReLU"
  bottom: "conv1"
  top: "conv1"
}
layer {
  name: "pool1"
  type: "Pooling"
  bottom: "conv1"
  top: "pool1"
  pooling_param {
    pool: MAX
    kernel_size: 3
    stride: 2
  }
}
layer {
  name: "norm1"
  type: "LRN"
  bottom: "pool1"
  top: "norm1"
  lrn_param {
    local_size: 5
    alpha: 0.0001
    beta: 0.75
  }
}
layer {
  name: "conv2"
  type: "Convolution"
  bottom: "norm1"
  top: "conv2"
  param {
    lr_mult: 1
    decay_mult: 1
  }
  param {
    lr_mult: 2
    decay_mult: 0
  }
  convolution_param {
    num_output: 256
    pad: 2
    kernel_size: 5
    group: 2
    weight_filler {
      type: "gaussian"
      std: 0.01
    }
    bias_filler {
      type: "constant"
      value: 1
    }
  }
}
layer {
  name: "relu2"
  type: "ReLU"
  bottom: "conv2"
  top: "conv2"
}
layer {
  name: "pool2"
  type: "Pooling"
  bottom: "conv2"
  top: "pool2"
  pooling_param {
    pool: MAX
    kernel_size: 3
    stride: 2
  }
}
layer {
  name: "norm2"
  type: "LRN"
  bottom: "pool2"
  top: "norm2"
  lrn_param {
    local_size: 5
    alpha: 0.0001
    beta: 0.75
  }
}
layer {
  name: "conv3"
  type: "Convolution"
  bottom: "norm2"
  top: "conv3"
  param {
    lr_mult: 1
    decay_mult: 1
  }
  param {
    lr_mult: 2
    decay_mult: 0
  }
  convolution_param {
    num_output: 384
    pad: 1
    kernel_size: 3
    weight_filler {
      type: "gaussian"
      std: 0.01
    }
    bias_filler {
      type: "constant"
      value: 0
    }
  }
}
layer {
  name: "relu3"
  type: "ReLU"
  bottom: "conv3"
  top: "conv3"
}
layer {
  name: "conv4"
  type: "Convolution"
  bottom: "conv3"
  top: "conv4"
  param {
    lr_mult: 1
    decay_mult: 1
  }
  param {
    lr_mult: 2
    decay_mult: 0
  }
  convolution_param {
    num_output: 384
    pad: 1
    kernel_size: 3
    group: 2
    weight_filler {
      type: "gaussian"
      std: 0.01
    }
    bias_filler {
      type: "constant"
      value: 1
    }
  }
}
layer {
  name: "relu4"
  type: "ReLU"
  bottom: "conv4"
  top: "conv4"
}
layer {
  name: "conv5"
  type: "Convolution"
  bottom: "conv4"
  top: "conv5"
  param {
    lr_mult: 1
    decay_mult: 1
  }
  param {
    lr_mult: 2
    decay_mult: 0
  }
  convolution_param {
    num_output: 256
    pad: 1
    kernel_size: 3
    group: 2
    weight_filler {
      type: "gaussian"
      std: 0.01
    }
    bias_filler {
      type: "constant"
      value: 1
    }
  }
}
layer {
  name: "relu5"
  type: "ReLU"
  bottom: "conv5"
  top: "conv5"
}
layer {
  name: "pool5"
  type: "Pooling"
  bottom: "conv5"
  top: "pool5"
  pooling_param {
    pool: MAX
    kernel_size: 3
    stride: 2
  }
}
layer {
  name: "fc6"
  type: "InnerProduct"
  bottom: "pool5"
  top: "fc6"
  param {
    lr_mult: 1
    decay_mult: 1
  }
  param {
    lr_mult: 2
    decay_mult: 0
  }
  inner_product_param {
    num_output: 4096
    weight_filler {
      type: "gaussian"
      std: 0.005
    }
    bias_filler {
      type: "constant"
      value: 1
    }
  }
}
layer {
  name: "relu6"
  type: "ReLU"
  bottom: "fc6"
  top: "fc6"
}
layer {
  name: "drop6"
  type: "Dropout"
  bottom: "fc6"
  top: "fc6"
  dropout_param {
    dropout_ratio: 0.5
  }
}
layer {
  name: "fc7"
  type: "InnerProduct"
  bottom: "fc6"
  top: "fc7"
  param {
    lr_mult: 1
    decay_mult: 1
  }
  param {
    lr_mult: 2
    decay_mult: 0
  }
  inner_product_param {
    num_output: 4096
    weight_filler {
      type: "gaussian"
      std: 0.005
    }
    bias_filler {
      type: "constant"
      value: 1
    }
  }
}
layer {
  name: "relu7"
  type: "ReLU"
  bottom: "fc7"
  top: "fc7"
}
layer {
  name: "drop7"
  type: "Dropout"
  bottom: "fc7"
  top: "fc7"
  dropout_param {
    dropout_ratio: 0.5
  }
}
layer {
  name: "latent"
  type: "InnerProduct"
  bottom: "fc7"
  top: "latent"
  param {
    lr_mult: 1
    decay_mult: 1
  }
  param {
    lr_mult: 2
    decay_mult: 0
  }
  inner_product_param {
    num_output: 36
    weight_filler {
      type: "gaussian"
      std: 0.01
    }
    bias_filler {
      type: "constant"
      value: 0
    }
  }
}
layer {
  name: "latent_sigmoid"
  type: "Sigmoid"
  bottom: "latent"
  top: "latent_sigmoid"
}
layer {
  name: "loss_1"
  type: "K1_EuclideanLoss"
  bottom: "latent_sigmoid"
  bottom: "latent_sigmoid"
  top: "loss: forcing-binary"
  loss_weight: 1
  propagate_down: true
  propagate_down: false
}
layer {
  name: "latent_sigmoid_reshape"
  type: "Reshape"
  bottom: "latent_sigmoid"
  top: "latent_sigmoid_reshape"
  reshape_param {
    shape {
      dim: 0
      dim: 1
      dim: 1
      dim: -1
    }
  }
}
layer {
  name: "latent_sigmoid_avg"
  type: "Pooling"
  bottom: "latent_sigmoid_reshape"
  top: "latent_sigmoid_avg"
  pooling_param {
    pool: AVE
    kernel_h: 1
    kernel_w: 36
  }
}
layer {
  name: "loss_2"
  type: "K2_EuclideanLoss"
  bottom: "latent_sigmoid_avg"
  bottom: "latent_sigmoid_avg"
  top: "loss: 50%-fire-rate"
  loss_weight: 1
  propagate_down: true
  propagate_down: false
}
layer {
  name: "fc9"
  type: "InnerProduct"
  bottom: "latent_sigmoid"
  top: "fc9"
  param {
    lr_mult: 10
    decay_mult: 1
  }
  param {
    lr_mult: 20
    decay_mult: 0
  }
  inner_product_param {
    num_output: 10
    weight_filler {
      type: "gaussian"
      std: 0.2
    }
    bias_filler {
      type: "constant"
      value: 0
    }
  }
}
layer {
  name: "loss"
  type: "SoftmaxWithLoss"
  bottom: "fc9"
  bottom: "label"
  top: "loss: classfication-error"
  loss_weight: 1
}
I1120 10:12:15.843176  7371 layer_factory.hpp:77] Creating layer data
I1120 10:12:15.907946  7371 db_leveldb.cpp:18] Opened leveldb data/cifar10/cifar10_train_leveldb
I1120 10:12:15.911409  7371 net.cpp:86] Creating Layer data
I1120 10:12:15.911448  7371 net.cpp:382] data -> data
I1120 10:12:15.911499  7371 net.cpp:382] data -> label
I1120 10:12:15.911530  7371 data_transformer.cpp:25] Loading mean file from: ./data/ilsvrc12/imagenet_mean.binaryproto
I1120 10:12:15.917361  7371 data_layer.cpp:45] output data size: 32,3,227,227
I1120 10:12:15.963551  7371 net.cpp:124] Setting up data
I1120 10:12:15.963603  7371 net.cpp:131] Top shape: 32 3 227 227 (4946784)
I1120 10:12:15.963608  7371 net.cpp:131] Top shape: 32 (32)
I1120 10:12:15.963613  7371 net.cpp:139] Memory required for data: 19787264
I1120 10:12:15.963623  7371 layer_factory.hpp:77] Creating layer conv1
I1120 10:12:15.963659  7371 net.cpp:86] Creating Layer conv1
I1120 10:12:15.963666  7371 net.cpp:408] conv1 <- data
I1120 10:12:15.963701  7371 net.cpp:382] conv1 -> conv1
I1120 10:12:16.253132  7371 net.cpp:124] Setting up conv1
I1120 10:12:16.253187  7371 net.cpp:131] Top shape: 32 96 55 55 (9292800)
I1120 10:12:16.253193  7371 net.cpp:139] Memory required for data: 56958464
I1120 10:12:16.253252  7371 layer_factory.hpp:77] Creating layer relu1
I1120 10:12:16.253310  7371 net.cpp:86] Creating Layer relu1
I1120 10:12:16.253319  7371 net.cpp:408] relu1 <- conv1
I1120 10:12:16.253332  7371 net.cpp:369] relu1 -> conv1 (in-place)
I1120 10:12:16.254122  7371 net.cpp:124] Setting up relu1
I1120 10:12:16.254138  7371 net.cpp:131] Top shape: 32 96 55 55 (9292800)
I1120 10:12:16.254142  7371 net.cpp:139] Memory required for data: 94129664
I1120 10:12:16.254146  7371 layer_factory.hpp:77] Creating layer pool1
I1120 10:12:16.254164  7371 net.cpp:86] Creating Layer pool1
I1120 10:12:16.254169  7371 net.cpp:408] pool1 <- conv1
I1120 10:12:16.254176  7371 net.cpp:382] pool1 -> pool1
I1120 10:12:16.254253  7371 net.cpp:124] Setting up pool1
I1120 10:12:16.254271  7371 net.cpp:131] Top shape: 32 96 27 27 (2239488)
I1120 10:12:16.254282  7371 net.cpp:139] Memory required for data: 103087616
I1120 10:12:16.254287  7371 layer_factory.hpp:77] Creating layer norm1
I1120 10:12:16.254299  7371 net.cpp:86] Creating Layer norm1
I1120 10:12:16.254305  7371 net.cpp:408] norm1 <- pool1
I1120 10:12:16.254312  7371 net.cpp:382] norm1 -> norm1
I1120 10:12:16.254541  7371 net.cpp:124] Setting up norm1
I1120 10:12:16.254555  7371 net.cpp:131] Top shape: 32 96 27 27 (2239488)
I1120 10:12:16.254559  7371 net.cpp:139] Memory required for data: 112045568
I1120 10:12:16.254564  7371 layer_factory.hpp:77] Creating layer conv2
I1120 10:12:16.254582  7371 net.cpp:86] Creating Layer conv2
I1120 10:12:16.254587  7371 net.cpp:408] conv2 <- norm1
I1120 10:12:16.254593  7371 net.cpp:382] conv2 -> conv2
I1120 10:12:16.269215  7371 net.cpp:124] Setting up conv2
I1120 10:12:16.269243  7371 net.cpp:131] Top shape: 32 256 27 27 (5971968)
I1120 10:12:16.269254  7371 net.cpp:139] Memory required for data: 135933440
I1120 10:12:16.269265  7371 layer_factory.hpp:77] Creating layer relu2
I1120 10:12:16.269274  7371 net.cpp:86] Creating Layer relu2
I1120 10:12:16.269279  7371 net.cpp:408] relu2 <- conv2
I1120 10:12:16.269285  7371 net.cpp:369] relu2 -> conv2 (in-place)
I1120 10:12:16.270108  7371 net.cpp:124] Setting up relu2
I1120 10:12:16.270125  7371 net.cpp:131] Top shape: 32 256 27 27 (5971968)
I1120 10:12:16.270135  7371 net.cpp:139] Memory required for data: 159821312
I1120 10:12:16.270139  7371 layer_factory.hpp:77] Creating layer pool2
I1120 10:12:16.270159  7371 net.cpp:86] Creating Layer pool2
I1120 10:12:16.270164  7371 net.cpp:408] pool2 <- conv2
I1120 10:12:16.270172  7371 net.cpp:382] pool2 -> pool2
I1120 10:12:16.270223  7371 net.cpp:124] Setting up pool2
I1120 10:12:16.270229  7371 net.cpp:131] Top shape: 32 256 13 13 (1384448)
I1120 10:12:16.270233  7371 net.cpp:139] Memory required for data: 165359104
I1120 10:12:16.270236  7371 layer_factory.hpp:77] Creating layer norm2
I1120 10:12:16.270246  7371 net.cpp:86] Creating Layer norm2
I1120 10:12:16.270251  7371 net.cpp:408] norm2 <- pool2
I1120 10:12:16.270257  7371 net.cpp:382] norm2 -> norm2
I1120 10:12:16.270494  7371 net.cpp:124] Setting up norm2
I1120 10:12:16.270509  7371 net.cpp:131] Top shape: 32 256 13 13 (1384448)
I1120 10:12:16.270512  7371 net.cpp:139] Memory required for data: 170896896
I1120 10:12:16.270516  7371 layer_factory.hpp:77] Creating layer conv3
I1120 10:12:16.270527  7371 net.cpp:86] Creating Layer conv3
I1120 10:12:16.270532  7371 net.cpp:408] conv3 <- norm2
I1120 10:12:16.270541  7371 net.cpp:382] conv3 -> conv3
I1120 10:12:16.302762  7371 net.cpp:124] Setting up conv3
I1120 10:12:16.302794  7371 net.cpp:131] Top shape: 32 384 13 13 (2076672)
I1120 10:12:16.302798  7371 net.cpp:139] Memory required for data: 179203584
I1120 10:12:16.302809  7371 layer_factory.hpp:77] Creating layer relu3
I1120 10:12:16.302817  7371 net.cpp:86] Creating Layer relu3
I1120 10:12:16.302821  7371 net.cpp:408] relu3 <- conv3
I1120 10:12:16.302848  7371 net.cpp:369] relu3 -> conv3 (in-place)
I1120 10:12:16.303074  7371 net.cpp:124] Setting up relu3
I1120 10:12:16.303088  7371 net.cpp:131] Top shape: 32 384 13 13 (2076672)
I1120 10:12:16.303092  7371 net.cpp:139] Memory required for data: 187510272
I1120 10:12:16.303103  7371 layer_factory.hpp:77] Creating layer conv4
I1120 10:12:16.303120  7371 net.cpp:86] Creating Layer conv4
I1120 10:12:16.303125  7371 net.cpp:408] conv4 <- conv3
I1120 10:12:16.303133  7371 net.cpp:382] conv4 -> conv4
I1120 10:12:16.329663  7371 net.cpp:124] Setting up conv4
I1120 10:12:16.329685  7371 net.cpp:131] Top shape: 32 384 13 13 (2076672)
I1120 10:12:16.329689  7371 net.cpp:139] Memory required for data: 195816960
I1120 10:12:16.329697  7371 layer_factory.hpp:77] Creating layer relu4
I1120 10:12:16.329704  7371 net.cpp:86] Creating Layer relu4
I1120 10:12:16.329708  7371 net.cpp:408] relu4 <- conv4
I1120 10:12:16.329715  7371 net.cpp:369] relu4 -> conv4 (in-place)
I1120 10:12:16.330508  7371 net.cpp:124] Setting up relu4
I1120 10:12:16.330524  7371 net.cpp:131] Top shape: 32 384 13 13 (2076672)
I1120 10:12:16.330528  7371 net.cpp:139] Memory required for data: 204123648
I1120 10:12:16.330533  7371 layer_factory.hpp:77] Creating layer conv5
I1120 10:12:16.330554  7371 net.cpp:86] Creating Layer conv5
I1120 10:12:16.330559  7371 net.cpp:408] conv5 <- conv4
I1120 10:12:16.330565  7371 net.cpp:382] conv5 -> conv5
I1120 10:12:16.349797  7371 net.cpp:124] Setting up conv5
I1120 10:12:16.349817  7371 net.cpp:131] Top shape: 32 256 13 13 (1384448)
I1120 10:12:16.349822  7371 net.cpp:139] Memory required for data: 209661440
I1120 10:12:16.349831  7371 layer_factory.hpp:77] Creating layer relu5
I1120 10:12:16.349846  7371 net.cpp:86] Creating Layer relu5
I1120 10:12:16.349851  7371 net.cpp:408] relu5 <- conv5
I1120 10:12:16.349856  7371 net.cpp:369] relu5 -> conv5 (in-place)
I1120 10:12:16.350652  7371 net.cpp:124] Setting up relu5
I1120 10:12:16.350668  7371 net.cpp:131] Top shape: 32 256 13 13 (1384448)
I1120 10:12:16.350672  7371 net.cpp:139] Memory required for data: 215199232
I1120 10:12:16.350677  7371 layer_factory.hpp:77] Creating layer pool5
I1120 10:12:16.350687  7371 net.cpp:86] Creating Layer pool5
I1120 10:12:16.350690  7371 net.cpp:408] pool5 <- conv5
I1120 10:12:16.350698  7371 net.cpp:382] pool5 -> pool5
I1120 10:12:16.350751  7371 net.cpp:124] Setting up pool5
I1120 10:12:16.350759  7371 net.cpp:131] Top shape: 32 256 6 6 (294912)
I1120 10:12:16.350761  7371 net.cpp:139] Memory required for data: 216378880
I1120 10:12:16.350764  7371 layer_factory.hpp:77] Creating layer fc6
I1120 10:12:16.350787  7371 net.cpp:86] Creating Layer fc6
I1120 10:12:16.350792  7371 net.cpp:408] fc6 <- pool5
I1120 10:12:16.350800  7371 net.cpp:382] fc6 -> fc6
I1120 10:12:17.421066  7371 net.cpp:124] Setting up fc6
I1120 10:12:17.421116  7371 net.cpp:131] Top shape: 32 4096 (131072)
I1120 10:12:17.421121  7371 net.cpp:139] Memory required for data: 216903168
I1120 10:12:17.421133  7371 layer_factory.hpp:77] Creating layer relu6
I1120 10:12:17.421149  7371 net.cpp:86] Creating Layer relu6
I1120 10:12:17.421154  7371 net.cpp:408] relu6 <- fc6
I1120 10:12:17.421162  7371 net.cpp:369] relu6 -> fc6 (in-place)
I1120 10:12:17.421478  7371 net.cpp:124] Setting up relu6
I1120 10:12:17.421491  7371 net.cpp:131] Top shape: 32 4096 (131072)
I1120 10:12:17.421494  7371 net.cpp:139] Memory required for data: 217427456
I1120 10:12:17.421499  7371 layer_factory.hpp:77] Creating layer drop6
I1120 10:12:17.421510  7371 net.cpp:86] Creating Layer drop6
I1120 10:12:17.421514  7371 net.cpp:408] drop6 <- fc6
I1120 10:12:17.421520  7371 net.cpp:369] drop6 -> fc6 (in-place)
I1120 10:12:17.421562  7371 net.cpp:124] Setting up drop6
I1120 10:12:17.421572  7371 net.cpp:131] Top shape: 32 4096 (131072)
I1120 10:12:17.421576  7371 net.cpp:139] Memory required for data: 217951744
I1120 10:12:17.421579  7371 layer_factory.hpp:77] Creating layer fc7
I1120 10:12:17.421588  7371 net.cpp:86] Creating Layer fc7
I1120 10:12:17.421592  7371 net.cpp:408] fc7 <- fc6
I1120 10:12:17.421636  7371 net.cpp:382] fc7 -> fc7
I1120 10:12:17.896239  7371 net.cpp:124] Setting up fc7
I1120 10:12:17.896287  7371 net.cpp:131] Top shape: 32 4096 (131072)
I1120 10:12:17.896291  7371 net.cpp:139] Memory required for data: 218476032
I1120 10:12:17.896302  7371 layer_factory.hpp:77] Creating layer relu7
I1120 10:12:17.896318  7371 net.cpp:86] Creating Layer relu7
I1120 10:12:17.896323  7371 net.cpp:408] relu7 <- fc7
I1120 10:12:17.896333  7371 net.cpp:369] relu7 -> fc7 (in-place)
I1120 10:12:17.897312  7371 net.cpp:124] Setting up relu7
I1120 10:12:17.897328  7371 net.cpp:131] Top shape: 32 4096 (131072)
I1120 10:12:17.897343  7371 net.cpp:139] Memory required for data: 219000320
I1120 10:12:17.897347  7371 layer_factory.hpp:77] Creating layer drop7
I1120 10:12:17.897356  7371 net.cpp:86] Creating Layer drop7
I1120 10:12:17.897361  7371 net.cpp:408] drop7 <- fc7
I1120 10:12:17.897370  7371 net.cpp:369] drop7 -> fc7 (in-place)
I1120 10:12:17.897408  7371 net.cpp:124] Setting up drop7
I1120 10:12:17.897415  7371 net.cpp:131] Top shape: 32 4096 (131072)
I1120 10:12:17.897419  7371 net.cpp:139] Memory required for data: 219524608
I1120 10:12:17.897423  7371 layer_factory.hpp:77] Creating layer latent
I1120 10:12:17.897433  7371 net.cpp:86] Creating Layer latent
I1120 10:12:17.897440  7371 net.cpp:408] latent <- fc7
I1120 10:12:17.897449  7371 net.cpp:382] latent -> latent
I1120 10:12:17.902132  7371 net.cpp:124] Setting up latent
I1120 10:12:17.902159  7371 net.cpp:131] Top shape: 32 36 (1152)
I1120 10:12:17.902163  7371 net.cpp:139] Memory required for data: 219529216
I1120 10:12:17.902169  7371 layer_factory.hpp:77] Creating layer latent_sigmoid
I1120 10:12:17.902179  7371 net.cpp:86] Creating Layer latent_sigmoid
I1120 10:12:17.902182  7371 net.cpp:408] latent_sigmoid <- latent
I1120 10:12:17.902199  7371 net.cpp:382] latent_sigmoid -> latent_sigmoid
I1120 10:12:17.902434  7371 net.cpp:124] Setting up latent_sigmoid
I1120 10:12:17.902447  7371 net.cpp:131] Top shape: 32 36 (1152)
I1120 10:12:17.902451  7371 net.cpp:139] Memory required for data: 219533824
I1120 10:12:17.902454  7371 layer_factory.hpp:77] Creating layer latent_sigmoid_latent_sigmoid_0_split
I1120 10:12:17.902467  7371 net.cpp:86] Creating Layer latent_sigmoid_latent_sigmoid_0_split
I1120 10:12:17.902469  7371 net.cpp:408] latent_sigmoid_latent_sigmoid_0_split <- latent_sigmoid
I1120 10:12:17.902477  7371 net.cpp:382] latent_sigmoid_latent_sigmoid_0_split -> latent_sigmoid_latent_sigmoid_0_split_0
I1120 10:12:17.902487  7371 net.cpp:382] latent_sigmoid_latent_sigmoid_0_split -> latent_sigmoid_latent_sigmoid_0_split_1
I1120 10:12:17.902493  7371 net.cpp:382] latent_sigmoid_latent_sigmoid_0_split -> latent_sigmoid_latent_sigmoid_0_split_2
I1120 10:12:17.902498  7371 net.cpp:382] latent_sigmoid_latent_sigmoid_0_split -> latent_sigmoid_latent_sigmoid_0_split_3
I1120 10:12:17.902566  7371 net.cpp:124] Setting up latent_sigmoid_latent_sigmoid_0_split
I1120 10:12:17.902575  7371 net.cpp:131] Top shape: 32 36 (1152)
I1120 10:12:17.902580  7371 net.cpp:131] Top shape: 32 36 (1152)
I1120 10:12:17.902583  7371 net.cpp:131] Top shape: 32 36 (1152)
I1120 10:12:17.902586  7371 net.cpp:131] Top shape: 32 36 (1152)
I1120 10:12:17.902590  7371 net.cpp:139] Memory required for data: 219552256
I1120 10:12:17.902592  7371 layer_factory.hpp:77] Creating layer loss_1
I1120 10:12:17.902601  7371 net.cpp:86] Creating Layer loss_1
I1120 10:12:17.902606  7371 net.cpp:408] loss_1 <- latent_sigmoid_latent_sigmoid_0_split_0
I1120 10:12:17.902609  7371 net.cpp:408] loss_1 <- latent_sigmoid_latent_sigmoid_0_split_1
I1120 10:12:17.902614  7371 net.cpp:382] loss_1 -> loss: forcing-binary
I1120 10:12:17.902668  7371 net.cpp:124] Setting up loss_1
I1120 10:12:17.902676  7371 net.cpp:131] Top shape: (1)
I1120 10:12:17.902680  7371 net.cpp:134]     with loss weight 1
I1120 10:12:17.902710  7371 net.cpp:139] Memory required for data: 219552260
I1120 10:12:17.902714  7371 layer_factory.hpp:77] Creating layer latent_sigmoid_reshape
I1120 10:12:17.902726  7371 net.cpp:86] Creating Layer latent_sigmoid_reshape
I1120 10:12:17.902750  7371 net.cpp:408] latent_sigmoid_reshape <- latent_sigmoid_latent_sigmoid_0_split_2
I1120 10:12:17.902755  7371 net.cpp:382] latent_sigmoid_reshape -> latent_sigmoid_reshape
I1120 10:12:17.902796  7371 net.cpp:124] Setting up latent_sigmoid_reshape
I1120 10:12:17.902806  7371 net.cpp:131] Top shape: 32 1 1 36 (1152)
I1120 10:12:17.902809  7371 net.cpp:139] Memory required for data: 219556868
I1120 10:12:17.902812  7371 layer_factory.hpp:77] Creating layer latent_sigmoid_avg
I1120 10:12:17.902822  7371 net.cpp:86] Creating Layer latent_sigmoid_avg
I1120 10:12:17.902825  7371 net.cpp:408] latent_sigmoid_avg <- latent_sigmoid_reshape
I1120 10:12:17.902832  7371 net.cpp:382] latent_sigmoid_avg -> latent_sigmoid_avg
I1120 10:12:17.903585  7371 net.cpp:124] Setting up latent_sigmoid_avg
I1120 10:12:17.903600  7371 net.cpp:131] Top shape: 32 1 1 1 (32)
I1120 10:12:17.903604  7371 net.cpp:139] Memory required for data: 219556996
I1120 10:12:17.903609  7371 layer_factory.hpp:77] Creating layer latent_sigmoid_avg_latent_sigmoid_avg_0_split
I1120 10:12:17.903627  7371 net.cpp:86] Creating Layer latent_sigmoid_avg_latent_sigmoid_avg_0_split
I1120 10:12:17.903631  7371 net.cpp:408] latent_sigmoid_avg_latent_sigmoid_avg_0_split <- latent_sigmoid_avg
I1120 10:12:17.903637  7371 net.cpp:382] latent_sigmoid_avg_latent_sigmoid_avg_0_split -> latent_sigmoid_avg_latent_sigmoid_avg_0_split_0
I1120 10:12:17.903645  7371 net.cpp:382] latent_sigmoid_avg_latent_sigmoid_avg_0_split -> latent_sigmoid_avg_latent_sigmoid_avg_0_split_1
I1120 10:12:17.903686  7371 net.cpp:124] Setting up latent_sigmoid_avg_latent_sigmoid_avg_0_split
I1120 10:12:17.903694  7371 net.cpp:131] Top shape: 32 1 1 1 (32)
I1120 10:12:17.903698  7371 net.cpp:131] Top shape: 32 1 1 1 (32)
I1120 10:12:17.903700  7371 net.cpp:139] Memory required for data: 219557252
I1120 10:12:17.903704  7371 layer_factory.hpp:77] Creating layer loss_2
I1120 10:12:17.903712  7371 net.cpp:86] Creating Layer loss_2
I1120 10:12:17.903714  7371 net.cpp:408] loss_2 <- latent_sigmoid_avg_latent_sigmoid_avg_0_split_0
I1120 10:12:17.903718  7371 net.cpp:408] loss_2 <- latent_sigmoid_avg_latent_sigmoid_avg_0_split_1
I1120 10:12:17.903725  7371 net.cpp:382] loss_2 -> loss: 50%-fire-rate
I1120 10:12:17.903764  7371 net.cpp:124] Setting up loss_2
I1120 10:12:17.903774  7371 net.cpp:131] Top shape: (1)
I1120 10:12:17.903776  7371 net.cpp:134]     with loss weight 1
I1120 10:12:17.903782  7371 net.cpp:139] Memory required for data: 219557256
I1120 10:12:17.903785  7371 layer_factory.hpp:77] Creating layer fc9
I1120 10:12:17.903792  7371 net.cpp:86] Creating Layer fc9
I1120 10:12:17.903796  7371 net.cpp:408] fc9 <- latent_sigmoid_latent_sigmoid_0_split_3
I1120 10:12:17.903803  7371 net.cpp:382] fc9 -> fc9
I1120 10:12:17.903934  7371 net.cpp:124] Setting up fc9
I1120 10:12:17.903944  7371 net.cpp:131] Top shape: 32 10 (320)
I1120 10:12:17.903947  7371 net.cpp:139] Memory required for data: 219558536
I1120 10:12:17.903960  7371 layer_factory.hpp:77] Creating layer loss
I1120 10:12:17.903971  7371 net.cpp:86] Creating Layer loss
I1120 10:12:17.903975  7371 net.cpp:408] loss <- fc9
I1120 10:12:17.903978  7371 net.cpp:408] loss <- label
I1120 10:12:17.903985  7371 net.cpp:382] loss -> loss: classfication-error
…
I1120 10:12:18.604946  7371 solver.cpp:190] Creating test net (#0) specified by net file: examples/cifar10/train_val_cifar10.prototxt
I1120 10:12:18.605026  7371 net.cpp:296] The NetState phase (1) differed from the phase (0) specified by a rule in layer data
I1120 10:12:18.605267  7371 net.cpp:53] Initializing net from parameters: 
name: "SSDH"
state {
  phase: TEST
}
layer {
  name: "data"
  type: "Data"
  top: "data"
  top: "label"
  include {
    phase: TEST
  }
  transform_param {
    mirror: false
    crop_size: 227
    mean_file: "./data/ilsvrc12/imagenet_mean.binaryproto"
  }
  data_param {
    source: "data/cifar10/cifar10_val_leveldb"
    batch_size: 50
  }
}
layer {
  name: "conv1"
  type: "Convolution"
  bottom: "data"
  top: "conv1"
  param {
    lr_mult: 1
    decay_mult: 1
  }
  param {
    lr_mult: 2
    decay_mult: 0
  }
  convolution_param {
    num_output: 96
    kernel_size: 11
    stride: 4
    weight_filler {
      type: "gaussian"
      std: 0.01
    }
    bias_filler {
      type: "constant"
      value: 0
    }
  }
}
layer {
  name: "relu1"
  type: "ReLU"
  bottom: "conv1"
  top: "conv1"
}
layer {
  name: "pool1"
  type: "Pooling"
  bottom: "conv1"
  top: "pool1"
  pooling_param {
    pool: MAX
    kernel_size: 3
    stride: 2
  }
}
layer {
  name: "norm1"
  type: "LRN"
  bottom: "pool1"
  top: "norm1"
  lrn_param {
    local_size: 5
    alpha: 0.0001
    beta: 0.75
  }
}
layer {
  name: "conv2"
  type: "Convolution"
  bottom: "norm1"
  top: "conv2"
  param {
    lr_mult: 1
    decay_mult: 1
  }
  param {
    lr_mult: 2
    decay_mult: 0
  }
  convolution_param {
    num_output: 256
    pad: 2
    kernel_size: 5
    group: 2
    weight_filler {
      type: "gaussian"
      std: 0.01
    }
    bias_filler {
      type: "constant"
      value: 1
    }
  }
}
layer {
  name: "relu2"
  type: "ReLU"
  bottom: "conv2"
  top: "conv2"
}
layer {
  name: "pool2"
  type: "Pooling"
  bottom: "conv2"
  top: "pool2"
  pooling_param {
    pool: MAX
    kernel_size: 3
    stride: 2
  }
}
layer {
  name: "norm2"
  type: "LRN"
  bottom: "pool2"
  top: "norm2"
  lrn_param {
    local_size: 5
    alpha: 0.0001
    beta: 0.75
  }
}
layer {
  name: "conv3"
  type: "Convolution"
  bottom: "norm2"
  top: "conv3"
  param {
    lr_mult: 1
    decay_mult: 1
  }
  param {
    lr_mult: 2
    decay_mult: 0
  }
  convolution_param {
    num_output: 384
    pad: 1
    kernel_size: 3
    weight_filler {
      type: "gaussian"
      std: 0.01
    }
    bias_filler {
      type: "constant"
      value: 0
    }
  }
}
layer {
  name: "relu3"
  type: "ReLU"
  bottom: "conv3"
  top: "conv3"
}
layer {
  name: "conv4"
  type: "Convolution"
  bottom: "conv3"
  top: "conv4"
  param {
    lr_mult: 1
    decay_mult: 1
  }
  param {
    lr_mult: 2
    decay_mult: 0
  }
  convolution_param {
    num_output: 384
    pad: 1
    kernel_size: 3
    group: 2
    weight_filler {
      type: "gaussian"
      std: 0.01
    }
    bias_filler {
      type: "constant"
      value: 1
    }
  }
}
layer {
  name: "relu4"
  type: "ReLU"
  bottom: "conv4"
  top: "conv4"
}
layer {
  name: "conv5"
  type: "Convolution"
  bottom: "conv4"
  top: "conv5"
  param {
    lr_mult: 1
    decay_mult: 1
  }
  param {
    lr_mult: 2
    decay_mult: 0
  }
  convolution_param {
    num_output: 256
    pad: 1
    kernel_size: 3
    group: 2
    weight_filler {
      type: "gaussian"
      std: 0.01
    }
    bias_filler {
      type: "constant"
      value: 1
    }
  }
}
layer {
  name: "relu5"
  type: "ReLU"
  bottom: "conv5"
  top: "conv5"
}
layer {
  name: "pool5"
  type: "Pooling"
  bottom: "conv5"
  top: "pool5"
  pooling_param {
    pool: MAX
    kernel_size: 3
    stride: 2
  }
}
layer {
  name: "fc6"
  type: "InnerProduct"
  bottom: "pool5"
  top: "fc6"
  param {
    lr_mult: 1
    decay_mult: 1
  }
  param {
    lr_mult: 2
    decay_mult: 0
  }
  inner_product_param {
    num_output: 4096
    weight_filler {
      type: "gaussian"
      std: 0.005
    }
    bias_filler {
      type: "constant"
      value: 1
    }
  }
}
layer {
  name: "relu6"
  type: "ReLU"
  bottom: "fc6"
  top: "fc6"
}
layer {
  name: "drop6"
  type: "Dropout"
  bottom: "fc6"
  top: "fc6"
  dropout_param {
    dropout_ratio: 0.5
  }
}
layer {
  name: "fc7"
  type: "InnerProduct"
  bottom: "fc6"
  top: "fc7"
  param {
    lr_mult: 1
    decay_mult: 1
  }
  param {
    lr_mult: 2
    decay_mult: 0
  }
  inner_product_param {
    num_output: 4096
    weight_filler {
      type: "gaussian"
      std: 0.005
    }
    bias_filler {
      type: "constant"
      value: 1
    }
  }
}
layer {
  name: "relu7"
  type: "ReLU"
  bottom: "fc7"
  top: "fc7"
}
layer {
  name: "drop7"
  type: "Dropout"
  bottom: "fc7"
  top: "fc7"
  dropout_param {
    dropout_ratio: 0.5
  }
}
layer {
  name: "latent"
  type: "InnerProduct"
  bottom: "fc7"
  top: "latent"
  param {
    lr_mult: 1
    decay_mult: 1
  }
  param {
    lr_mult: 2
    decay_mult: 0
  }
  inner_product_param {
    num_output: 36
    weight_filler {
      type: "gaussian"
      std: 0.01
    }
    bias_filler {
      type: "constant"
      value: 0
    }
  }
}
layer {
  name: "latent_sigmoid"
  type: "Sigmoid"
  bottom: "latent"
  top: "latent_sigmoid"
}
layer {
  name: "loss_1"
  type: "K1_EuclideanLoss"
  bottom: "latent_sigmoid"
  bottom: "latent_sigmoid"
  top: "loss: forcing-binary"
  loss_weight: 1
  propagate_down: true
  propagate_down: false
}
layer {
  name: "latent_sigmoid_reshape"
  type: "Reshape"
  bottom: "latent_sigmoid"
  top: "latent_sigmoid_reshape"
  reshape_param {
    shape {
      dim: 0
      dim: 1
      dim: 1
      dim: -1
    }
  }
}
layer {
  name: "latent_sigmoid_avg"
  type: "Pooling"
  bottom: "latent_sigmoid_reshape"
  top: "latent_sigmoid_avg"
  pooling_param {
    pool: AVE
    kernel_h: 1
    kernel_w: 36
  }
}
layer {
  name: "loss_2"
  type: "K2_EuclideanLoss"
  bottom: "latent_sigmoid_avg"
  bottom: "latent_sigmoid_avg"
  top: "loss: 50%-fire-rate"
  loss_weight: 1
  propagate_down: true
  propagate_down: false
}
layer {
  name: "fc9"
  type: "InnerProduct"
  bottom: "latent_sigmoid"
  top: "fc9"
  param {
    lr_mult: 10
    decay_mult: 1
  }
  param {
    lr_mult: 20
    decay_mult: 0
  }
  inner_product_param {
    num_output: 10
    weight_filler {
      type: "gaussian"
      std: 0.2
    }
    bias_filler {
      type: "constant"
      value: 0
    }
  }
}
layer {
  name: "accuracy"
  type: "Accuracy"
  bottom: "fc9"
  bottom: "label"
  top: "accuracy"
  include {
    phase: TEST
  }
}
layer {
  name: "loss"
  type: "SoftmaxWithLoss"
  bottom: "fc9"
  bottom: "label"
  top: "loss: classfication-error"
  loss_weight: 1
}
I1120 10:12:18.605443  7371 layer_factory.hpp:77] Creating layer data
I1120 10:12:18.682624  7371 db_leveldb.cpp:18] Opened leveldb data/cifar10/cifar10_val_leveldb
I1120 10:12:18.685640  7371 net.cpp:86] Creating Layer data
I1120 10:12:18.685676  7371 net.cpp:382] data -> data
I1120 10:12:18.685703  7371 net.cpp:382] data -> label
I1120 10:12:18.685721  7371 data_transformer.cpp:25] Loading mean file from: ./data/ilsvrc12/imagenet_mean.binaryproto
I1120 10:12:18.690282  7371 data_layer.cpp:45] output data size: 50,3,227,227
I1120 10:12:18.764905  7371 net.cpp:124] Setting up data
I1120 10:12:18.764956  7371 net.cpp:131] Top shape: 50 3 227 227 (7729350)
I1120 10:12:18.764962  7371 net.cpp:131] Top shape: 50 (50)
I1120 10:12:18.764966  7371 net.cpp:139] Memory required for data: 30917600
I1120 10:12:18.764973  7371 layer_factory.hpp:77] Creating layer label_data_1_split
I1120 10:12:18.764991  7371 net.cpp:86] Creating Layer label_data_1_split
I1120 10:12:18.764997  7371 net.cpp:408] label_data_1_split <- label
I1120 10:12:18.765004  7371 net.cpp:382] label_data_1_split -> label_data_1_split_0
I1120 10:12:18.765017  7371 net.cpp:382] label_data_1_split -> label_data_1_split_1
I1120 10:12:18.765331  7371 net.cpp:124] Setting up label_data_1_split
I1120 10:12:18.765369  7371 net.cpp:131] Top shape: 50 (50)
I1120 10:12:18.765375  7371 net.cpp:131] Top shape: 50 (50)
I1120 10:12:18.765378  7371 net.cpp:139] Memory required for data: 30918000
I1120 10:12:18.765384  7371 layer_factory.hpp:77] Creating layer conv1
I1120 10:12:18.765406  7371 net.cpp:86] Creating Layer conv1
I1120 10:12:18.765411  7371 net.cpp:408] conv1 <- data
I1120 10:12:18.765421  7371 net.cpp:382] conv1 -> conv1
I1120 10:12:18.773552  7371 net.cpp:124] Setting up conv1
I1120 10:12:18.773581  7371 net.cpp:131] Top shape: 50 96 55 55 (14520000)
I1120 10:12:18.773587  7371 net.cpp:139] Memory required for data: 88998000
I1120 10:12:18.773603  7371 layer_factory.hpp:77] Creating layer relu1
I1120 10:12:18.773614  7371 net.cpp:86] Creating Layer relu1
I1120 10:12:18.773620  7371 net.cpp:408] relu1 <- conv1
I1120 10:12:18.773628  7371 net.cpp:369] relu1 -> conv1 (in-place)
I1120 10:12:18.774667  7371 net.cpp:124] Setting up relu1
I1120 10:12:18.774688  7371 net.cpp:131] Top shape: 50 96 55 55 (14520000)
I1120 10:12:18.774693  7371 net.cpp:139] Memory required for data: 147078000
I1120 10:12:18.774698  7371 layer_factory.hpp:77] Creating layer pool1
I1120 10:12:18.774713  7371 net.cpp:86] Creating Layer pool1
I1120 10:12:18.774718  7371 net.cpp:408] pool1 <- conv1
I1120 10:12:18.774726  7371 net.cpp:382] pool1 -> pool1
I1120 10:12:18.774804  7371 net.cpp:124] Setting up pool1
I1120 10:12:18.774816  7371 net.cpp:131] Top shape: 50 96 27 27 (3499200)
I1120 10:12:18.774821  7371 net.cpp:139] Memory required for data: 161074800
I1120 10:12:18.774825  7371 layer_factory.hpp:77] Creating layer norm1
I1120 10:12:18.774837  7371 net.cpp:86] Creating Layer norm1
I1120 10:12:18.774842  7371 net.cpp:408] norm1 <- pool1
I1120 10:12:18.774850  7371 net.cpp:382] norm1 -> norm1
I1120 10:12:18.775159  7371 net.cpp:124] Setting up norm1
I1120 10:12:18.775174  7371 net.cpp:131] Top shape: 50 96 27 27 (3499200)
I1120 10:12:18.775179  7371 net.cpp:139] Memory required for data: 175071600
I1120 10:12:18.775183  7371 layer_factory.hpp:77] Creating layer conv2
I1120 10:12:18.775198  7371 net.cpp:86] Creating Layer conv2
I1120 10:12:18.775204  7371 net.cpp:408] conv2 <- norm1
I1120 10:12:18.775213  7371 net.cpp:382] conv2 -> conv2
I1120 10:12:18.791802  7371 net.cpp:124] Setting up conv2
I1120 10:12:18.791834  7371 net.cpp:131] Top shape: 50 256 27 27 (9331200)
I1120 10:12:18.791839  7371 net.cpp:139] Memory required for data: 212396400
I1120 10:12:18.791852  7371 layer_factory.hpp:77] Creating layer relu2
I1120 10:12:18.791862  7371 net.cpp:86] Creating Layer relu2
I1120 10:12:18.791867  7371 net.cpp:408] relu2 <- conv2
I1120 10:12:18.791874  7371 net.cpp:369] relu2 -> conv2 (in-place)
I1120 10:12:18.792114  7371 net.cpp:124] Setting up relu2
I1120 10:12:18.792126  7371 net.cpp:131] Top shape: 50 256 27 27 (9331200)
I1120 10:12:18.792130  7371 net.cpp:139] Memory required for data: 249721200
I1120 10:12:18.792135  7371 layer_factory.hpp:77] Creating layer pool2
I1120 10:12:18.792145  7371 net.cpp:86] Creating Layer pool2
I1120 10:12:18.792150  7371 net.cpp:408] pool2 <- conv2
I1120 10:12:18.792156  7371 net.cpp:382] pool2 -> pool2
I1120 10:12:18.792215  7371 net.cpp:124] Setting up pool2
I1120 10:12:18.792224  7371 net.cpp:131] Top shape: 50 256 13 13 (2163200)
I1120 10:12:18.792228  7371 net.cpp:139] Memory required for data: 258374000
I1120 10:12:18.792232  7371 layer_factory.hpp:77] Creating layer norm2
I1120 10:12:18.792241  7371 net.cpp:86] Creating Layer norm2
I1120 10:12:18.792244  7371 net.cpp:408] norm2 <- pool2
I1120 10:12:18.792251  7371 net.cpp:382] norm2 -> norm2
I1120 10:12:18.793112  7371 net.cpp:124] Setting up norm2
I1120 10:12:18.793128  7371 net.cpp:131] Top shape: 50 256 13 13 (2163200)
I1120 10:12:18.793133  7371 net.cpp:139] Memory required for data: 267026800
I1120 10:12:18.793136  7371 layer_factory.hpp:77] Creating layer conv3
I1120 10:12:18.793150  7371 net.cpp:86] Creating Layer conv3
I1120 10:12:18.793154  7371 net.cpp:408] conv3 <- norm2
I1120 10:12:18.793164  7371 net.cpp:382] conv3 -> conv3
I1120 10:12:18.825726  7371 net.cpp:124] Setting up conv3
I1120 10:12:18.825764  7371 net.cpp:131] Top shape: 50 384 13 13 (3244800)
I1120 10:12:18.825769  7371 net.cpp:139] Memory required for data: 280006000
I1120 10:12:18.825784  7371 layer_factory.hpp:77] Creating layer relu3
I1120 10:12:18.825795  7371 net.cpp:86] Creating Layer relu3
I1120 10:12:18.825801  7371 net.cpp:408] relu3 <- conv3
I1120 10:12:18.825809  7371 net.cpp:369] relu3 -> conv3 (in-place)
I1120 10:12:18.826046  7371 net.cpp:124] Setting up relu3
I1120 10:12:18.826061  7371 net.cpp:131] Top shape: 50 384 13 13 (3244800)
I1120 10:12:18.826064  7371 net.cpp:139] Memory required for data: 292985200
I1120 10:12:18.826069  7371 layer_factory.hpp:77] Creating layer conv4
I1120 10:12:18.826082  7371 net.cpp:86] Creating Layer conv4
I1120 10:12:18.826086  7371 net.cpp:408] conv4 <- conv3
I1120 10:12:18.826093  7371 net.cpp:382] conv4 -> conv4
I1120 10:12:18.855558  7371 net.cpp:124] Setting up conv4
I1120 10:12:18.855597  7371 net.cpp:131] Top shape: 50 384 13 13 (3244800)
I1120 10:12:18.855602  7371 net.cpp:139] Memory required for data: 305964400
I1120 10:12:18.855612  7371 layer_factory.hpp:77] Creating layer relu4
I1120 10:12:18.855625  7371 net.cpp:86] Creating Layer relu4
I1120 10:12:18.855631  7371 net.cpp:408] relu4 <- conv4
I1120 10:12:18.855639  7371 net.cpp:369] relu4 -> conv4 (in-place)
I1120 10:12:18.858429  7371 net.cpp:124] Setting up relu4
I1120 10:12:18.858445  7371 net.cpp:131] Top shape: 50 384 13 13 (3244800)
I1120 10:12:18.858456  7371 net.cpp:139] Memory required for data: 318943600
I1120 10:12:18.858460  7371 layer_factory.hpp:77] Creating layer conv5
I1120 10:12:18.858474  7371 net.cpp:86] Creating Layer conv5
I1120 10:12:18.858479  7371 net.cpp:408] conv5 <- conv4
I1120 10:12:18.858489  7371 net.cpp:382] conv5 -> conv5
I1120 10:12:18.879179  7371 net.cpp:124] Setting up conv5
I1120 10:12:18.879216  7371 net.cpp:131] Top shape: 50 256 13 13 (2163200)
I1120 10:12:18.879220  7371 net.cpp:139] Memory required for data: 327596400
I1120 10:12:18.879237  7371 layer_factory.hpp:77] Creating layer relu5
I1120 10:12:18.879251  7371 net.cpp:86] Creating Layer relu5
I1120 10:12:18.879256  7371 net.cpp:408] relu5 <- conv5
I1120 10:12:18.879263  7371 net.cpp:369] relu5 -> conv5 (in-place)
I1120 10:12:18.880084  7371 net.cpp:124] Setting up relu5
I1120 10:12:18.880100  7371 net.cpp:131] Top shape: 50 256 13 13 (2163200)
I1120 10:12:18.880110  7371 net.cpp:139] Memory required for data: 336249200
I1120 10:12:18.880113  7371 layer_factory.hpp:77] Creating layer pool5
I1120 10:12:18.880126  7371 net.cpp:86] Creating Layer pool5
I1120 10:12:18.880131  7371 net.cpp:408] pool5 <- conv5
I1120 10:12:18.880138  7371 net.cpp:382] pool5 -> pool5
I1120 10:12:18.880203  7371 net.cpp:124] Setting up pool5
I1120 10:12:18.880211  7371 net.cpp:131] Top shape: 50 256 6 6 (460800)
I1120 10:12:18.880214  7371 net.cpp:139] Memory required for data: 338092400
I1120 10:12:18.880218  7371 layer_factory.hpp:77] Creating layer fc6
I1120 10:12:18.880228  7371 net.cpp:86] Creating Layer fc6
I1120 10:12:18.880233  7371 net.cpp:408] fc6 <- pool5
I1120 10:12:18.880239  7371 net.cpp:382] fc6 -> fc6
I1120 10:12:19.937606  7371 net.cpp:124] Setting up fc6
I1120 10:12:19.937660  7371 net.cpp:131] Top shape: 50 4096 (204800)
I1120 10:12:19.937664  7371 net.cpp:139] Memory required for data: 338911600
I1120 10:12:19.937695  7371 layer_factory.hpp:77] Creating layer relu6
I1120 10:12:19.937726  7371 net.cpp:86] Creating Layer relu6
I1120 10:12:19.937737  7371 net.cpp:408] relu6 <- fc6
I1120 10:12:19.937752  7371 net.cpp:369] relu6 -> fc6 (in-place)
I1120 10:12:19.938452  7371 net.cpp:124] Setting up relu6
I1120 10:12:19.938463  7371 net.cpp:131] Top shape: 50 4096 (204800)
I1120 10:12:19.938478  7371 net.cpp:139] Memory required for data: 339730800
I1120 10:12:19.938482  7371 layer_factory.hpp:77] Creating layer drop6
I1120 10:12:19.938493  7371 net.cpp:86] Creating Layer drop6
I1120 10:12:19.938498  7371 net.cpp:408] drop6 <- fc6
I1120 10:12:19.938503  7371 net.cpp:369] drop6 -> fc6 (in-place)
I1120 10:12:19.938567  7371 net.cpp:124] Setting up drop6
I1120 10:12:19.938591  7371 net.cpp:131] Top shape: 50 4096 (204800)
I1120 10:12:19.938593  7371 net.cpp:139] Memory required for data: 340550000
I1120 10:12:19.938596  7371 layer_factory.hpp:77] Creating layer fc7
I1120 10:12:19.938603  7371 net.cpp:86] Creating Layer fc7
I1120 10:12:19.938607  7371 net.cpp:408] fc7 <- fc6
I1120 10:12:19.938617  7371 net.cpp:382] fc7 -> fc7
I1120 10:12:20.400394  7371 net.cpp:124] Setting up fc7
I1120 10:12:20.400449  7371 net.cpp:131] Top shape: 50 4096 (204800)
I1120 10:12:20.400454  7371 net.cpp:139] Memory required for data: 341369200
I1120 10:12:20.400472  7371 layer_factory.hpp:77] Creating layer relu7
I1120 10:12:20.400490  7371 net.cpp:86] Creating Layer relu7
I1120 10:12:20.400508  7371 net.cpp:408] relu7 <- fc7
I1120 10:12:20.400514  7371 net.cpp:369] relu7 -> fc7 (in-place)
I1120 10:12:20.401535  7371 net.cpp:124] Setting up relu7
I1120 10:12:20.401583  7371 net.cpp:131] Top shape: 50 4096 (204800)
I1120 10:12:20.401587  7371 net.cpp:139] Memory required for data: 342188400
I1120 10:12:20.401590  7371 layer_factory.hpp:77] Creating layer drop7
I1120 10:12:20.401623  7371 net.cpp:86] Creating Layer drop7
I1120 10:12:20.401638  7371 net.cpp:408] drop7 <- fc7
I1120 10:12:20.401643  7371 net.cpp:369] drop7 -> fc7 (in-place)
I1120 10:12:20.401690  7371 net.cpp:124] Setting up drop7
I1120 10:12:20.401708  7371 net.cpp:131] Top shape: 50 4096 (204800)
I1120 10:12:20.401711  7371 net.cpp:139] Memory required for data: 343007600
I1120 10:12:20.401715  7371 layer_factory.hpp:77] Creating layer latent
I1120 10:12:20.401726  7371 net.cpp:86] Creating Layer latent
I1120 10:12:20.401731  7371 net.cpp:408] latent <- fc7
I1120 10:12:20.401741  7371 net.cpp:382] latent -> latent
I1120 10:12:20.406360  7371 net.cpp:124] Setting up latent
I1120 10:12:20.406386  7371 net.cpp:131] Top shape: 50 36 (1800)
I1120 10:12:20.406390  7371 net.cpp:139] Memory required for data: 343014800
I1120 10:12:20.406396  7371 layer_factory.hpp:77] Creating layer latent_sigmoid
I1120 10:12:20.406404  7371 net.cpp:86] Creating Layer latent_sigmoid
I1120 10:12:20.406407  7371 net.cpp:408] latent_sigmoid <- latent
I1120 10:12:20.406416  7371 net.cpp:382] latent_sigmoid -> latent_sigmoid
I1120 10:12:20.406666  7371 net.cpp:124] Setting up latent_sigmoid
I1120 10:12:20.406682  7371 net.cpp:131] Top shape: 50 36 (1800)
I1120 10:12:20.406687  7371 net.cpp:139] Memory required for data: 343022000
I1120 10:12:20.406693  7371 layer_factory.hpp:77] Creating layer latent_sigmoid_latent_sigmoid_0_split
I1120 10:12:20.406702  7371 net.cpp:86] Creating Layer latent_sigmoid_latent_sigmoid_0_split
I1120 10:12:20.406705  7371 net.cpp:408] latent_sigmoid_latent_sigmoid_0_split <- latent_sigmoid
I1120 10:12:20.406710  7371 net.cpp:382] latent_sigmoid_latent_sigmoid_0_split -> latent_sigmoid_latent_sigmoid_0_split_0
I1120 10:12:20.406716  7371 net.cpp:382] latent_sigmoid_latent_sigmoid_0_split -> latent_sigmoid_latent_sigmoid_0_split_1
I1120 10:12:20.406723  7371 net.cpp:382] latent_sigmoid_latent_sigmoid_0_split -> latent_sigmoid_latent_sigmoid_0_split_2
I1120 10:12:20.406733  7371 net.cpp:382] latent_sigmoid_latent_sigmoid_0_split -> latent_sigmoid_latent_sigmoid_0_split_3
I1120 10:12:20.406816  7371 net.cpp:124] Setting up latent_sigmoid_latent_sigmoid_0_split
I1120 10:12:20.406826  7371 net.cpp:131] Top shape: 50 36 (1800)
I1120 10:12:20.406828  7371 net.cpp:131] Top shape: 50 36 (1800)
I1120 10:12:20.406832  7371 net.cpp:131] Top shape: 50 36 (1800)
I1120 10:12:20.406836  7371 net.cpp:131] Top shape: 50 36 (1800)
I1120 10:12:20.406838  7371 net.cpp:139] Memory required for data: 343050800
I1120 10:12:20.406841  7371 layer_factory.hpp:77] Creating layer loss_1
I1120 10:12:20.406849  7371 net.cpp:86] Creating Layer loss_1
I1120 10:12:20.406852  7371 net.cpp:408] loss_1 <- latent_sigmoid_latent_sigmoid_0_split_0
I1120 10:12:20.406857  7371 net.cpp:408] loss_1 <- latent_sigmoid_latent_sigmoid_0_split_1
I1120 10:12:20.406864  7371 net.cpp:382] loss_1 -> loss: forcing-binary
I1120 10:12:20.406936  7371 net.cpp:124] Setting up loss_1
I1120 10:12:20.406945  7371 net.cpp:131] Top shape: (1)
I1120 10:12:20.406949  7371 net.cpp:134]     with loss weight 1
I1120 10:12:20.406966  7371 net.cpp:139] Memory required for data: 343050804
I1120 10:12:20.406970  7371 layer_factory.hpp:77] Creating layer latent_sigmoid_reshape
I1120 10:12:20.406981  7371 net.cpp:86] Creating Layer latent_sigmoid_reshape
I1120 10:12:20.406985  7371 net.cpp:408] latent_sigmoid_reshape <- latent_sigmoid_latent_sigmoid_0_split_2
I1120 10:12:20.406994  7371 net.cpp:382] latent_sigmoid_reshape -> latent_sigmoid_reshape
I1120 10:12:20.407027  7371 net.cpp:124] Setting up latent_sigmoid_reshape
I1120 10:12:20.407034  7371 net.cpp:131] Top shape: 50 1 1 36 (1800)
I1120 10:12:20.407037  7371 net.cpp:139] Memory required for data: 343058004
I1120 10:12:20.407040  7371 layer_factory.hpp:77] Creating layer latent_sigmoid_avg
I1120 10:12:20.407075  7371 net.cpp:86] Creating Layer latent_sigmoid_avg
I1120 10:12:20.407080  7371 net.cpp:408] latent_sigmoid_avg <- latent_sigmoid_reshape
I1120 10:12:20.407086  7371 net.cpp:382] latent_sigmoid_avg -> latent_sigmoid_avg
I1120 10:12:20.407836  7371 net.cpp:124] Setting up latent_sigmoid_avg
I1120 10:12:20.407862  7371 net.cpp:131] Top shape: 50 1 1 1 (50)
I1120 10:12:20.407866  7371 net.cpp:139] Memory required for data: 343058204
I1120 10:12:20.407869  7371 layer_factory.hpp:77] Creating layer latent_sigmoid_avg_latent_sigmoid_avg_0_split
I1120 10:12:20.407879  7371 net.cpp:86] Creating Layer latent_sigmoid_avg_latent_sigmoid_avg_0_split
I1120 10:12:20.407884  7371 net.cpp:408] latent_sigmoid_avg_latent_sigmoid_avg_0_split <- latent_sigmoid_avg
I1120 10:12:20.407896  7371 net.cpp:382] latent_sigmoid_avg_latent_sigmoid_avg_0_split -> latent_sigmoid_avg_latent_sigmoid_avg_0_split_0
I1120 10:12:20.407903  7371 net.cpp:382] latent_sigmoid_avg_latent_sigmoid_avg_0_split -> latent_sigmoid_avg_latent_sigmoid_avg_0_split_1
I1120 10:12:20.407951  7371 net.cpp:124] Setting up latent_sigmoid_avg_latent_sigmoid_avg_0_split
I1120 10:12:20.407958  7371 net.cpp:131] Top shape: 50 1 1 1 (50)
I1120 10:12:20.407961  7371 net.cpp:131] Top shape: 50 1 1 1 (50)
I1120 10:12:20.407964  7371 net.cpp:139] Memory required for data: 343058604
I1120 10:12:20.407968  7371 layer_factory.hpp:77] Creating layer loss_2
I1120 10:12:20.407981  7371 net.cpp:86] Creating Layer loss_2
I1120 10:12:20.407984  7371 net.cpp:408] loss_2 <- latent_sigmoid_avg_latent_sigmoid_avg_0_split_0
I1120 10:12:20.407989  7371 net.cpp:408] loss_2 <- latent_sigmoid_avg_latent_sigmoid_avg_0_split_1
I1120 10:12:20.407994  7371 net.cpp:382] loss_2 -> loss: 50%-fire-rate
I1120 10:12:20.408042  7371 net.cpp:124] Setting up loss_2
I1120 10:12:20.408051  7371 net.cpp:131] Top shape: (1)
I1120 10:12:20.408054  7371 net.cpp:134]     with loss weight 1
I1120 10:12:20.408061  7371 net.cpp:139] Memory required for data: 343058608
I1120 10:12:20.408063  7371 layer_factory.hpp:77] Creating layer fc9
I1120 10:12:20.408069  7371 net.cpp:86] Creating Layer fc9
I1120 10:12:20.408073  7371 net.cpp:408] fc9 <- latent_sigmoid_latent_sigmoid_0_split_3
I1120 10:12:20.408084  7371 net.cpp:382] fc9 -> fc9
I1120 10:12:20.408272  7371 net.cpp:124] Setting up fc9
I1120 10:12:20.408282  7371 net.cpp:131] Top shape: 50 10 (500)
I1120 10:12:20.408285  7371 net.cpp:139] Memory required for data: 343060608
I1120 10:12:20.408303  7371 layer_factory.hpp:77] Creating layer fc9_fc9_0_split
I1120 10:12:20.408320  7371 net.cpp:86] Creating Layer fc9_fc9_0_split
I1120 10:12:20.408324  7371 net.cpp:408] fc9_fc9_0_split <- fc9
I1120 10:12:20.408329  7371 net.cpp:382] fc9_fc9_0_split -> fc9_fc9_0_split_0
I1120 10:12:20.408335  7371 net.cpp:382] fc9_fc9_0_split -> fc9_fc9_0_split_1
I1120 10:12:20.408381  7371 net.cpp:124] Setting up fc9_fc9_0_split
I1120 10:12:20.408390  7371 net.cpp:131] Top shape: 50 10 (500)
I1120 10:12:20.408394  7371 net.cpp:131] Top shape: 50 10 (500)
I1120 10:12:20.408396  7371 net.cpp:139] Memory required for data: 343064608
I1120 10:12:20.408399  7371 layer_factory.hpp:77] Creating layer accuracy
I1120 10:12:20.408416  7371 net.cpp:86] Creating Layer accuracy
I1120 10:12:20.408419  7371 net.cpp:408] accuracy <- fc9_fc9_0_split_0
I1120 10:12:20.408423  7371 net.cpp:408] accuracy <- label_data_1_split_0
I1120 10:12:20.408427  7371 net.cpp:382] accuracy -> accuracy
…
