…
I1013 10:09:39.821861 13685 net.cpp:296] The NetState phase (0) differed from the phase (1) specified by a rule in layer accuracy
I1013 10:09:39.822082 13685 net.cpp:53] Initializing net from parameters: 
name: "AESSDH"
state {
  phase: TRAIN
  level: 0
  stage: ""
}
layer {
  name: "data"
  type: "Data"
  top: "data"
  top: "label"
  include {
    phase: TRAIN
  }
  transform_param {
    mirror: true
    crop_size: 227
    mean_file: "./data/ilsvrc12/imagenet_mean.binaryproto"
  }
  data_param {
    source: "data/cifar10/cifar10_train_leveldb"
    batch_size: 32
  }
}
layer {
  name: "conv1"
  type: "Convolution"
  bottom: "data"
  top: "conv1"
  param {
    lr_mult: 1
    decay_mult: 1
  }
  param {
    lr_mult: 2
    decay_mult: 0
  }
  convolution_param {
    num_output: 96
    kernel_size: 11
    stride: 4
    weight_filler {
      type: "gaussian"
      std: 0.01
    }
    bias_filler {
      type: "constant"
      value: 0
    }
  }
}
layer {
  name: "relu1"
  type: "ReLU"
  bottom: "conv1"
  top: "conv1"
}
layer {
  name: "pool1"
  type: "Pooling"
  bottom: "conv1"
  top: "pool1"
  pooling_param {
    pool: MAX
    kernel_size: 3
    stride: 2
  }
}
layer {
  name: "norm1"
  type: "LRN"
  bottom: "pool1"
  top: "norm1"
  lrn_param {
    local_size: 5
    alpha: 0.0001
    beta: 0.75
  }
}
layer {
  name: "conv2"
  type: "Convolution"
  bottom: "norm1"
  top: "conv2"
  param {
    lr_mult: 1
    decay_mult: 1
  }
  param {
    lr_mult: 2
    decay_mult: 0
  }
  convolution_param {
    num_output: 256
    pad: 2
    kernel_size: 5
    group: 2
    weight_filler {
      type: "gaussian"
      std: 0.01
    }
    bias_filler {
      type: "constant"
      value: 1
    }
  }
}
layer {
  name: "relu2"
  type: "ReLU"
  bottom: "conv2"
  top: "conv2"
}
layer {
  name: "pool2"
  type: "Pooling"
  bottom: "conv2"
  top: "pool2"
  pooling_param {
    pool: MAX
    kernel_size: 3
    stride: 2
  }
}
layer {
  name: "norm2"
  type: "LRN"
  bottom: "pool2"
  top: "norm2"
  lrn_param {
    local_size: 5
    alpha: 0.0001
    beta: 0.75
  }
}
layer {
  name: "conv3"
  type: "Convolution"
  bottom: "norm2"
  top: "conv3"
  param {
    lr_mult: 1
    decay_mult: 1
  }
  param {
    lr_mult: 2
    decay_mult: 0
  }
  convolution_param {
    num_output: 384
    pad: 1
    kernel_size: 3
    weight_filler {
      type: "gaussian"
      std: 0.01
    }
    bias_filler {
      type: "constant"
      value: 0
    }
  }
}
layer {
  name: "relu3"
  type: "ReLU"
  bottom: "conv3"
  top: "conv3"
}
layer {
  name: "conv4"
  type: "Convolution"
  bottom: "conv3"
  top: "conv4"
  param {
    lr_mult: 1
    decay_mult: 1
  }
  param {
    lr_mult: 2
    decay_mult: 0
  }
  convolution_param {
    num_output: 384
    pad: 1
    kernel_size: 3
    group: 2
    weight_filler {
      type: "gaussian"
      std: 0.01
    }
    bias_filler {
      type: "constant"
      value: 1
    }
  }
}
layer {
  name: "relu4"
  type: "ReLU"
  bottom: "conv4"
  top: "conv4"
}
layer {
  name: "conv5"
  type: "Convolution"
  bottom: "conv4"
  top: "conv5"
  param {
    lr_mult: 1
    decay_mult: 1
  }
  param {
    lr_mult: 2
    decay_mult: 0
  }
  convolution_param {
    num_output: 256
    pad: 1
    kernel_size: 3
    group: 2
    weight_filler {
      type: "gaussian"
      std: 0.01
    }
    bias_filler {
      type: "constant"
      value: 1
    }
  }
}
layer {
  name: "relu5"
  type: "ReLU"
  bottom: "conv5"
  top: "conv5"
}
layer {
  name: "pool5"
  type: "Pooling"
  bottom: "conv5"
  top: "pool5"
  pooling_param {
    pool: MAX
    kernel_size: 3
    stride: 2
  }
}
layer {
  name: "fc6"
  type: "InnerProduct"
  bottom: "pool5"
  top: "fc6"
  param {
    lr_mult: 1
    decay_mult: 1
  }
  param {
    lr_mult: 2
    decay_mult: 0
  }
  inner_product_param {
    num_output: 4096
    weight_filler {
      type: "gaussian"
      std: 0.005
    }
    bias_filler {
      type: "constant"
      value: 1
    }
  }
}
layer {
  name: "relu6"
  type: "ReLU"
  bottom: "fc6"
  top: "fc6"
}
layer {
  name: "drop6"
  type: "Dropout"
  bottom: "fc6"
  top: "fc6"
  dropout_param {
    dropout_ratio: 0.5
  }
}
layer {
  name: "fc7"
  type: "InnerProduct"
  bottom: "fc6"
  top: "fc7"
  param {
    lr_mult: 1
    decay_mult: 1
  }
  param {
    lr_mult: 2
    decay_mult: 0
  }
  inner_product_param {
    num_output: 4096
    weight_filler {
      type: "gaussian"
      std: 0.005
    }
    bias_filler {
      type: "constant"
      value: 1
    }
  }
}
layer {
  name: "relu7"
  type: "ReLU"
  bottom: "fc7"
  top: "relu7"
}
layer {
  name: "drop7"
  type: "Dropout"
  bottom: "relu7"
  top: "drop7"
  dropout_param {
    dropout_ratio: 0.5
  }
}
layer {
  name: "tanh7"
  type: "TanH"
  bottom: "fc7"
  top: "tanh7"
}
layer {
  name: "latent_ae"
  type: "InnerProduct"
  bottom: "tanh7"
  top: "latent_ae"
  param {
    lr_mult: 10
    decay_mult: 10
  }
  param {
    lr_mult: 20
    decay_mult: 0
  }
  inner_product_param {
    num_output: 36
    weight_filler {
      type: "gaussian"
      std: 0.01
    }
    bias_filler {
      type: "constant"
      value: 1
    }
  }
}
layer {
  name: "sigmoid_ae"
  type: "Sigmoid"
  bottom: "latent_ae"
  top: "sigmoid_ae"
}
layer {
  name: "loss_1"
  type: "K1_EuclideanLoss"
  bottom: "sigmoid_ae"
  bottom: "sigmoid_ae"
  top: "loss: forcing-binary"
  loss_weight: 1
  propagate_down: true
  propagate_down: false
}
layer {
  name: "latent_sigmoid_reshape"
  type: "Reshape"
  bottom: "sigmoid_ae"
  top: "latent_sigmoid_reshape"
  reshape_param {
    shape {
      dim: 0
      dim: 1
      dim: 1
      dim: -1
    }
  }
}
layer {
  name: "latent_sigmoid_avg"
  type: "Pooling"
  bottom: "latent_sigmoid_reshape"
  top: "latent_sigmoid_avg"
  pooling_param {
    pool: AVE
    kernel_h: 1
    kernel_w: 36
  }
}
layer {
  name: "loss_2"
  type: "K2_EuclideanLoss"
  bottom: "latent_sigmoid_avg"
  bottom: "latent_sigmoid_avg"
  top: "loss: 50%-fire-rate"
  loss_weight: 1000
  propagate_down: true
  propagate_down: false
}
layer {
  name: "reconstruct"
  type: "InnerProduct"
  bottom: "sigmoid_ae"
  top: "reconstruct"
  param {
    lr_mult: 10
    decay_mult: 10
  }
  param {
    lr_mult: 20
    decay_mult: 0
  }
  inner_product_param {
    num_output: 4096
    weight_filler {
      type: "gaussian"
      std: 0.01
    }
    bias_filler {
      type: "constant"
      value: 0
    }
  }
}
layer {
  name: "reconstruct_loss"
  type: "EuclideanLoss"
  bottom: "reconstruct"
  bottom: "fc7"
  top: "loss: reconstruction-error"
  loss_weight: 0.001
  propagate_down: true
  propagate_down: false
}
layer {
  name: "latent"
  type: "InnerProduct"
  bottom: "drop7"
  top: "latent"
  param {
    lr_mult: 1
    decay_mult: 1
  }
  param {
    lr_mult: 2
    decay_mult: 0
  }
  inner_product_param {
    num_output: 12
    weight_filler {
      type: "gaussian"
      std: 0.01
    }
    bias_filler {
      type: "constant"
      value: 0
    }
  }
}
layer {
  name: "latent_sigmoid"
  type: "Sigmoid"
  bottom: "latent"
  top: "latent_sigmoid"
}
layer {
  name: "fc9"
  type: "InnerProduct"
  bottom: "latent_sigmoid"
  top: "fc9"
  param {
    lr_mult: 10
    decay_mult: 1
  }
  param {
    lr_mult: 20
    decay_mult: 0
  }
  inner_product_param {
    num_output: 10
    weight_filler {
      type: "gaussian"
      std: 0.2
    }
    bias_filler {
      type: "constant"
      value: 0
    }
  }
}
layer {
  name: "loss"
  type: "SoftmaxWithLoss"
  bottom: "fc9"
  bottom: "label"
  top: "loss: classfication-error"
  loss_weight: 1
}
I1013 10:09:39.822322 13685 layer_factory.hpp:77] Creating layer data
I1013 10:09:39.891664 13685 db_leveldb.cpp:18] Opened leveldb data/cifar10/cifar10_train_leveldb
I1013 10:09:39.896572 13685 net.cpp:86] Creating Layer data
I1013 10:09:39.896610 13685 net.cpp:382] data -> data
I1013 10:09:39.896661 13685 net.cpp:382] data -> label
I1013 10:09:39.896693 13685 data_transformer.cpp:25] Loading mean file from: ./data/ilsvrc12/imagenet_mean.binaryproto
I1013 10:09:39.903201 13685 data_layer.cpp:45] output data size: 32,3,227,227
I1013 10:09:39.964179 13685 net.cpp:124] Setting up data
I1013 10:09:39.964265 13685 net.cpp:131] Top shape: 32 3 227 227 (4946784)
I1013 10:09:39.964277 13685 net.cpp:131] Top shape: 32 (32)
I1013 10:09:39.964282 13685 net.cpp:139] Memory required for data: 19787264
I1013 10:09:39.964294 13685 layer_factory.hpp:77] Creating layer conv1
I1013 10:09:39.964326 13685 net.cpp:86] Creating Layer conv1
I1013 10:09:39.964337 13685 net.cpp:408] conv1 <- data
I1013 10:09:39.964350 13685 net.cpp:382] conv1 -> conv1
I1013 10:09:40.262215 13685 net.cpp:124] Setting up conv1
I1013 10:09:40.262253 13685 net.cpp:131] Top shape: 32 96 55 55 (9292800)
I1013 10:09:40.262259 13685 net.cpp:139] Memory required for data: 56958464
I1013 10:09:40.262284 13685 layer_factory.hpp:77] Creating layer relu1
I1013 10:09:40.262302 13685 net.cpp:86] Creating Layer relu1
I1013 10:09:40.262307 13685 net.cpp:408] relu1 <- conv1
I1013 10:09:40.262315 13685 net.cpp:369] relu1 -> conv1 (in-place)
I1013 10:09:40.263125 13685 net.cpp:124] Setting up relu1
I1013 10:09:40.263142 13685 net.cpp:131] Top shape: 32 96 55 55 (9292800)
I1013 10:09:40.263146 13685 net.cpp:139] Memory required for data: 94129664
I1013 10:09:40.263151 13685 layer_factory.hpp:77] Creating layer pool1
I1013 10:09:40.263161 13685 net.cpp:86] Creating Layer pool1
I1013 10:09:40.263167 13685 net.cpp:408] pool1 <- conv1
I1013 10:09:40.263173 13685 net.cpp:382] pool1 -> pool1
I1013 10:09:40.263238 13685 net.cpp:124] Setting up pool1
I1013 10:09:40.263249 13685 net.cpp:131] Top shape: 32 96 27 27 (2239488)
I1013 10:09:40.263252 13685 net.cpp:139] Memory required for data: 103087616
I1013 10:09:40.263257 13685 layer_factory.hpp:77] Creating layer norm1
I1013 10:09:40.263275 13685 net.cpp:86] Creating Layer norm1
I1013 10:09:40.263288 13685 net.cpp:408] norm1 <- pool1
I1013 10:09:40.263293 13685 net.cpp:382] norm1 -> norm1
I1013 10:09:40.263556 13685 net.cpp:124] Setting up norm1
I1013 10:09:40.263571 13685 net.cpp:131] Top shape: 32 96 27 27 (2239488)
I1013 10:09:40.263574 13685 net.cpp:139] Memory required for data: 112045568
I1013 10:09:40.263578 13685 layer_factory.hpp:77] Creating layer conv2
I1013 10:09:40.263597 13685 net.cpp:86] Creating Layer conv2
I1013 10:09:40.263602 13685 net.cpp:408] conv2 <- norm1
I1013 10:09:40.263610 13685 net.cpp:382] conv2 -> conv2
I1013 10:09:40.279045 13685 net.cpp:124] Setting up conv2
I1013 10:09:40.279065 13685 net.cpp:131] Top shape: 32 256 27 27 (5971968)
I1013 10:09:40.279069 13685 net.cpp:139] Memory required for data: 135933440
I1013 10:09:40.279079 13685 layer_factory.hpp:77] Creating layer relu2
I1013 10:09:40.279090 13685 net.cpp:86] Creating Layer relu2
I1013 10:09:40.279094 13685 net.cpp:408] relu2 <- conv2
I1013 10:09:40.279100 13685 net.cpp:369] relu2 -> conv2 (in-place)
I1013 10:09:40.279925 13685 net.cpp:124] Setting up relu2
I1013 10:09:40.279942 13685 net.cpp:131] Top shape: 32 256 27 27 (5971968)
I1013 10:09:40.279945 13685 net.cpp:139] Memory required for data: 159821312
I1013 10:09:40.279949 13685 layer_factory.hpp:77] Creating layer pool2
I1013 10:09:40.279958 13685 net.cpp:86] Creating Layer pool2
I1013 10:09:40.279961 13685 net.cpp:408] pool2 <- conv2
I1013 10:09:40.279969 13685 net.cpp:382] pool2 -> pool2
I1013 10:09:40.280021 13685 net.cpp:124] Setting up pool2
I1013 10:09:40.280028 13685 net.cpp:131] Top shape: 32 256 13 13 (1384448)
I1013 10:09:40.280032 13685 net.cpp:139] Memory required for data: 165359104
I1013 10:09:40.280063 13685 layer_factory.hpp:77] Creating layer norm2
I1013 10:09:40.280076 13685 net.cpp:86] Creating Layer norm2
I1013 10:09:40.280081 13685 net.cpp:408] norm2 <- pool2
I1013 10:09:40.280087 13685 net.cpp:382] norm2 -> norm2
I1013 10:09:40.280338 13685 net.cpp:124] Setting up norm2
I1013 10:09:40.280352 13685 net.cpp:131] Top shape: 32 256 13 13 (1384448)
I1013 10:09:40.280355 13685 net.cpp:139] Memory required for data: 170896896
I1013 10:09:40.280359 13685 layer_factory.hpp:77] Creating layer conv3
I1013 10:09:40.280375 13685 net.cpp:86] Creating Layer conv3
I1013 10:09:40.280380 13685 net.cpp:408] conv3 <- norm2
I1013 10:09:40.280387 13685 net.cpp:382] conv3 -> conv3
I1013 10:09:40.313654 13685 net.cpp:124] Setting up conv3
I1013 10:09:40.313676 13685 net.cpp:131] Top shape: 32 384 13 13 (2076672)
I1013 10:09:40.313680 13685 net.cpp:139] Memory required for data: 179203584
I1013 10:09:40.313691 13685 layer_factory.hpp:77] Creating layer relu3
I1013 10:09:40.313699 13685 net.cpp:86] Creating Layer relu3
I1013 10:09:40.313704 13685 net.cpp:408] relu3 <- conv3
I1013 10:09:40.313709 13685 net.cpp:369] relu3 -> conv3 (in-place)
I1013 10:09:40.313946 13685 net.cpp:124] Setting up relu3
I1013 10:09:40.313961 13685 net.cpp:131] Top shape: 32 384 13 13 (2076672)
I1013 10:09:40.313964 13685 net.cpp:139] Memory required for data: 187510272
I1013 10:09:40.313968 13685 layer_factory.hpp:77] Creating layer conv4
I1013 10:09:40.313982 13685 net.cpp:86] Creating Layer conv4
I1013 10:09:40.313985 13685 net.cpp:408] conv4 <- conv3
I1013 10:09:40.313994 13685 net.cpp:382] conv4 -> conv4
I1013 10:09:40.341526 13685 net.cpp:124] Setting up conv4
I1013 10:09:40.341545 13685 net.cpp:131] Top shape: 32 384 13 13 (2076672)
I1013 10:09:40.341552 13685 net.cpp:139] Memory required for data: 195816960
I1013 10:09:40.341558 13685 layer_factory.hpp:77] Creating layer relu4
I1013 10:09:40.341567 13685 net.cpp:86] Creating Layer relu4
I1013 10:09:40.341570 13685 net.cpp:408] relu4 <- conv4
I1013 10:09:40.341576 13685 net.cpp:369] relu4 -> conv4 (in-place)
I1013 10:09:40.342401 13685 net.cpp:124] Setting up relu4
I1013 10:09:40.342420 13685 net.cpp:131] Top shape: 32 384 13 13 (2076672)
I1013 10:09:40.342424 13685 net.cpp:139] Memory required for data: 204123648
I1013 10:09:40.342429 13685 layer_factory.hpp:77] Creating layer conv5
I1013 10:09:40.342442 13685 net.cpp:86] Creating Layer conv5
I1013 10:09:40.342447 13685 net.cpp:408] conv5 <- conv4
I1013 10:09:40.342453 13685 net.cpp:382] conv5 -> conv5
I1013 10:09:40.362305 13685 net.cpp:124] Setting up conv5
I1013 10:09:40.362326 13685 net.cpp:131] Top shape: 32 256 13 13 (1384448)
I1013 10:09:40.362330 13685 net.cpp:139] Memory required for data: 209661440
I1013 10:09:40.362341 13685 layer_factory.hpp:77] Creating layer relu5
I1013 10:09:40.362349 13685 net.cpp:86] Creating Layer relu5
I1013 10:09:40.362354 13685 net.cpp:408] relu5 <- conv5
I1013 10:09:40.362359 13685 net.cpp:369] relu5 -> conv5 (in-place)
I1013 10:09:40.363137 13685 net.cpp:124] Setting up relu5
I1013 10:09:40.363155 13685 net.cpp:131] Top shape: 32 256 13 13 (1384448)
I1013 10:09:40.363159 13685 net.cpp:139] Memory required for data: 215199232
I1013 10:09:40.363163 13685 layer_factory.hpp:77] Creating layer pool5
I1013 10:09:40.363170 13685 net.cpp:86] Creating Layer pool5
I1013 10:09:40.363174 13685 net.cpp:408] pool5 <- conv5
I1013 10:09:40.363183 13685 net.cpp:382] pool5 -> pool5
I1013 10:09:40.363237 13685 net.cpp:124] Setting up pool5
I1013 10:09:40.363247 13685 net.cpp:131] Top shape: 32 256 6 6 (294912)
I1013 10:09:40.363251 13685 net.cpp:139] Memory required for data: 216378880
I1013 10:09:40.363255 13685 layer_factory.hpp:77] Creating layer fc6
I1013 10:09:40.363268 13685 net.cpp:86] Creating Layer fc6
I1013 10:09:40.363272 13685 net.cpp:408] fc6 <- pool5
I1013 10:09:40.363281 13685 net.cpp:382] fc6 -> fc6
I1013 10:09:41.457103 13685 net.cpp:124] Setting up fc6
I1013 10:09:41.457157 13685 net.cpp:131] Top shape: 32 4096 (131072)
I1013 10:09:41.457162 13685 net.cpp:139] Memory required for data: 216903168
I1013 10:09:41.457208 13685 layer_factory.hpp:77] Creating layer relu6
I1013 10:09:41.457232 13685 net.cpp:86] Creating Layer relu6
I1013 10:09:41.457244 13685 net.cpp:408] relu6 <- fc6
I1013 10:09:41.457252 13685 net.cpp:369] relu6 -> fc6 (in-place)
I1013 10:09:41.457700 13685 net.cpp:124] Setting up relu6
I1013 10:09:41.457712 13685 net.cpp:131] Top shape: 32 4096 (131072)
I1013 10:09:41.457727 13685 net.cpp:139] Memory required for data: 217427456
I1013 10:09:41.457731 13685 layer_factory.hpp:77] Creating layer drop6
I1013 10:09:41.457741 13685 net.cpp:86] Creating Layer drop6
I1013 10:09:41.457756 13685 net.cpp:408] drop6 <- fc6
I1013 10:09:41.457762 13685 net.cpp:369] drop6 -> fc6 (in-place)
I1013 10:09:41.457820 13685 net.cpp:124] Setting up drop6
I1013 10:09:41.457826 13685 net.cpp:131] Top shape: 32 4096 (131072)
I1013 10:09:41.457829 13685 net.cpp:139] Memory required for data: 217951744
I1013 10:09:41.457834 13685 layer_factory.hpp:77] Creating layer fc7
I1013 10:09:41.457842 13685 net.cpp:86] Creating Layer fc7
I1013 10:09:41.457845 13685 net.cpp:408] fc7 <- fc6
I1013 10:09:41.457855 13685 net.cpp:382] fc7 -> fc7
I1013 10:09:41.932924 13685 net.cpp:124] Setting up fc7
I1013 10:09:41.932973 13685 net.cpp:131] Top shape: 32 4096 (131072)
I1013 10:09:41.932978 13685 net.cpp:139] Memory required for data: 218476032
I1013 10:09:41.932988 13685 layer_factory.hpp:77] Creating layer fc7_fc7_0_split
I1013 10:09:41.933009 13685 net.cpp:86] Creating Layer fc7_fc7_0_split
I1013 10:09:41.933014 13685 net.cpp:408] fc7_fc7_0_split <- fc7
I1013 10:09:41.933035 13685 net.cpp:382] fc7_fc7_0_split -> fc7_fc7_0_split_0
I1013 10:09:41.933045 13685 net.cpp:382] fc7_fc7_0_split -> fc7_fc7_0_split_1
I1013 10:09:41.933051 13685 net.cpp:382] fc7_fc7_0_split -> fc7_fc7_0_split_2
I1013 10:09:41.933135 13685 net.cpp:124] Setting up fc7_fc7_0_split
I1013 10:09:41.933145 13685 net.cpp:131] Top shape: 32 4096 (131072)
I1013 10:09:41.933148 13685 net.cpp:131] Top shape: 32 4096 (131072)
I1013 10:09:41.933152 13685 net.cpp:131] Top shape: 32 4096 (131072)
I1013 10:09:41.933156 13685 net.cpp:139] Memory required for data: 220048896
I1013 10:09:41.933159 13685 layer_factory.hpp:77] Creating layer relu7
I1013 10:09:41.933166 13685 net.cpp:86] Creating Layer relu7
I1013 10:09:41.933169 13685 net.cpp:408] relu7 <- fc7_fc7_0_split_0
I1013 10:09:41.933174 13685 net.cpp:382] relu7 -> relu7
I1013 10:09:41.934084 13685 net.cpp:124] Setting up relu7
I1013 10:09:41.934111 13685 net.cpp:131] Top shape: 32 4096 (131072)
I1013 10:09:41.934115 13685 net.cpp:139] Memory required for data: 220573184
I1013 10:09:41.934119 13685 layer_factory.hpp:77] Creating layer drop7
I1013 10:09:41.934130 13685 net.cpp:86] Creating Layer drop7
I1013 10:09:41.934134 13685 net.cpp:408] drop7 <- relu7
I1013 10:09:41.934139 13685 net.cpp:382] drop7 -> drop7
I1013 10:09:41.934211 13685 net.cpp:124] Setting up drop7
I1013 10:09:41.934221 13685 net.cpp:131] Top shape: 32 4096 (131072)
I1013 10:09:41.934223 13685 net.cpp:139] Memory required for data: 221097472
I1013 10:09:41.934227 13685 layer_factory.hpp:77] Creating layer tanh7
I1013 10:09:41.934234 13685 net.cpp:86] Creating Layer tanh7
I1013 10:09:41.934237 13685 net.cpp:408] tanh7 <- fc7_fc7_0_split_1
I1013 10:09:41.934242 13685 net.cpp:382] tanh7 -> tanh7
I1013 10:09:41.934465 13685 net.cpp:124] Setting up tanh7
I1013 10:09:41.934478 13685 net.cpp:131] Top shape: 32 4096 (131072)
I1013 10:09:41.934481 13685 net.cpp:139] Memory required for data: 221621760
I1013 10:09:41.934485 13685 layer_factory.hpp:77] Creating layer latent_ae
I1013 10:09:41.934496 13685 net.cpp:86] Creating Layer latent_ae
I1013 10:09:41.934500 13685 net.cpp:408] latent_ae <- tanh7
I1013 10:09:41.934505 13685 net.cpp:382] latent_ae -> latent_ae
I1013 10:09:41.939306 13685 net.cpp:124] Setting up latent_ae
I1013 10:09:41.939332 13685 net.cpp:131] Top shape: 32 36 (1152)
I1013 10:09:41.939335 13685 net.cpp:139] Memory required for data: 221626368
I1013 10:09:41.939352 13685 layer_factory.hpp:77] Creating layer sigmoid_ae
I1013 10:09:41.939396 13685 net.cpp:86] Creating Layer sigmoid_ae
I1013 10:09:41.939400 13685 net.cpp:408] sigmoid_ae <- latent_ae
I1013 10:09:41.939409 13685 net.cpp:382] sigmoid_ae -> sigmoid_ae
I1013 10:09:41.940171 13685 net.cpp:124] Setting up sigmoid_ae
I1013 10:09:41.940196 13685 net.cpp:131] Top shape: 32 36 (1152)
I1013 10:09:41.940198 13685 net.cpp:139] Memory required for data: 221630976
I1013 10:09:41.940202 13685 layer_factory.hpp:77] Creating layer sigmoid_ae_sigmoid_ae_0_split
I1013 10:09:41.940209 13685 net.cpp:86] Creating Layer sigmoid_ae_sigmoid_ae_0_split
I1013 10:09:41.940212 13685 net.cpp:408] sigmoid_ae_sigmoid_ae_0_split <- sigmoid_ae
I1013 10:09:41.940219 13685 net.cpp:382] sigmoid_ae_sigmoid_ae_0_split -> sigmoid_ae_sigmoid_ae_0_split_0
I1013 10:09:41.940227 13685 net.cpp:382] sigmoid_ae_sigmoid_ae_0_split -> sigmoid_ae_sigmoid_ae_0_split_1
I1013 10:09:41.940232 13685 net.cpp:382] sigmoid_ae_sigmoid_ae_0_split -> sigmoid_ae_sigmoid_ae_0_split_2
I1013 10:09:41.940248 13685 net.cpp:382] sigmoid_ae_sigmoid_ae_0_split -> sigmoid_ae_sigmoid_ae_0_split_3
I1013 10:09:41.940320 13685 net.cpp:124] Setting up sigmoid_ae_sigmoid_ae_0_split
I1013 10:09:41.940331 13685 net.cpp:131] Top shape: 32 36 (1152)
I1013 10:09:41.940335 13685 net.cpp:131] Top shape: 32 36 (1152)
I1013 10:09:41.940340 13685 net.cpp:131] Top shape: 32 36 (1152)
I1013 10:09:41.940342 13685 net.cpp:131] Top shape: 32 36 (1152)
I1013 10:09:41.940346 13685 net.cpp:139] Memory required for data: 221649408
I1013 10:09:41.940349 13685 layer_factory.hpp:77] Creating layer loss_1
I1013 10:09:41.940359 13685 net.cpp:86] Creating Layer loss_1
I1013 10:09:41.940362 13685 net.cpp:408] loss_1 <- sigmoid_ae_sigmoid_ae_0_split_0
I1013 10:09:41.940366 13685 net.cpp:408] loss_1 <- sigmoid_ae_sigmoid_ae_0_split_1
I1013 10:09:41.940371 13685 net.cpp:382] loss_1 -> loss: forcing-binary
I1013 10:09:41.940428 13685 net.cpp:124] Setting up loss_1
I1013 10:09:41.940449 13685 net.cpp:131] Top shape: (1)
I1013 10:09:41.940452 13685 net.cpp:134]     with loss weight 1
I1013 10:09:41.940487 13685 net.cpp:139] Memory required for data: 221649412
I1013 10:09:41.940491 13685 layer_factory.hpp:77] Creating layer latent_sigmoid_reshape
I1013 10:09:41.940501 13685 net.cpp:86] Creating Layer latent_sigmoid_reshape
I1013 10:09:41.940505 13685 net.cpp:408] latent_sigmoid_reshape <- sigmoid_ae_sigmoid_ae_0_split_2
I1013 10:09:41.940513 13685 net.cpp:382] latent_sigmoid_reshape -> latent_sigmoid_reshape
I1013 10:09:41.940554 13685 net.cpp:124] Setting up latent_sigmoid_reshape
I1013 10:09:41.940564 13685 net.cpp:131] Top shape: 32 1 1 36 (1152)
I1013 10:09:41.940567 13685 net.cpp:139] Memory required for data: 221654020
I1013 10:09:41.940570 13685 layer_factory.hpp:77] Creating layer latent_sigmoid_avg
I1013 10:09:41.940578 13685 net.cpp:86] Creating Layer latent_sigmoid_avg
I1013 10:09:41.940582 13685 net.cpp:408] latent_sigmoid_avg <- latent_sigmoid_reshape
I1013 10:09:41.940589 13685 net.cpp:382] latent_sigmoid_avg -> latent_sigmoid_avg
I1013 10:09:41.940838 13685 net.cpp:124] Setting up latent_sigmoid_avg
I1013 10:09:41.940852 13685 net.cpp:131] Top shape: 32 1 1 1 (32)
I1013 10:09:41.940857 13685 net.cpp:139] Memory required for data: 221654148
I1013 10:09:41.940861 13685 layer_factory.hpp:77] Creating layer latent_sigmoid_avg_latent_sigmoid_avg_0_split
I1013 10:09:41.940867 13685 net.cpp:86] Creating Layer latent_sigmoid_avg_latent_sigmoid_avg_0_split
I1013 10:09:41.940871 13685 net.cpp:408] latent_sigmoid_avg_latent_sigmoid_avg_0_split <- latent_sigmoid_avg
I1013 10:09:41.940876 13685 net.cpp:382] latent_sigmoid_avg_latent_sigmoid_avg_0_split -> latent_sigmoid_avg_latent_sigmoid_avg_0_split_0
I1013 10:09:41.940881 13685 net.cpp:382] latent_sigmoid_avg_latent_sigmoid_avg_0_split -> latent_sigmoid_avg_latent_sigmoid_avg_0_split_1
I1013 10:09:41.940925 13685 net.cpp:124] Setting up latent_sigmoid_avg_latent_sigmoid_avg_0_split
I1013 10:09:41.940934 13685 net.cpp:131] Top shape: 32 1 1 1 (32)
I1013 10:09:41.940938 13685 net.cpp:131] Top shape: 32 1 1 1 (32)
I1013 10:09:41.940953 13685 net.cpp:139] Memory required for data: 221654404
I1013 10:09:41.940958 13685 layer_factory.hpp:77] Creating layer loss_2
I1013 10:09:41.940964 13685 net.cpp:86] Creating Layer loss_2
I1013 10:09:41.940968 13685 net.cpp:408] loss_2 <- latent_sigmoid_avg_latent_sigmoid_avg_0_split_0
I1013 10:09:41.940973 13685 net.cpp:408] loss_2 <- latent_sigmoid_avg_latent_sigmoid_avg_0_split_1
I1013 10:09:41.940979 13685 net.cpp:382] loss_2 -> loss: 50%-fire-rate
I1013 10:09:41.941020 13685 net.cpp:124] Setting up loss_2
I1013 10:09:41.941028 13685 net.cpp:131] Top shape: (1)
I1013 10:09:41.941031 13685 net.cpp:134]     with loss weight 1000
I1013 10:09:41.941038 13685 net.cpp:139] Memory required for data: 221654408
I1013 10:09:41.941041 13685 layer_factory.hpp:77] Creating layer reconstruct
I1013 10:09:41.941059 13685 net.cpp:86] Creating Layer reconstruct
I1013 10:09:41.941063 13685 net.cpp:408] reconstruct <- sigmoid_ae_sigmoid_ae_0_split_3
I1013 10:09:41.941068 13685 net.cpp:382] reconstruct -> reconstruct
I1013 10:09:41.945899 13685 net.cpp:124] Setting up reconstruct
I1013 10:09:41.945925 13685 net.cpp:131] Top shape: 32 4096 (131072)
I1013 10:09:41.945928 13685 net.cpp:139] Memory required for data: 222178696
I1013 10:09:41.945952 13685 layer_factory.hpp:77] Creating layer reconstruct_loss
I1013 10:09:41.945961 13685 net.cpp:86] Creating Layer reconstruct_loss
I1013 10:09:41.945966 13685 net.cpp:408] reconstruct_loss <- reconstruct
I1013 10:09:41.945971 13685 net.cpp:408] reconstruct_loss <- fc7_fc7_0_split_2
I1013 10:09:41.945974 13685 net.cpp:382] reconstruct_loss -> loss: reconstruction-error
I1013 10:09:41.946029 13685 net.cpp:124] Setting up reconstruct_loss
I1013 10:09:41.946036 13685 net.cpp:131] Top shape: (1)
I1013 10:09:41.946039 13685 net.cpp:134]     with loss weight 0.001
I1013 10:09:41.946046 13685 net.cpp:139] Memory required for data: 222178700
I1013 10:09:41.946049 13685 layer_factory.hpp:77] Creating layer latent
I1013 10:09:41.946059 13685 net.cpp:86] Creating Layer latent
I1013 10:09:41.946063 13685 net.cpp:408] latent <- drop7
I1013 10:09:41.946069 13685 net.cpp:382] latent -> latent
I1013 10:09:41.947551 13685 net.cpp:124] Setting up latent
I1013 10:09:41.947561 13685 net.cpp:131] Top shape: 32 12 (384)
I1013 10:09:41.947576 13685 net.cpp:139] Memory required for data: 222180236
I1013 10:09:41.947582 13685 layer_factory.hpp:77] Creating layer latent_sigmoid
I1013 10:09:41.947590 13685 net.cpp:86] Creating Layer latent_sigmoid
I1013 10:09:41.947594 13685 net.cpp:408] latent_sigmoid <- latent
I1013 10:09:41.947599 13685 net.cpp:382] latent_sigmoid -> latent_sigmoid
I1013 10:09:41.948371 13685 net.cpp:124] Setting up latent_sigmoid
I1013 10:09:41.948400 13685 net.cpp:131] Top shape: 32 12 (384)
I1013 10:09:41.948405 13685 net.cpp:139] Memory required for data: 222181772
I1013 10:09:41.948408 13685 layer_factory.hpp:77] Creating layer fc9
I1013 10:09:41.948418 13685 net.cpp:86] Creating Layer fc9
I1013 10:09:41.948422 13685 net.cpp:408] fc9 <- latent_sigmoid
I1013 10:09:41.948431 13685 net.cpp:382] fc9 -> fc9
I1013 10:09:41.948580 13685 net.cpp:124] Setting up fc9
I1013 10:09:41.948590 13685 net.cpp:131] Top shape: 32 10 (320)
I1013 10:09:41.948592 13685 net.cpp:139] Memory required for data: 222183052
I1013 10:09:41.948598 13685 layer_factory.hpp:77] Creating layer loss
I1013 10:09:41.948613 13685 net.cpp:86] Creating Layer loss
I1013 10:09:41.948617 13685 net.cpp:408] loss <- fc9
I1013 10:09:41.948621 13685 net.cpp:408] loss <- label
I1013 10:09:41.948628 13685 net.cpp:382] loss -> loss: classfication-error
…
I1013 10:09:42.685786 13685 solver.cpp:190] Creating test net (#0) specified by net file: examples/cifar10/train_val_cifar10_ae.prototxt
I1013 10:09:42.685876 13685 net.cpp:296] The NetState phase (1) differed from the phase (0) specified by a rule in layer data
I1013 10:09:42.686143 13685 net.cpp:53] Initializing net from parameters: 
name: "AESSDH"
state {
  phase: TEST
}
layer {
  name: "data"
  type: "Data"
  top: "data"
  top: "label"
  include {
    phase: TEST
  }
  transform_param {
    mirror: false
    crop_size: 227
    mean_file: "./data/ilsvrc12/imagenet_mean.binaryproto"
  }
  data_param {
    source: "data/cifar10/cifar10_val_leveldb"
    batch_size: 50
  }
}
layer {
  name: "conv1"
  type: "Convolution"
  bottom: "data"
  top: "conv1"
  param {
    lr_mult: 1
    decay_mult: 1
  }
  param {
    lr_mult: 2
    decay_mult: 0
  }
  convolution_param {
    num_output: 96
    kernel_size: 11
    stride: 4
    weight_filler {
      type: "gaussian"
      std: 0.01
    }
    bias_filler {
      type: "constant"
      value: 0
    }
  }
}
layer {
  name: "relu1"
  type: "ReLU"
  bottom: "conv1"
  top: "conv1"
}
layer {
  name: "pool1"
  type: "Pooling"
  bottom: "conv1"
  top: "pool1"
  pooling_param {
    pool: MAX
    kernel_size: 3
    stride: 2
  }
}
layer {
  name: "norm1"
  type: "LRN"
  bottom: "pool1"
  top: "norm1"
  lrn_param {
    local_size: 5
    alpha: 0.0001
    beta: 0.75
  }
}
layer {
  name: "conv2"
  type: "Convolution"
  bottom: "norm1"
  top: "conv2"
  param {
    lr_mult: 1
    decay_mult: 1
  }
  param {
    lr_mult: 2
    decay_mult: 0
  }
  convolution_param {
    num_output: 256
    pad: 2
    kernel_size: 5
    group: 2
    weight_filler {
      type: "gaussian"
      std: 0.01
    }
    bias_filler {
      type: "constant"
      value: 1
    }
  }
}
layer {
  name: "relu2"
  type: "ReLU"
  bottom: "conv2"
  top: "conv2"
}
layer {
  name: "pool2"
  type: "Pooling"
  bottom: "conv2"
  top: "pool2"
  pooling_param {
    pool: MAX
    kernel_size: 3
    stride: 2
  }
}
layer {
  name: "norm2"
  type: "LRN"
  bottom: "pool2"
  top: "norm2"
  lrn_param {
    local_size: 5
    alpha: 0.0001
    beta: 0.75
  }
}
layer {
  name: "conv3"
  type: "Convolution"
  bottom: "norm2"
  top: "conv3"
  param {
    lr_mult: 1
    decay_mult: 1
  }
  param {
    lr_mult: 2
    decay_mult: 0
  }
  convolution_param {
    num_output: 384
    pad: 1
    kernel_size: 3
    weight_filler {
      type: "gaussian"
      std: 0.01
    }
    bias_filler {
      type: "constant"
      value: 0
    }
  }
}
layer {
  name: "relu3"
  type: "ReLU"
  bottom: "conv3"
  top: "conv3"
}
layer {
  name: "conv4"
  type: "Convolution"
  bottom: "conv3"
  top: "conv4"
  param {
    lr_mult: 1
    decay_mult: 1
  }
  param {
    lr_mult: 2
    decay_mult: 0
  }
  convolution_param {
    num_output: 384
    pad: 1
    kernel_size: 3
    group: 2
    weight_filler {
      type: "gaussian"
      std: 0.01
    }
    bias_filler {
      type: "constant"
      value: 1
    }
  }
}
layer {
  name: "relu4"
  type: "ReLU"
  bottom: "conv4"
  top: "conv4"
}
layer {
  name: "conv5"
  type: "Convolution"
  bottom: "conv4"
  top: "conv5"
  param {
    lr_mult: 1
    decay_mult: 1
  }
  param {
    lr_mult: 2
    decay_mult: 0
  }
  convolution_param {
    num_output: 256
    pad: 1
    kernel_size: 3
    group: 2
    weight_filler {
      type: "gaussian"
      std: 0.01
    }
    bias_filler {
      type: "constant"
      value: 1
    }
  }
}
layer {
  name: "relu5"
  type: "ReLU"
  bottom: "conv5"
  top: "conv5"
}
layer {
  name: "pool5"
  type: "Pooling"
  bottom: "conv5"
  top: "pool5"
  pooling_param {
    pool: MAX
    kernel_size: 3
    stride: 2
  }
}
layer {
  name: "fc6"
  type: "InnerProduct"
  bottom: "pool5"
  top: "fc6"
  param {
    lr_mult: 1
    decay_mult: 1
  }
  param {
    lr_mult: 2
    decay_mult: 0
  }
  inner_product_param {
    num_output: 4096
    weight_filler {
      type: "gaussian"
      std: 0.005
    }
    bias_filler {
      type: "constant"
      value: 1
    }
  }
}
layer {
  name: "relu6"
  type: "ReLU"
  bottom: "fc6"
  top: "fc6"
}
layer {
  name: "drop6"
  type: "Dropout"
  bottom: "fc6"
  top: "fc6"
  dropout_param {
    dropout_ratio: 0.5
  }
}
layer {
  name: "fc7"
  type: "InnerProduct"
  bottom: "fc6"
  top: "fc7"
  param {
    lr_mult: 1
    decay_mult: 1
  }
  param {
    lr_mult: 2
    decay_mult: 0
  }
  inner_product_param {
    num_output: 4096
    weight_filler {
      type: "gaussian"
      std: 0.005
    }
    bias_filler {
      type: "constant"
      value: 1
    }
  }
}
layer {
  name: "relu7"
  type: "ReLU"
  bottom: "fc7"
  top: "relu7"
}
layer {
  name: "drop7"
  type: "Dropout"
  bottom: "relu7"
  top: "drop7"
  dropout_param {
    dropout_ratio: 0.5
  }
}
layer {
  name: "tanh7"
  type: "TanH"
  bottom: "fc7"
  top: "tanh7"
}
layer {
  name: "latent_ae"
  type: "InnerProduct"
  bottom: "tanh7"
  top: "latent_ae"
  param {
    lr_mult: 10
    decay_mult: 10
  }
  param {
    lr_mult: 20
    decay_mult: 0
  }
  inner_product_param {
    num_output: 36
    weight_filler {
      type: "gaussian"
      std: 0.01
    }
    bias_filler {
      type: "constant"
      value: 1
    }
  }
}
layer {
  name: "sigmoid_ae"
  type: "Sigmoid"
  bottom: "latent_ae"
  top: "sigmoid_ae"
}
layer {
  name: "loss_1"
  type: "K1_EuclideanLoss"
  bottom: "sigmoid_ae"
  bottom: "sigmoid_ae"
  top: "loss: forcing-binary"
  loss_weight: 1
  propagate_down: true
  propagate_down: false
}
layer {
  name: "latent_sigmoid_reshape"
  type: "Reshape"
  bottom: "sigmoid_ae"
  top: "latent_sigmoid_reshape"
  reshape_param {
    shape {
      dim: 0
      dim: 1
      dim: 1
      dim: -1
    }
  }
}
layer {
  name: "latent_sigmoid_avg"
  type: "Pooling"
  bottom: "latent_sigmoid_reshape"
  top: "latent_sigmoid_avg"
  pooling_param {
    pool: AVE
    kernel_h: 1
    kernel_w: 36
  }
}
layer {
  name: "loss_2"
  type: "K2_EuclideanLoss"
  bottom: "latent_sigmoid_avg"
  bottom: "latent_sigmoid_avg"
  top: "loss: 50%-fire-rate"
  loss_weight: 1000
  propagate_down: true
  propagate_down: false
}
layer {
  name: "reconstruct"
  type: "InnerProduct"
  bottom: "sigmoid_ae"
  top: "reconstruct"
  param {
    lr_mult: 10
    decay_mult: 10
  }
  param {
    lr_mult: 20
    decay_mult: 0
  }
  inner_product_param {
    num_output: 4096
    weight_filler {
      type: "gaussian"
      std: 0.01
    }
    bias_filler {
      type: "constant"
      value: 0
    }
  }
}
layer {
  name: "reconstruct_loss"
  type: "EuclideanLoss"
  bottom: "reconstruct"
  bottom: "fc7"
  top: "loss: reconstruction-error"
  loss_weight: 0.001
  propagate_down: true
  propagate_down: false
}
layer {
  name: "latent"
  type: "InnerProduct"
  bottom: "drop7"
  top: "latent"
  param {
    lr_mult: 1
    decay_mult: 1
  }
  param {
    lr_mult: 2
    decay_mult: 0
  }
  inner_product_param {
    num_output: 12
    weight_filler {
      type: "gaussian"
      std: 0.01
    }
    bias_filler {
      type: "constant"
      value: 0
    }
  }
}
layer {
  name: "latent_sigmoid"
  type: "Sigmoid"
  bottom: "latent"
  top: "latent_sigmoid"
}
layer {
  name: "fc9"
  type: "InnerProduct"
  bottom: "latent_sigmoid"
  top: "fc9"
  param {
    lr_mult: 10
    decay_mult: 1
  }
  param {
    lr_mult: 20
    decay_mult: 0
  }
  inner_product_param {
    num_output: 10
    weight_filler {
      type: "gaussian"
      std: 0.2
    }
    bias_filler {
      type: "constant"
      value: 0
    }
  }
}
layer {
  name: "accuracy"
  type: "Accuracy"
  bottom: "fc9"
  bottom: "label"
  top: "accuracy"
  include {
    phase: TEST
  }
}
layer {
  name: "loss"
  type: "SoftmaxWithLoss"
  bottom: "fc9"
  bottom: "label"
  top: "loss: classfication-error"
  loss_weight: 1
}
I1013 10:09:42.686347 13685 layer_factory.hpp:77] Creating layer data
I1013 10:09:42.824512 13685 db_leveldb.cpp:18] Opened leveldb data/cifar10/cifar10_val_leveldb
I1013 10:09:42.827554 13685 net.cpp:86] Creating Layer data
I1013 10:09:42.827587 13685 net.cpp:382] data -> data
I1013 10:09:42.827636 13685 net.cpp:382] data -> label
I1013 10:09:42.827664 13685 data_transformer.cpp:25] Loading mean file from: ./data/ilsvrc12/imagenet_mean.binaryproto
I1013 10:09:42.831873 13685 data_layer.cpp:45] output data size: 50,3,227,227
I1013 10:09:42.928550 13685 net.cpp:124] Setting up data
I1013 10:09:42.928593 13685 net.cpp:131] Top shape: 50 3 227 227 (7729350)
I1013 10:09:42.928601 13685 net.cpp:131] Top shape: 50 (50)
I1013 10:09:42.928606 13685 net.cpp:139] Memory required for data: 30917600
I1013 10:09:42.928613 13685 layer_factory.hpp:77] Creating layer label_data_1_split
I1013 10:09:42.928632 13685 net.cpp:86] Creating Layer label_data_1_split
I1013 10:09:42.928637 13685 net.cpp:408] label_data_1_split <- label
I1013 10:09:42.928647 13685 net.cpp:382] label_data_1_split -> label_data_1_split_0
I1013 10:09:42.928664 13685 net.cpp:382] label_data_1_split -> label_data_1_split_1
I1013 10:09:42.928866 13685 net.cpp:124] Setting up label_data_1_split
I1013 10:09:42.928882 13685 net.cpp:131] Top shape: 50 (50)
I1013 10:09:42.928886 13685 net.cpp:131] Top shape: 50 (50)
I1013 10:09:42.928891 13685 net.cpp:139] Memory required for data: 30918000
I1013 10:09:42.928898 13685 layer_factory.hpp:77] Creating layer conv1
I1013 10:09:42.928925 13685 net.cpp:86] Creating Layer conv1
I1013 10:09:42.928947 13685 net.cpp:408] conv1 <- data
I1013 10:09:42.928961 13685 net.cpp:382] conv1 -> conv1
I1013 10:09:42.935092 13685 net.cpp:124] Setting up conv1
I1013 10:09:42.935124 13685 net.cpp:131] Top shape: 50 96 55 55 (14520000)
I1013 10:09:42.935129 13685 net.cpp:139] Memory required for data: 88998000
I1013 10:09:42.935142 13685 layer_factory.hpp:77] Creating layer relu1
I1013 10:09:42.935150 13685 net.cpp:86] Creating Layer relu1
I1013 10:09:42.935154 13685 net.cpp:408] relu1 <- conv1
I1013 10:09:42.935160 13685 net.cpp:369] relu1 -> conv1 (in-place)
I1013 10:09:42.936018 13685 net.cpp:124] Setting up relu1
I1013 10:09:42.936045 13685 net.cpp:131] Top shape: 50 96 55 55 (14520000)
I1013 10:09:42.936049 13685 net.cpp:139] Memory required for data: 147078000
I1013 10:09:42.936053 13685 layer_factory.hpp:77] Creating layer pool1
I1013 10:09:42.936064 13685 net.cpp:86] Creating Layer pool1
I1013 10:09:42.936069 13685 net.cpp:408] pool1 <- conv1
I1013 10:09:42.936074 13685 net.cpp:382] pool1 -> pool1
I1013 10:09:42.936151 13685 net.cpp:124] Setting up pool1
I1013 10:09:42.936180 13685 net.cpp:131] Top shape: 50 96 27 27 (3499200)
I1013 10:09:42.936187 13685 net.cpp:139] Memory required for data: 161074800
I1013 10:09:42.936192 13685 layer_factory.hpp:77] Creating layer norm1
I1013 10:09:42.936206 13685 net.cpp:86] Creating Layer norm1
I1013 10:09:42.936213 13685 net.cpp:408] norm1 <- pool1
I1013 10:09:42.936223 13685 net.cpp:382] norm1 -> norm1
I1013 10:09:42.936498 13685 net.cpp:124] Setting up norm1
I1013 10:09:42.936513 13685 net.cpp:131] Top shape: 50 96 27 27 (3499200)
I1013 10:09:42.936517 13685 net.cpp:139] Memory required for data: 175071600
I1013 10:09:42.936520 13685 layer_factory.hpp:77] Creating layer conv2
I1013 10:09:42.936532 13685 net.cpp:86] Creating Layer conv2
I1013 10:09:42.936537 13685 net.cpp:408] conv2 <- norm1
I1013 10:09:42.936549 13685 net.cpp:382] conv2 -> conv2
I1013 10:09:42.953022 13685 net.cpp:124] Setting up conv2
I1013 10:09:42.953047 13685 net.cpp:131] Top shape: 50 256 27 27 (9331200)
I1013 10:09:42.953054 13685 net.cpp:139] Memory required for data: 212396400
I1013 10:09:42.953068 13685 layer_factory.hpp:77] Creating layer relu2
I1013 10:09:42.953080 13685 net.cpp:86] Creating Layer relu2
I1013 10:09:42.953085 13685 net.cpp:408] relu2 <- conv2
I1013 10:09:42.953094 13685 net.cpp:369] relu2 -> conv2 (in-place)
I1013 10:09:42.953486 13685 net.cpp:124] Setting up relu2
I1013 10:09:42.953519 13685 net.cpp:131] Top shape: 50 256 27 27 (9331200)
I1013 10:09:42.953534 13685 net.cpp:139] Memory required for data: 249721200
I1013 10:09:42.953558 13685 layer_factory.hpp:77] Creating layer pool2
I1013 10:09:42.953568 13685 net.cpp:86] Creating Layer pool2
I1013 10:09:42.953608 13685 net.cpp:408] pool2 <- conv2
I1013 10:09:42.953622 13685 net.cpp:382] pool2 -> pool2
I1013 10:09:42.953714 13685 net.cpp:124] Setting up pool2
I1013 10:09:42.953729 13685 net.cpp:131] Top shape: 50 256 13 13 (2163200)
I1013 10:09:42.953733 13685 net.cpp:139] Memory required for data: 258374000
I1013 10:09:42.953737 13685 layer_factory.hpp:77] Creating layer norm2
I1013 10:09:42.953748 13685 net.cpp:86] Creating Layer norm2
I1013 10:09:42.953755 13685 net.cpp:408] norm2 <- pool2
I1013 10:09:42.953763 13685 net.cpp:382] norm2 -> norm2
I1013 10:09:42.954569 13685 net.cpp:124] Setting up norm2
I1013 10:09:42.954584 13685 net.cpp:131] Top shape: 50 256 13 13 (2163200)
I1013 10:09:42.954601 13685 net.cpp:139] Memory required for data: 267026800
I1013 10:09:42.954603 13685 layer_factory.hpp:77] Creating layer conv3
I1013 10:09:42.954615 13685 net.cpp:86] Creating Layer conv3
I1013 10:09:42.954619 13685 net.cpp:408] conv3 <- norm2
I1013 10:09:42.954627 13685 net.cpp:382] conv3 -> conv3
I1013 10:09:42.982836 13685 net.cpp:124] Setting up conv3
I1013 10:09:42.982877 13685 net.cpp:131] Top shape: 50 384 13 13 (3244800)
I1013 10:09:42.982882 13685 net.cpp:139] Memory required for data: 280006000
I1013 10:09:42.982897 13685 layer_factory.hpp:77] Creating layer relu3
I1013 10:09:42.982908 13685 net.cpp:86] Creating Layer relu3
I1013 10:09:42.982913 13685 net.cpp:408] relu3 <- conv3
I1013 10:09:42.982919 13685 net.cpp:369] relu3 -> conv3 (in-place)
I1013 10:09:42.983207 13685 net.cpp:124] Setting up relu3
I1013 10:09:42.983222 13685 net.cpp:131] Top shape: 50 384 13 13 (3244800)
I1013 10:09:42.983227 13685 net.cpp:139] Memory required for data: 292985200
I1013 10:09:42.983232 13685 layer_factory.hpp:77] Creating layer conv4
I1013 10:09:42.983250 13685 net.cpp:86] Creating Layer conv4
I1013 10:09:42.983258 13685 net.cpp:408] conv4 <- conv3
I1013 10:09:42.983270 13685 net.cpp:382] conv4 -> conv4
I1013 10:09:43.006989 13685 net.cpp:124] Setting up conv4
I1013 10:09:43.007026 13685 net.cpp:131] Top shape: 50 384 13 13 (3244800)
I1013 10:09:43.007030 13685 net.cpp:139] Memory required for data: 305964400
I1013 10:09:43.007040 13685 layer_factory.hpp:77] Creating layer relu4
I1013 10:09:43.007050 13685 net.cpp:86] Creating Layer relu4
I1013 10:09:43.007055 13685 net.cpp:408] relu4 <- conv4
I1013 10:09:43.007062 13685 net.cpp:369] relu4 -> conv4 (in-place)
I1013 10:09:43.007335 13685 net.cpp:124] Setting up relu4
I1013 10:09:43.007351 13685 net.cpp:131] Top shape: 50 384 13 13 (3244800)
I1013 10:09:43.007354 13685 net.cpp:139] Memory required for data: 318943600
I1013 10:09:43.007359 13685 layer_factory.hpp:77] Creating layer conv5
I1013 10:09:43.007376 13685 net.cpp:86] Creating Layer conv5
I1013 10:09:43.007385 13685 net.cpp:408] conv5 <- conv4
I1013 10:09:43.007395 13685 net.cpp:382] conv5 -> conv5
I1013 10:09:43.024194 13685 net.cpp:124] Setting up conv5
I1013 10:09:43.024230 13685 net.cpp:131] Top shape: 50 256 13 13 (2163200)
I1013 10:09:43.024235 13685 net.cpp:139] Memory required for data: 327596400
I1013 10:09:43.024248 13685 layer_factory.hpp:77] Creating layer relu5
I1013 10:09:43.024258 13685 net.cpp:86] Creating Layer relu5
I1013 10:09:43.024262 13685 net.cpp:408] relu5 <- conv5
I1013 10:09:43.024268 13685 net.cpp:369] relu5 -> conv5 (in-place)
I1013 10:09:43.025079 13685 net.cpp:124] Setting up relu5
I1013 10:09:43.025105 13685 net.cpp:131] Top shape: 50 256 13 13 (2163200)
I1013 10:09:43.025110 13685 net.cpp:139] Memory required for data: 336249200
I1013 10:09:43.025113 13685 layer_factory.hpp:77] Creating layer pool5
I1013 10:09:43.025125 13685 net.cpp:86] Creating Layer pool5
I1013 10:09:43.025130 13685 net.cpp:408] pool5 <- conv5
I1013 10:09:43.025136 13685 net.cpp:382] pool5 -> pool5
I1013 10:09:43.025255 13685 net.cpp:124] Setting up pool5
I1013 10:09:43.025274 13685 net.cpp:131] Top shape: 50 256 6 6 (460800)
I1013 10:09:43.025280 13685 net.cpp:139] Memory required for data: 338092400
I1013 10:09:43.025286 13685 layer_factory.hpp:77] Creating layer fc6
I1013 10:09:43.025301 13685 net.cpp:86] Creating Layer fc6
I1013 10:09:43.025360 13685 net.cpp:408] fc6 <- pool5
I1013 10:09:43.025396 13685 net.cpp:382] fc6 -> fc6
I1013 10:09:44.143981 13685 net.cpp:124] Setting up fc6
I1013 10:09:44.144039 13685 net.cpp:131] Top shape: 50 4096 (204800)
I1013 10:09:44.144044 13685 net.cpp:139] Memory required for data: 338911600
I1013 10:09:44.144058 13685 layer_factory.hpp:77] Creating layer relu6
I1013 10:09:44.144079 13685 net.cpp:86] Creating Layer relu6
I1013 10:09:44.144086 13685 net.cpp:408] relu6 <- fc6
I1013 10:09:44.144107 13685 net.cpp:369] relu6 -> fc6 (in-place)
I1013 10:09:44.144604 13685 net.cpp:124] Setting up relu6
I1013 10:09:44.144629 13685 net.cpp:131] Top shape: 50 4096 (204800)
I1013 10:09:44.144631 13685 net.cpp:139] Memory required for data: 339730800
I1013 10:09:44.144647 13685 layer_factory.hpp:77] Creating layer drop6
I1013 10:09:44.144660 13685 net.cpp:86] Creating Layer drop6
I1013 10:09:44.144665 13685 net.cpp:408] drop6 <- fc6
I1013 10:09:44.144670 13685 net.cpp:369] drop6 -> fc6 (in-place)
I1013 10:09:44.144727 13685 net.cpp:124] Setting up drop6
I1013 10:09:44.144733 13685 net.cpp:131] Top shape: 50 4096 (204800)
I1013 10:09:44.144737 13685 net.cpp:139] Memory required for data: 340550000
I1013 10:09:44.144739 13685 layer_factory.hpp:77] Creating layer fc7
I1013 10:09:44.144749 13685 net.cpp:86] Creating Layer fc7
I1013 10:09:44.144753 13685 net.cpp:408] fc7 <- fc6
I1013 10:09:44.144760 13685 net.cpp:382] fc7 -> fc7
I1013 10:09:44.616592 13685 net.cpp:124] Setting up fc7
I1013 10:09:44.616631 13685 net.cpp:131] Top shape: 50 4096 (204800)
I1013 10:09:44.616636 13685 net.cpp:139] Memory required for data: 341369200
I1013 10:09:44.616647 13685 layer_factory.hpp:77] Creating layer fc7_fc7_0_split
I1013 10:09:44.616662 13685 net.cpp:86] Creating Layer fc7_fc7_0_split
I1013 10:09:44.616667 13685 net.cpp:408] fc7_fc7_0_split <- fc7
I1013 10:09:44.616675 13685 net.cpp:382] fc7_fc7_0_split -> fc7_fc7_0_split_0
I1013 10:09:44.616704 13685 net.cpp:382] fc7_fc7_0_split -> fc7_fc7_0_split_1
I1013 10:09:44.616711 13685 net.cpp:382] fc7_fc7_0_split -> fc7_fc7_0_split_2
I1013 10:09:44.616796 13685 net.cpp:124] Setting up fc7_fc7_0_split
I1013 10:09:44.616806 13685 net.cpp:131] Top shape: 50 4096 (204800)
I1013 10:09:44.616811 13685 net.cpp:131] Top shape: 50 4096 (204800)
I1013 10:09:44.616814 13685 net.cpp:131] Top shape: 50 4096 (204800)
I1013 10:09:44.616817 13685 net.cpp:139] Memory required for data: 343826800
I1013 10:09:44.616822 13685 layer_factory.hpp:77] Creating layer relu7
I1013 10:09:44.616830 13685 net.cpp:86] Creating Layer relu7
I1013 10:09:44.616833 13685 net.cpp:408] relu7 <- fc7_fc7_0_split_0
I1013 10:09:44.616839 13685 net.cpp:382] relu7 -> relu7
I1013 10:09:44.617820 13685 net.cpp:124] Setting up relu7
I1013 10:09:44.617847 13685 net.cpp:131] Top shape: 50 4096 (204800)
I1013 10:09:44.617851 13685 net.cpp:139] Memory required for data: 344646000
I1013 10:09:44.617854 13685 layer_factory.hpp:77] Creating layer drop7
I1013 10:09:44.617864 13685 net.cpp:86] Creating Layer drop7
I1013 10:09:44.617868 13685 net.cpp:408] drop7 <- relu7
I1013 10:09:44.617874 13685 net.cpp:382] drop7 -> drop7
I1013 10:09:44.617934 13685 net.cpp:124] Setting up drop7
I1013 10:09:44.617941 13685 net.cpp:131] Top shape: 50 4096 (204800)
I1013 10:09:44.617944 13685 net.cpp:139] Memory required for data: 345465200
I1013 10:09:44.617947 13685 layer_factory.hpp:77] Creating layer tanh7
I1013 10:09:44.617954 13685 net.cpp:86] Creating Layer tanh7
I1013 10:09:44.617959 13685 net.cpp:408] tanh7 <- fc7_fc7_0_split_1
I1013 10:09:44.617964 13685 net.cpp:382] tanh7 -> tanh7
I1013 10:09:44.618209 13685 net.cpp:124] Setting up tanh7
I1013 10:09:44.618221 13685 net.cpp:131] Top shape: 50 4096 (204800)
I1013 10:09:44.618225 13685 net.cpp:139] Memory required for data: 346284400
I1013 10:09:44.618228 13685 layer_factory.hpp:77] Creating layer latent_ae
I1013 10:09:44.618240 13685 net.cpp:86] Creating Layer latent_ae
I1013 10:09:44.618244 13685 net.cpp:408] latent_ae <- tanh7
I1013 10:09:44.618250 13685 net.cpp:382] latent_ae -> latent_ae
I1013 10:09:44.622948 13685 net.cpp:124] Setting up latent_ae
I1013 10:09:44.622964 13685 net.cpp:131] Top shape: 50 36 (1800)
I1013 10:09:44.622967 13685 net.cpp:139] Memory required for data: 346291600
I1013 10:09:44.622973 13685 layer_factory.hpp:77] Creating layer sigmoid_ae
I1013 10:09:44.622982 13685 net.cpp:86] Creating Layer sigmoid_ae
I1013 10:09:44.622985 13685 net.cpp:408] sigmoid_ae <- latent_ae
I1013 10:09:44.622992 13685 net.cpp:382] sigmoid_ae -> sigmoid_ae
I1013 10:09:44.623798 13685 net.cpp:124] Setting up sigmoid_ae
I1013 10:09:44.623813 13685 net.cpp:131] Top shape: 50 36 (1800)
I1013 10:09:44.623816 13685 net.cpp:139] Memory required for data: 346298800
I1013 10:09:44.623819 13685 layer_factory.hpp:77] Creating layer sigmoid_ae_sigmoid_ae_0_split
I1013 10:09:44.623828 13685 net.cpp:86] Creating Layer sigmoid_ae_sigmoid_ae_0_split
I1013 10:09:44.623831 13685 net.cpp:408] sigmoid_ae_sigmoid_ae_0_split <- sigmoid_ae
I1013 10:09:44.623837 13685 net.cpp:382] sigmoid_ae_sigmoid_ae_0_split -> sigmoid_ae_sigmoid_ae_0_split_0
I1013 10:09:44.623844 13685 net.cpp:382] sigmoid_ae_sigmoid_ae_0_split -> sigmoid_ae_sigmoid_ae_0_split_1
I1013 10:09:44.623850 13685 net.cpp:382] sigmoid_ae_sigmoid_ae_0_split -> sigmoid_ae_sigmoid_ae_0_split_2
I1013 10:09:44.623855 13685 net.cpp:382] sigmoid_ae_sigmoid_ae_0_split -> sigmoid_ae_sigmoid_ae_0_split_3
I1013 10:09:44.623940 13685 net.cpp:124] Setting up sigmoid_ae_sigmoid_ae_0_split
I1013 10:09:44.623956 13685 net.cpp:131] Top shape: 50 36 (1800)
I1013 10:09:44.623960 13685 net.cpp:131] Top shape: 50 36 (1800)
I1013 10:09:44.623963 13685 net.cpp:131] Top shape: 50 36 (1800)
I1013 10:09:44.623966 13685 net.cpp:131] Top shape: 50 36 (1800)
I1013 10:09:44.623970 13685 net.cpp:139] Memory required for data: 346327600
I1013 10:09:44.623972 13685 layer_factory.hpp:77] Creating layer loss_1
I1013 10:09:44.623980 13685 net.cpp:86] Creating Layer loss_1
I1013 10:09:44.623984 13685 net.cpp:408] loss_1 <- sigmoid_ae_sigmoid_ae_0_split_0
I1013 10:09:44.623988 13685 net.cpp:408] loss_1 <- sigmoid_ae_sigmoid_ae_0_split_1
I1013 10:09:44.623994 13685 net.cpp:382] loss_1 -> loss: forcing-binary
I1013 10:09:44.624063 13685 net.cpp:124] Setting up loss_1
I1013 10:09:44.624073 13685 net.cpp:131] Top shape: (1)
I1013 10:09:44.624075 13685 net.cpp:134]     with loss weight 1
I1013 10:09:44.624091 13685 net.cpp:139] Memory required for data: 346327604
I1013 10:09:44.624094 13685 layer_factory.hpp:77] Creating layer latent_sigmoid_reshape
I1013 10:09:44.624105 13685 net.cpp:86] Creating Layer latent_sigmoid_reshape
I1013 10:09:44.624109 13685 net.cpp:408] latent_sigmoid_reshape <- sigmoid_ae_sigmoid_ae_0_split_2
I1013 10:09:44.624115 13685 net.cpp:382] latent_sigmoid_reshape -> latent_sigmoid_reshape
I1013 10:09:44.624150 13685 net.cpp:124] Setting up latent_sigmoid_reshape
I1013 10:09:44.624158 13685 net.cpp:131] Top shape: 50 1 1 36 (1800)
I1013 10:09:44.624161 13685 net.cpp:139] Memory required for data: 346334804
I1013 10:09:44.624166 13685 layer_factory.hpp:77] Creating layer latent_sigmoid_avg
I1013 10:09:44.624174 13685 net.cpp:86] Creating Layer latent_sigmoid_avg
I1013 10:09:44.624178 13685 net.cpp:408] latent_sigmoid_avg <- latent_sigmoid_reshape
I1013 10:09:44.624184 13685 net.cpp:382] latent_sigmoid_avg -> latent_sigmoid_avg
I1013 10:09:44.624420 13685 net.cpp:124] Setting up latent_sigmoid_avg
I1013 10:09:44.624433 13685 net.cpp:131] Top shape: 50 1 1 1 (50)
I1013 10:09:44.624438 13685 net.cpp:139] Memory required for data: 346335004
I1013 10:09:44.624440 13685 layer_factory.hpp:77] Creating layer latent_sigmoid_avg_latent_sigmoid_avg_0_split
I1013 10:09:44.624447 13685 net.cpp:86] Creating Layer latent_sigmoid_avg_latent_sigmoid_avg_0_split
I1013 10:09:44.624451 13685 net.cpp:408] latent_sigmoid_avg_latent_sigmoid_avg_0_split <- latent_sigmoid_avg
I1013 10:09:44.624457 13685 net.cpp:382] latent_sigmoid_avg_latent_sigmoid_avg_0_split -> latent_sigmoid_avg_latent_sigmoid_avg_0_split_0
I1013 10:09:44.624464 13685 net.cpp:382] latent_sigmoid_avg_latent_sigmoid_avg_0_split -> latent_sigmoid_avg_latent_sigmoid_avg_0_split_1
I1013 10:09:44.624531 13685 net.cpp:124] Setting up latent_sigmoid_avg_latent_sigmoid_avg_0_split
I1013 10:09:44.624541 13685 net.cpp:131] Top shape: 50 1 1 1 (50)
I1013 10:09:44.624547 13685 net.cpp:131] Top shape: 50 1 1 1 (50)
I1013 10:09:44.624549 13685 net.cpp:139] Memory required for data: 346335404
I1013 10:09:44.624553 13685 layer_factory.hpp:77] Creating layer loss_2
I1013 10:09:44.624572 13685 net.cpp:86] Creating Layer loss_2
I1013 10:09:44.624575 13685 net.cpp:408] loss_2 <- latent_sigmoid_avg_latent_sigmoid_avg_0_split_0
I1013 10:09:44.624580 13685 net.cpp:408] loss_2 <- latent_sigmoid_avg_latent_sigmoid_avg_0_split_1
I1013 10:09:44.624586 13685 net.cpp:382] loss_2 -> loss: 50%-fire-rate
I1013 10:09:44.624631 13685 net.cpp:124] Setting up loss_2
I1013 10:09:44.624641 13685 net.cpp:131] Top shape: (1)
I1013 10:09:44.624644 13685 net.cpp:134]     with loss weight 1000
I1013 10:09:44.624651 13685 net.cpp:139] Memory required for data: 346335408
I1013 10:09:44.624655 13685 layer_factory.hpp:77] Creating layer reconstruct
I1013 10:09:44.624663 13685 net.cpp:86] Creating Layer reconstruct
I1013 10:09:44.624666 13685 net.cpp:408] reconstruct <- sigmoid_ae_sigmoid_ae_0_split_3
I1013 10:09:44.624673 13685 net.cpp:382] reconstruct -> reconstruct
I1013 10:09:44.629338 13685 net.cpp:124] Setting up reconstruct
I1013 10:09:44.629354 13685 net.cpp:131] Top shape: 50 4096 (204800)
I1013 10:09:44.629356 13685 net.cpp:139] Memory required for data: 347154608
I1013 10:09:44.629369 13685 layer_factory.hpp:77] Creating layer reconstruct_loss
I1013 10:09:44.629375 13685 net.cpp:86] Creating Layer reconstruct_loss
I1013 10:09:44.629379 13685 net.cpp:408] reconstruct_loss <- reconstruct
I1013 10:09:44.629384 13685 net.cpp:408] reconstruct_loss <- fc7_fc7_0_split_2
I1013 10:09:44.629389 13685 net.cpp:382] reconstruct_loss -> loss: reconstruction-error
I1013 10:09:44.629446 13685 net.cpp:124] Setting up reconstruct_loss
I1013 10:09:44.629452 13685 net.cpp:131] Top shape: (1)
I1013 10:09:44.629456 13685 net.cpp:134]     with loss weight 0.001
I1013 10:09:44.629462 13685 net.cpp:139] Memory required for data: 347154612
I1013 10:09:44.629464 13685 layer_factory.hpp:77] Creating layer latent
I1013 10:09:44.629474 13685 net.cpp:86] Creating Layer latent
I1013 10:09:44.629477 13685 net.cpp:408] latent <- drop7
I1013 10:09:44.629483 13685 net.cpp:382] latent -> latent
I1013 10:09:44.630978 13685 net.cpp:124] Setting up latent
I1013 10:09:44.630990 13685 net.cpp:131] Top shape: 50 12 (600)
I1013 10:09:44.631005 13685 net.cpp:139] Memory required for data: 347157012
I1013 10:09:44.631009 13685 layer_factory.hpp:77] Creating layer latent_sigmoid
I1013 10:09:44.631016 13685 net.cpp:86] Creating Layer latent_sigmoid
I1013 10:09:44.631019 13685 net.cpp:408] latent_sigmoid <- latent
I1013 10:09:44.631026 13685 net.cpp:382] latent_sigmoid -> latent_sigmoid
I1013 10:09:44.631811 13685 net.cpp:124] Setting up latent_sigmoid
I1013 10:09:44.631825 13685 net.cpp:131] Top shape: 50 12 (600)
I1013 10:09:44.631829 13685 net.cpp:139] Memory required for data: 347159412
I1013 10:09:44.631832 13685 layer_factory.hpp:77] Creating layer fc9
I1013 10:09:44.631840 13685 net.cpp:86] Creating Layer fc9
I1013 10:09:44.631844 13685 net.cpp:408] fc9 <- latent_sigmoid
I1013 10:09:44.631851 13685 net.cpp:382] fc9 -> fc9
I1013 10:09:44.632004 13685 net.cpp:124] Setting up fc9
I1013 10:09:44.632014 13685 net.cpp:131] Top shape: 50 10 (500)
I1013 10:09:44.632016 13685 net.cpp:139] Memory required for data: 347161412
I1013 10:09:44.632033 13685 layer_factory.hpp:77] Creating layer fc9_fc9_0_split
I1013 10:09:44.632051 13685 net.cpp:86] Creating Layer fc9_fc9_0_split
I1013 10:09:44.632055 13685 net.cpp:408] fc9_fc9_0_split <- fc9
I1013 10:09:44.632062 13685 net.cpp:382] fc9_fc9_0_split -> fc9_fc9_0_split_0
I1013 10:09:44.632068 13685 net.cpp:382] fc9_fc9_0_split -> fc9_fc9_0_split_1
I1013 10:09:44.632114 13685 net.cpp:124] Setting up fc9_fc9_0_split
I1013 10:09:44.632124 13685 net.cpp:131] Top shape: 50 10 (500)
I1013 10:09:44.632128 13685 net.cpp:131] Top shape: 50 10 (500)
I1013 10:09:44.632144 13685 net.cpp:139] Memory required for data: 347165412
I1013 10:09:44.632148 13685 layer_factory.hpp:77] Creating layer accuracy
I1013 10:09:44.632161 13685 net.cpp:86] Creating Layer accuracy
I1013 10:09:44.632165 13685 net.cpp:408] accuracy <- fc9_fc9_0_split_0
I1013 10:09:44.632170 13685 net.cpp:408] accuracy <- label_data_1_split_0
I1013 10:09:44.632175 13685 net.cpp:382] accuracy -> accuracy
…
